期末项目/code/Transformer法/transformer_preprossing/models/best_model_20240613-171248.pth (torch, 796448 bytes, 129 tensors)

embedding.weight f4 [32, 15]
-0.2860435 -0.27027658 -0.16852866 0.09389148 -0.29441634 0.06397228 -0.2932815 0.18178797
0.24650687 0.27241907 -0.22655067 0.17680171 0.14964797 0.3503096 -0.3225693 0.564087
0.15860198 0.10896245 -0.12711757 0.20583268 0.17267695 0.23539075 0.062339634 -0.061172433
-0.2592421 0.32244876 -0.30588695 -0.34697208 -0.22321245 -0.20697802 -0.29763514 0.17834046
0.0038964844 0.4432368 0.4331485 -0.2639372 -0.30352914 0.01865715 0.2563793 0.070477724
-0.32654458 0.057337426 0.26209095 -0.08478161 0.2370589 -0.4842068 0.007943184 0.15770288
-0.20155907 -0.09135679 0.24068911 -0.2856057 -0.07343362 -0.35533237 -0.13733687 0.27014235
-0.15515506 0.34423813 -0.043000743 -0.2466533 -0.628811 -0.19184126 0.2781347 -0.20211312
0.12269215 -0.03711676 0.26716653 -0.33190265 0.3656227 -0.09535967 0.06596418 -0.26901376
0.055361915 -0.25418767 0.037521638 0.4761129 0.33871615 -0.12167518 -0.14071414 0.2187068
0.20544735 -0.1185281 0.006038873 0.096554875 -0.050134797 0.17214881 -0.07761335 0.014981292
-0.33898106 0.119470246 0.43527228 -0.008925228 -0.14258435 0.21162611 -0.1020959 -0.25298783
0.367383 0.07648089 -0.06366448 -0.25925192 -0.026066152 0.19914709 0.056318417 0.21278198
-0.26772338 0.42542097 0.06067238 0.25352094 -0.08730946 0.33260286 -0.2648816 0.037124876
0.22010605 -0.04314416 -0.024788594 -0.08365956 -0.049117103 -0.24510382 0.028471708 -0.09607691
0.12726139 0.12376384 -0.21242528 -0.26118517 -0.3795937 -0.10843193 -0.117168464 0.04584092
0.18399298 -0.0051314533 0.02948146 -0.009640183 0.06383177 -0.011321108 -0.063427 0.40994292
-0.08813084 0.03185723 0.28723872 0.06632806 0.1673286 0.052767128 -0.13990034 -0.068401024
-0.21702026 -0.2529081 -0.0036178045 0.10857012 -0.17694053 -0.077850506 -0.66334426 0.0096816635
-0.20946556 -0.20603481 0.25130364 -0.18174022 -0.2849967 -0.2777666 0.3383347 0.28286898
-0.30151662 0.12449465 -0.070786506 -0.29864997 0.29423147 0.32337636 0.2044295 -0.25998944
-0.3044469 -0.11649403 -0.17948441 0.08896736 0.3050841 0.05027504 0.3199703 -0.1008085
0.19332863 -0.011114492 -0.21824236 -0.24140438 -0.02125125 0.18561691 0.34569502 -0.45675033
0.20676912 -0.20850514 0.07880354 -0.18569574 -0.20621915 -0.053869065 -0.19537652 -0.087745346
-0.007480862 -0.18509005 -0.22734578 0.45596993 0.012574275 0.06656484 0.22588594 0.15142426
-0.0012192102 -0.28552023 -0.2225298 -0.31747735 0.30819315 0.2218696 -0.0652498 0.30389965
-0.1320337 0.23752241 0.21257113 -0.068503834 0.04308523 -0.29471892 -0.2765558 -0.30848056
0.11950293 0.051342703 0.03318351 -0.28087115 -0.16561434 0.37116432 -0.11357507 -0.3713477
0.04990182 0.25653943 -0.37314945 0.04448446 0.17338896 0.2622468 -0.18958981 -0.1925837
0.1509299 0.13314307 0.30562416 -0.24123542 -0.16259955 -0.3009209 0.2550236 -0.34094542
-0.02524901 0.053013507 -0.21472524 0.20651893 -0.04923562 -0.1421471 -0.08980371 0.15989675
-0.21693438 -0.095949434 -0.23292688 0.13981524 -0.092063434 0.06320033 0.0062974086 0.036589656
00000000: 4b74 92be b161 8abe c792 2cbe 2d4a c03d
00000010: bdbd 96be e603 833d fe28 96be a026 3a3e
00000020: 4c6c 7c3e 837a 8b3e e6fc 67be 820b 353e
00000030: 513d 193e c85b b33e ce27 a5be 0168 103f
00000040: 8f68 223e b427 df3d 1c2b 02be cdc5 523e
00000050: 3ad2 303e 460a 713e d857 7f3d f28f 7abd
00000060: 61bb 84be 0118 a53e 379d 9cbe 53a6 b1be
00000070: ce91 64be 0cf2 53be a263 98be e29e 363e
00000080: 295c 7f3b efef e23e a4c5 dd3e c722 87be
00000090: 2c68 9bbe e1d6 983c 2644 833e a056 903d
000000a0: da30 a7be a6da 6a3d c930 863e fba1 adbd
000000b0: 91bf 723e f4e9 f7be 2124 023c dd7c 213e
000000c0: 8065 4ebe 4519 bbbd 3577 763e e93a 92be
000000d0: 5e64 96bd 20ee b5be 09a2 0cbe 1950 8a3e
000000e0: f8e0 1ebe fb3f b03e 8c21 30bd af92 7cbe
000000f0: c2f9 20bf 0972 44be ac67 8e3e bef6 4ebe
00000100: 0646 fb3d be07 18bd 0dca 883e 25ef a9be
00000110: e632 bb3e ee4b c3bd 3a18 873d 2cbc 89be
00000120: 2dc3 623d e324 82be 4ab0 193d 12c5 f33e
00000130: 346c ad3e d630 f9bd 5e17 10be adf4 5f3e
00000140: ca60 523e dcbe f2bd bde1 c53b 90be c53d
00000150: 255a 4dbd c747 303e bff3 9ebd 1874 753c
00000160: ed8e adbe d1ac f43d 02dc de3e 1f3b 12bc
00000170: a201 12be 84b4 583e a817 d1bd 9f87 81be
00000180: a019 bc3e 03a2 9c3d 8662 82bd abbc 84be
00000190: af88 d5bc 37ed 4b3e 24ae 663d 85e3 593e
000001a0: 0a13 89be c7d0 d93e 9a83 783d 7fcd 813e
000001b0: 4dcf b2bd ec4a aa3e 909e 87be 4110 183d
000001c0: 7b63 613e eeb7 30bd 7311 cbbc b455 abbd
000001d0: 042f 49bd 7ffc 7abe 803d e93c f9c3 c4bd
000001e0: cf50 023e e577 fd3d 0386 59be 10ba 85be
000001f0: 1b5a c2be 8f11 debd 05f6 efbd b0c3 3b3d
00000200: a868 3c3e c025 a8bb 1a83 f13c dcf1 1dbc
00000210: 3bba 823d 2b7c 39bc 04e6 81bd 0ae4 d13e
00000220: f17d b4bd ba7c 023d f410 933e 02d7 873d
00000230: 3058 2b3e 5822 583d 0942 0fbe d615 8cbd
00000240: 8f3a 5ebe 2c7d 81be b018 6dbb 035a de3d
00000250: e62f 35be 1670 9fbd eed0 29bf d79f 1e3c
00000260: 247e 56be cafa 52be dfaa 803e 1c1a 3abe
00000270: 16eb 91be 6c37 8ebe 353a ad3e 34d4 903e
00000280: 6360 9abe 0df7 fe3d 84f8 90bd a6e8 98be
00000290: 82a5 963e 9691 a53e f855 513e 561d 85be
000002a0: 77e0 9bbe 6c94 eebd c3ca 37be 8534 b63d
000002b0: fc33 9c3e 33ed 4d3d 26d3 a33e b074 cebd
000002c0: f1f7 453e 8f19 36bc ed7a 5fbe b632 77be
000002d0: 1a17 aebc 5c12 3e3e f0fe b03e 2edb e9be
000002e0: 49bb 533e 5f82 55be c063 a13d 0627 3ebe
000002f0: 1d2b 53be cfa5 5cbd c810 48be d5b3 b3bd
00000300: 0522 f5bb 3f88 3dbe 55cd 68be e474 e93e
00000310: 5504 4e3c 2653 883d a54e 673e f60e 1b3e
00000320: e8cd 9fba b52f 92be dade 63be 648c a2be
00000330: 7ecb 9d3e c931 633e b0a1 85bd bc98 9b3e
00000340: d833 07be 1339 733e 3fac 593e bd4b 8cbd
00000350: 237a 303d 66e5 96be b998 8dbe 2af1 9dbe
00000360: f4bd f43d ba4c 523d 6feb 073d 58ce 8fbe
00000370: ce96 29be 4009 be3e 0c9a e8bd 4921 bebe
00000380: da65 4c3d 2359 833e 720d bfbe 5635 363d
00000390: e08c 313e 3645 863e d523 42be a934 45be
000003a0: 5e8d 1a3e a856 083e c57a 9c3e 6b06 77be
000003b0: 7f80 26be 4e12 9abe 7492 823e 6690 aebe
000003c0: 03d7 cebc b124 593d efe0 5bbe b379 533e
000003d0: 4aab 49bd 028f 11be 02eb b7bd f9bb 233e
000003e0: 0c24 5ebe 2381 c4bd 6284 6ebe ba2b 0f3e
000003f0: c18b bcbd 2d6f 813d 7e5a ce3b 09df 153d

embedding.bias f4 [32]
-0.21561481 -0.14379083 -0.13035007 -0.22417176 -0.19977155 -0.15431122 0.17752524 -0.2544121
0.21673822 -0.03981712 0.04444714 0.189614 0.17755368 0.041889697 -0.16961612 -0.1703734
0.32321116 0.27002725 0.16921172 -0.095078446 0.28215834 -0.2483228 -0.19961144 0.11892331
-0.15781294 -0.25391036 0.07064538 0.113664255 -0.020641046 -0.25072107 0.051058907 -0.17090689
00000000: 21ca 5cbe e73d 13be 7d7a 05be 488d 65be
00000010: ea90 4cbe c303 1ebe 2dc9 353e 4e42 82be
00000020: a0f0 5d3e 4717 23bd 340e 363d 2c2a 423e
00000030: a2d0 353e 8894 2b3d d9af 2dbe 5d76 2ebe
00000040: ef7b a53e 0341 8a3e d645 2d3e 7db8 c2bd
00000050: 0f77 903e 5548 7ebe f166 4cbe 108e f33d
00000060: b799 21be 8a00 82be 86ae 903d cec8 e83d
00000070: 6917 a9bc 835e 80be 2523 513d 3702 2fbe

transformer.encoder.layers.0.self_attn.in_proj_weight f4 [96, 32]
0.112699196 -0.04816572 0.15643291 0.0022702336 -0.3540596 0.25927252 -0.26584002 0.0741781
0.2553687 -0.10395108 0.24796747 0.27709165 -0.088203155 0.09575877 -0.115724534 -0.13172755
0.13765568 0.3004085 0.12323854 0.117360026 0.03164119 0.11463971 0.17833254 0.1299021
0.0156043405 0.03007768 0.027803475 -0.080537096 -0.04406694 0.14828181 0.14410867 0.1366844
0.10061167 0.27516052 -0.022008859 0.10014077 0.297821 0.14207108 0.17967811 -0.022289772
-0.15204823 0.13622394 -0.1588958 0.101052836 -0.22635758 0.027573079 -0.036050253 -0.12532973
-0.245551 -0.2932517 -0.3338964 0.033634093 -0.06745331 -0.061900128 -0.20994093 0.006523624
-0.029624078 -0.05970648 -0.053775176 -0.15279333 -0.2098183 0.07453545 0.1090585 -0.134505
-0.1317819 0.09163299 -0.040828817 -0.022021024 -0.1937528 0.13349913 -0.16673565 0.19585957
-0.0763101 0.05043509 -0.17127497 -0.16531464 -0.028137986 -0.08285948 -0.21218622 -0.2852208
-0.18258497 -0.043771144 0.15779328 0.007265543 0.11491427 0.11507361 -0.18674362 0.03318946
0.15260433 0.098314054 -0.17633213 0.13874608 0.0006639892 0.10185421 -0.28183216 -0.090490274
-0.03352298 0.1391882 -0.03437428 0.022584394 0.36239427 -0.19366348 0.1498369 -0.12388193
0.19409285 0.17426778 -0.059669957 0.17637897 0.083270684 -0.044441976 0.0033926605 0.0433274
0.053294715 -0.25149876 -0.28521535 -0.022496495 0.09043073 0.11164674 0.21271151 -0.11687244
-0.014248132 0.13329811 0.09772219 -0.187892 -0.26211452 -0.052173693 -0.24170463 0.13028689
-0.15976289 -0.052680008 0.0124023855 0.2496433 0.100178845 0.07113045 0.037856087 -0.080901094
-0.075749904 -0.14897189 -0.012418018 -0.19050702 -0.2259143 -0.078428134 0.15954247 -0.3503044
0.09553374 0.099707924 0.073523946 0.15872818 0.10622595 -0.10220402 0.17301515 -0.16779849
0.13385174 0.23816347 -0.15268467 0.05527504 -0.17334284 -0.016155472 -0.4007186 0.17915484
0.14586844 0.085158825 -0.044393968 -0.13495201 -0.034218583 -0.08783279 0.06811126 0.090965204
-0.054639082 0.017963719 0.08800743 -0.15016842 0.04692355 0.2574571 0.09886973 0.054216005
0.14046001 0.14834963 0.38861623 -0.12496826 -0.08049914 -0.23241042 -0.0113683855 0.1777894
0.09686494 -0.35977587 -0.19304286 0.26548955 -0.027227193 -0.09432897 0.24232541 0.14053318
0.21968597 0.12523547 -0.048307166 0.08234933 -0.25189236 0.085899375 0.09513383 0.0045633307
-0.17692353 -0.06953715 0.03293568 0.120750815 -0.17180991 -0.059776828 0.12926981 0.06455319
0.18735565 -0.03179798 -0.20702964 0.13265972 -0.13323137 -0.22607839 0.046064187 0.07069969
0.17091884 0.16401133 0.11673266 0.03661186 0.22589424 -0.15530396 0.16630973 -0.21996336
-0.1351201 -0.08120198 -0.12558573 -0.09862146 -0.22616759 0.11050629 0.11346083 0.22515698
0.25234246 -0.10095285 0.22773732 0.27187863 0.12302443 0.10657878 0.063433856 -0.10473966
0.2980653 -0.049590766 0.027460884 -0.12910758 0.17327382 -0.09767873 -0.09113207 -0.12071079
-0.115324594 -0.04472669 -0.11971183 0.03867771 0.034983665 0.08032989 0.36103934 -0.083925284
00000000: d6ce e63d 6b49 45bd f32f 203e 33c8 143b
00000010: 4d47 b5be 5ebf 843e 2f1c 88be b0ea 973d
00000020: b0bf 823e 4ee4 d4bd 2feb 7d3e f5de 8d3e
00000030: dba3 b4bd 2d1d c43d fc00 edbd 96e3 06be
00000040: 9cf5 0c3e 25cf 993e 7d64 fc3d 745a f03d
00000050: 319a 013d 39c8 ea3d ce9c 363e 0e05 053e
00000060: 59a9 7f3c 7765 f63c 1dc4 e33c a2f0 a4bd
00000070: 897f 34bd 30d7 173e 3991 133e fff6 0b3e
00000080: 7e0d ce3d d7e1 8c3e ec4b b4bc 9b16 cd3d
00000090: fe7b 983e 157b 113e 8afd 373e 0a99 b6bc
000000a0: 88b2 1bbe 4a7e 0b3e 95b5 22be caf4 ce3d
000000b0: 48ca 67be f0e0 e13c 6ea9 13bd 7056 00be
000000c0: b971 7bbe 1625 96be 78f4 aabe e7c3 093d
000000d0: f624 8abd fd8a 7dbd c1fa 56be 20c4 d53b
000000e0: 32ae f2bc c88e 74bd 5c43 5cbd db75 1cbe
000000f0: 9cda 56be 0ba6 983d 105a df3d aebb 09be
00000100: d6f1 06be 14aa bb3d 1e3c 27bd 6f65 b4bc
00000110: 2267 46be ffb3 083e c0bc 2abe 698f 483e
00000120: 7848 9cbd 0695 4e3d b562 2fbe 3e48 29be
00000130: a281 e6bc 3bb2 a9bd 5847 59be 7608 92be
00000140: 8ef7 3abe 5f49 33bd 9094 213e cb13 ee3b
00000150: 2c58 eb3d b6ab eb3d b839 3fbe acf1 073d
00000160: 4f44 1c3e e158 c93d 6990 34be 7413 0e3e
00000170: 900f 2e3a f198 d03d 4e4c 90be f752 b9bd
00000180: 644f 09bd 5a87 0e3e 0ccc 0cbd e802 b93c
00000190: be8b b93e b84f 46be d86e 193e cfb5 fdbd
000001a0: 47c0 463e 4173 323e 7c68 74bd b09c 343e
000001b0: d289 aa3d ca08 36bd 6657 5e3b 1278 313d
000001c0: 8f4b 5a3d 72c4 80be bf07 92be 924a b8bc
000001d0: bf33 b93d 0ca7 e43d 0cd1 593e d15a efbd
000001e0: ff70 69bc 4d7f 083e 9222 c83d c366 40be
000001f0: e033 86be 15b4 55bd 6b81 77be ed69 053e
00000200: e298 23be fec6 57bd 6033 4b3c 7ea2 7f3e
00000210: 912a cd3d d7ac 913d fc0e 1b3d 79af a5bd
00000220: c422 9bbd 168c 18be f174 4bbc 4614 43be
00000230: 1456 67be ee9e a0bd 1a5f 233e 195b b3be
00000240: 32a7 c33d ab33 cc3d b993 963d a489 223e
00000250: fe8c d93d 5750 d1bd e22a 313e 5ed3 2bbe
00000260: 6e10 093e 20e1 733e 5f59 1cbe 1568 623d
00000270: c980 31be 7b58 84bc fd2a cdbe 5e74 373e
00000280: 895e 153e c067 ae3d 73d6 35bd dc30 0abe
00000290: c928 0cbd aee1 b3bd eb7d 8b3d f74b ba3d
000002a0: 3bcd 5fbd a628 933c 3d3d b43d c0c5 19be
000002b0: e932 403d 6bd1 833e 377c ca3d 9a11 5e3d
000002c0: c0d4 0f3e f7e8 173e b5f8 c63e 5cef ffbd
000002d0: bcdc a4bd fffc 6dbe 7742 3abc 6d0e 363e
000002e0: 2061 c63d 8b34 b8be 07ad 45be 3fee 873e
000002f0: 900b dfbc 8c2f c1bd 2724 783e eee7 0f3e
00000300: 5cf5 603e ba3d 003e bcdd 45bd c4a6 a83d
00000310: 09f8 80be 03ec af3d 87d5 c23d fe87 953b
00000320: 712b 35be 7e69 8ebd 90e7 063d 344c f73d
00000330: f0ee 2fbe 8cd8 74bd 4e5f 043e 7634 843d
00000340: 29da 3f3e 993e 02bd 94ff 53be f3d7 073e
00000350: ce6d 08be 1881 67be cdad 3c3d 00cb 903d
00000360: 5905 2f3e 96f2 273e 8811 ef3d 51f6 153d
00000370: d250 673e 0008 1fbe 194d 2a3e 133e 61be
00000380: ec5c 0abe 394d a6bd 8c99 00be 0cfa c9bd
00000390: 7a98 67be 1f51 e23d 275e e83d 8d8f 663e
000003a0: 0833 813e 5ec0 cebd f933 693e ad33 8b3e
000003b0: 3bf4 fb3d fa45 da3d 9ce9 813d bf81 d6bd
000003c0: 049c 983e b01f 4bbd a6f5 e03c c734 04be
000003d0: b16e 313e c90b c8bd 73a3 babd 3837 f7bd
000003e0: 4d2f ecbd 5533 37bd 7a2b f5bd 856c 1e3d
000003f0: 084b 0f3d ff83 a43d 26da b83e 05e1 abbd

transformer.encoder.layers.0.self_attn.in_proj_bias f4 [96]
0.05362384 -0.057872806 -0.044349264 -0.01841394 0.0038462416 0.02906087 -0.042399127 0.03628015
0.104125164 0.021817677 0.20484614 0.29657242 0.29493183 0.27170032 -0.2671229 0.2519154
-0.2412289 -0.21682823 -0.09799879 0.260406 0.031131957 -0.072118364 0.16823256 0.00730691
-0.25756887 0.13439521 0.13896996 0.22481138 -0.23111868 0.24910553 0.13537607 -0.32974985
-8.967426e-05 0.0019211449 0.0029072312 -0.0046493383 -0.000503609 0.0013202182 0.0013055041 0.0002878248
-0.0032995148 -0.003655895 -0.0057462677 -0.0075172507 -0.0019472691 -0.0078066587 0.0034110085 -0.005363861
0.009914363 0.0075266846 0.0025557783 -0.0060375165 0.009078111 -0.006427111 -0.0083814915 -0.0052077444
0.0055302675 -0.011254166 -0.009591575 -0.0034407012 0.011443574 -0.011694653 -0.010512664 0.012018709
-0.03888651 0.045315474 0.13887621 -0.003112503 0.14236958 -0.07548618 0.09651138 0.027793251
-0.07853817 0.03154268 0.077573486 -0.014548927 -0.021102978 -0.10281585 -0.0204346 -0.041947186
0.07303625 -0.027384669 -0.11050735 0.034989662 0.08260851 -0.04167771 0.068727955 -0.014410536
0.084949546 0.06166727 -0.044192493 -0.013822484 -0.17794478 0.037820905 0.014455648 -0.101783834
00000000: aca4 5b3d 090c 6dbd 93a7 35bd d5d8 96bc
00000010: 3a11 7c3b 1011 ee3c b5aa 2dbd 7f9a 143d
00000020: 933f d53d fcba b23c 30c3 513e 57d8 973e
00000030: 4e01 973e 4e1c 8b3e 55c4 88be 0efb 803e
00000040: b504 77be 3808 5ebe 97b3 c8bd ef53 853e
00000050: 7208 ff3c cbb2 93bd 2845 2c3e ce6e ef3b
00000060: 11e0 83be e69e 093e 244e 0e3e f434 663e
00000070: 60aa 6cbe 8515 7f3e 06a0 0a3e f9d4 a8be
00000080: 800f bcb8 edce fb3a 3f87 3e3b 7a59 98bb
00000090: a104 04ba 2c0b ad3a 731d ab3a 31e7 9639
000000a0: ac3c 58bb bd97 6fbb 304b bcbb 4553 f6bb
000000b0: 823b ffba 00cf ffbb 3a8b 5f3b 54c3 afbb
000000c0: da6f 223c 68a2 f63b d87e 273b 5cd6 c5bb
000000d0: 5bbc 143c 849a d2bb 8652 09bc baa5 aabb
000000e0: 3f37 b53b 6563 38bc fb25 1dbc 637d 61bb
000000f0: d47d 3b3c ee9a 3fbc 4f3d 2cbc 1fea 443c
00000100: 7647 1fbd b89c 393d 9135 0e3e 23fb 4bbb
00000110: 55c9 113e 8098 9abd c2a7 c53d acae e33c
00000120: 9fd8 a0bd e632 013d d9de 9e3d 9f5e 6ebc
00000130: 27e0 acbc 1e91 d2bd 7666 a7bc d0d0 2bbd
00000140: 0894 953d d055 e0bc ad51 e2bd 5251 0f3d
00000150: a72e a93d 3fb6 2abd 3ec1 8c3d 2b1a 6cbc
00000160: 07fa ad3d d296 7c3d 3003 35bd b377 62bc
00000170: 2837 36be 18ea 1a3d 62d7 6c3c 0b74 d0bd

transformer.encoder.layers.0.self_attn.out_proj.weight f4 [32, 32]
0.12227353 -0.11056569 -0.13224599 0.074879296 -0.35301635 0.030343868 -0.22264938 -0.13896777
0.13528584 -0.08412787 -0.27123374 -0.3124718 0.030410245 -0.2951886 0.2157649 0.007870522
-0.05033092 -0.1578469 0.033008885 0.2976246 0.27196422 -0.1984309 0.25003612 0.15691853
-0.13854872 0.05964164 -0.09544346 0.23957059 0.1718076 -0.18885201 0.0887214 0.27889356
-0.24502622 -0.18727197 0.090685315 -0.05765488 0.31413484 -0.14025356 0.09814813 0.04916479
-0.24843599 -0.005612073 -0.104520895 0.12970671 0.30770725 0.21044782 0.06677684 0.12571974
0.12897782 0.18770123 -0.34073806 0.119028404 0.3619157 0.011657492 0.06302592 0.06630703
-0.10782687 0.27378827 0.19185187 -0.20694266 -0.13567539 -0.008302564 -0.20018944 -0.13558841
-0.14024562 0.021252096 -0.3340495 0.02472957 0.18165557 0.3000142 -0.20755039 -0.04855519
-0.047603935 -0.0516424 -0.05610161 0.170038 0.00948916 0.11106829 0.18882076 0.3344899
0.23908411 0.04765259 0.26986256 -0.15816148 -0.022209378 0.028915638 -0.00019176547 0.056162193
-0.18020332 -0.121337384 0.21886593 -0.06393384 0.28098604 -0.21856768 -0.013105852 -0.056825303
0.046186052 0.013669865 0.043480817 -0.016991623 0.26036644 0.052513003 0.25408658 0.13562682
0.2040097 -0.06178473 -0.016909704 0.34476474 -0.18686603 0.110657826 -0.16736878 -0.041179746
-0.28792125 0.086652435 0.064544246 0.22161783 0.06703082 0.2804953 0.1943893 0.18000393
-0.029982515 0.01038556 0.15109406 0.24938221 0.118763715 0.038937 0.05751318 -0.052976884
-0.2460239 0.03915024 0.15773332 -0.31879252 -0.1433926 0.25013018 -0.10594271 -0.051649168
-0.15413998 0.24556473 -0.077476 0.25084928 -0.2954544 0.13417219 -0.13122776 -0.041534714
-0.058476936 0.14678784 -0.12593043 -0.15630667 0.13835432 -0.17548044 -0.22943968 0.22664547
0.08362308 -0.1892137 0.13377647 0.27693596 0.26866293 0.09099715 -0.1761703 -0.14231679
0.13980888 -0.21984081 -0.29366997 0.25707996 -0.057989914 0.23332535 -0.31072885 0.11548416
-0.11631328 -0.0134100225 -0.11708702 -0.18357769 -0.14164057 0.1061012 -0.02229109 0.09305661
0.06523302 0.041044537 -0.23059434 0.18903911 0.07868515 0.027112288 0.0037204858 0.015682438
-0.27119026 0.14422542 0.08151556 -0.2889916 -0.15776807 -0.22510196 0.31436342 0.16021937
-0.09158029 -0.16260192 0.14085536 -0.036413096 -0.11562755 0.0959944 -0.33252352 0.24109642
-0.072837345 -0.10340431 0.29308897 -0.039773747 -0.24325956 -0.27439356 -0.0008196254 0.014413732
0.15910412 0.1708953 -0.221361 0.24917765 0.07752879 0.3191031 -0.20948946 0.13478468
0.0090155285 0.24421957 -0.22772764 0.1262048 -0.1236663 0.18011987 -0.21224296 -0.09179027
-0.10716432 0.018036747 0.036875594 -0.041397437 0.27388775 -0.09250817 -0.18603246 0.14210865
-0.23347734 0.06318389 -0.024919711 -0.02544798 0.20852193 0.25970063 0.014769884 0.14665951
-0.20119943 0.30789137 -0.07386016 -0.17491004 0.15956858 -0.09593686 0.17810114 0.17658629
-0.09834816 -0.16458249 -0.084741205 -0.1811897 0.28967184 0.12254137 0.29309565 0.19053636
00000000: 8b6a fa3d 4470 e2bd 7e6b 07be 515a 993d
00000010: 8fbe b4be b493 f83c 33fe 63be 914d 0ebe
00000020: 5f88 0a3e 3c4b acbd 26df 8abe 4efc 9fbe
00000030: e81e f93c f622 97be 79f1 5c3e 5df3 003c
00000040: cb27 4ebd 9ea2 21be 5334 073d 4062 983e
00000050: e53e 8b3e 7831 4bbe bc04 803e 40af 203e
00000060: b7df 0dbe cb4a 743d dc77 c3bd fe51 753e
00000070: 55ee 2f3e 6c62 41be 91b3 b53d 23cb 8e3e
00000080: 27e8 7abe 39c4 3fbe 39b9 b93d 8627 6cbd
00000090: 48d6 a03e a19e 0fbe e301 c93d 0561 493d
000000a0: 0166 7ebe 7be5 b7bb 0d0f d6bd d6d1 043e
000000b0: ce8b 9d3e a27f 573e 4cc2 883d adbc 003e
000000c0: c312 043e c034 403e 3875 aebe 2ac5 f33d
000000d0: 044d b93e 11ff 3e3c bc13 813d fbcb 873d
000000e0: 56d4 dcbd fa2d 8c3e d174 443e c7e8 53be
000000f0: 7dee 0abe 7a07 08bc 76fe 4cbe b0d7 0abe
00000100: 8c9c 0fbe e018 ae3c 8908 abbe ab95 ca3c
00000110: eb03 3a3e 769b 993e 1788 54be cfe1 46bd
00000120: 58fc 42bd fb86 53bd cdca 65bd 711e 2e3e
00000130: 6c78 1b3c c677 e33d 3b5a 413e 4342 ab3e
00000140: 77d2 743e 5d2f 433d 6d2b 8a3e 15f5 21be
00000150: 71f0 b5bc 7de0 ec3c a714 49b9 540a 663d
00000160: 3887 38be bc7f f8bd 641e 603e bfef 82bd
00000170: 67dd 8f3e 35d0 5fbe edb9 56bc a6c1 68bd
00000180: 962d 3d3d 92f7 5f3c f118 323d 0432 8bbc
00000190: c04e 853e e017 573d a317 823e c2e1 0a3e
000001a0: ebe7 503e fc11 7dbd 3886 8abc 0185 b03e
000001b0: cf59 3fbe 92a0 e23d b962 2bbe 18ac 28bd
000001c0: 6a6a 93be d576 b13d c62f 843d c9ef 623e
000001d0: 7447 893d 149d 8f3e fd0d 473e f352 383e
000001e0: e49d f5bc 3228 2a3c 67b8 1a3e 0d5e 7f3e
000001f0: 643a f33d 677c 1f3d f192 6b3d 4afe 58bd
00000200: b0ed 7bbe 015c 203d d884 213e c638 a3be
00000210: 82d5 12be 1011 803e 7ef8 d8bd 148e 53bd
00000220: dfd6 1dbe 5275 7b3e bdab 9ebd 516f 803e
00000230: cd45 97be 6f64 093e 9260 06be 4e20 2abd
00000240: 8385 6fbd 8d4f 163e e8f3 00be db0e 20be
00000250: c1ac 0d3e 25b1 33be 3cf2 6abe c015 683e
00000260: 9442 ab3d 3cc1 41be b3fc 083e 8dca 8d3e
00000270: 308e 893e b75c ba3d fd65 34be 7ebb 11be
00000280: 0f2a 0f3e f31d 61be e95b 96be fc9f 833e
00000290: d586 6dbd d7ec 6e3e da17 9fbe f682 ec3d
000002a0: a835 eebd b6b5 5bbc 52cb efbd cafb 3bbe
000002b0: 3a0a 11be 964b d93d ce9b b6bc 7794 be3d
000002c0: e498 853d 511e 283d ec20 6cbe 7893 413e
000002d0: ae25 a13d 971a de3c 65d3 733b 7578 803c
000002e0: 73d9 8abe d4af 133e a1f1 a63d b5f6 93be
000002f0: f48d 21be 2181 66be 3ef4 a03e 8c10 243e
00000300: 728e bbbd 1e81 26be 633c 103e e625 15bd
00000310: 23ce ecbd b698 c43d 8640 aabe fbe1 763e
00000320: bf2b 95bd a4c5 d3bd c20f 963e cce9 22bd
00000330: 0919 79be 507d 8cbe 21dc 56ba 9327 6c3c
00000340: 31ec 223e 2dff 2e3e 75ac 62be 6d28 7f3e
00000350: 6ac7 9e3d 7b61 a33e 6884 56be ff04 0a3e
00000360: deb5 133c b214 7a3e 6f31 69be d53b 013e
00000370: c244 fdbd 5871 383e 3856 59be 89fc bbbd
00000380: f878 dbbd cdc1 933c dd0a 173d 5c90 29bd
00000390: 043b 8c3e ec74 bdbd 4b7f 3ebe ee84 113e
000003a0: af14 6fbe 8e66 813d 6c24 ccbc 4878 d0bc
000003b0: c686 553e 7bf7 843e 62fd 713c e92d 163e
000003c0: 3907 4ebe f0a3 9d3e ff43 97bd 9e1b 33be
000003d0: f265 233e 8b7a c4bd 2560 363e 09d3 343e
000003e0: c36a c9bd 5088 28be cc8c adbd cb89 39be
000003f0: de4f 943e f8f6 fa3d a210 963e f71b 433e

transformer.encoder.layers.0.self_attn.out_proj.bias f4 [32]
-0.12717336 0.21432436 -0.20705551 -0.017398188 -0.080777995 -0.00968936 0.21029572 -0.015208633
0.061038814 0.003378752 0.041383646 0.19338591 0.102521 -0.04143137 -0.08289679 0.0023795434
0.104233064 -0.008253594 0.018423017 -0.12932083 0.09315147 -0.116197914 -0.0804006 -0.020589659
-0.050381303 -0.07659531 0.10884531 0.03588717 -0.036910135 -0.066389196 -0.0018297643 0.11375426
00000000: bc39 02be d877 5b3e 5c06 54be a586 8ebc
00000010: ef6e a5bd 1fc0 1ebc c357 573e a12d 79bc
00000020: d603 7a3d 0d6e 5d3b e681 293d f506 463e
00000030: 88f6 d13d f1b3 29bd cbc5 a9bd 1df2 1b3b
00000040: 2578 d53d 153a 07bc deeb 963c ae6c 04be
00000050: 33c6 be3d 2cf9 edbd 12a9 a4bd a5ab a8bc
00000060: a05c 4ebd 00de 9cbd 4aea de3d 6dfe 123d
00000070: 152f 17bd 0ff7 87bd b4d4 efba fef7 e83d

transformer.encoder.layers.0.linear1.weight f4 [256, 32]
0.02944569 -0.0053004296 0.054058265 0.04184664 0.05669793 0.0068925014 0.10448088 0.21570069
0.12526707 0.020409262 -0.14791133 -0.1148926 0.098472044 -0.061390746 0.051328037 -0.0006280098
0.13950765 -0.022483848 -0.052197684 0.022868149 -0.17658292 -0.11708132 0.027360357 -0.23500937
-0.16167329 0.062746644 -0.030788224 0.18829888 0.11492736 -0.047785077 -0.054132707 0.0612849
-0.05380158 0.07425332 0.06715808 -0.022279091 -0.11099722 -0.07276605 -0.18557803 -0.05870448
0.15142636 -0.0017547774 -0.134091 0.08036306 -0.14158076 0.16844171 0.042913962 -0.021191861
-0.06548909 -0.109145485 0.1595247 -0.050729312 -0.07389955 0.13081777 0.013629648 -0.12957023
0.09740433 0.08687511 0.051928468 -0.100469545 -0.018836396 0.038288 -0.0814108 -0.08301701
0.064503536 -0.043487366 0.0013475644 0.08137552 0.20776956 0.046133123 0.016879728 0.030290343
-0.07672859 0.034426585 0.013420842 0.11456503 0.04289045 -0.19750302 -0.031831406 0.09060338
-0.039274048 0.09351067 0.083385274 -0.08609332 -0.067946985 0.07589236 -0.054010365 -0.09280206
-0.10506239 -0.031256527 0.03830641 -0.04481755 0.042974807 0.075734496 -0.07820492 0.0709085
0.082994044 -0.08016645 0.18679118 -0.06067465 -0.13785367 -0.051898655 -0.04150105 0.0442867
-0.029609442 0.2240248 -0.112233296 -0.1698908 -0.08145547 0.14707854 0.03398545 -0.038787607
0.110228755 0.067884125 0.06431459 -0.041671425 0.019125856 0.13707787 -0.04476829 -0.1560318
-0.14160806 0.03215662 0.07698287 0.18203901 0.09214116 -0.07072931 -0.16844292 0.10899228
-0.0752675 0.011921486 0.100674234 -0.036990933 0.07464347 -0.036185764 -0.08711407 0.18782887
0.1228061 -0.0059693954 0.1499851 0.10714248 0.11010348 0.03809832 -0.024323678 0.11347162
0.16951779 -0.04225349 0.053813722 0.021282572 0.11246156 0.09829082 0.027610876 -0.23285855
-0.09324835 -0.10511929 0.13835345 0.07189109 0.019525481 -0.09509992 -0.12667124 0.0066723656
0.066878565 -0.05517716 -0.026882704 -0.12712993 -0.08178421 0.09924847 -0.09247618 0.12659192
-0.2324285 0.07932873 0.03694808 -0.065211736 -0.15703873 -0.04608577 0.058022384 -0.022510529
0.035590056 -0.103520036 0.0869876 -0.0876868 0.021102954 0.06869564 0.05845729 0.07273071
0.09621016 -0.05366093 0.0072211735 0.0713902 0.11015264 0.045541614 -0.11986364 0.08395583
0.16794005 0.029463688 0.054188926 -0.114486486 0.11956762 0.16670239 0.04679061 0.11113758
0.045327295 0.166018 -0.12056361 0.10349542 -0.18838033 -0.10571138 0.0041603195 -0.08875498
0.07648492 -0.13853021 0.031816933 -0.1502232 0.21150093 0.1522388 0.028005492 0.1508801
0.092799 -0.17102218 -0.09784214 0.052260853 -0.08300247 -0.082032196 0.033302795 -0.06250961
0.06241605 -0.15669955 -0.0007203974 0.016247397 -0.021020181 0.010869936 -0.022568274 -0.1938931
-0.06890084 -0.05516208 -0.03819542 0.08195283 -0.010628703 0.08239841 0.09090608 0.033544652
-0.10467242 0.13769077 -0.027533082 -0.070103176 -0.106289536 0.08993017 0.004279185 0.22308192
0.034175258 -0.008884201 0.06606265 -0.0032140173 0.10024486 -0.08190027 0.058989406 -0.03537017
00000000: 1638 f13c 3aaf adbb 336c 5d3d 6267 2b3d
00000010: 173c 683d 7eda e13b 12fa d53d a4e0 5c3e
00000020: 0346 003e 5331 a73c 1176 17be d04c ebbd
00000030: b6ab c93d dd74 7bbd 593d 523d 06a1 24ba
00000040: 18db 0e3e 0c30 b8bc 3dcd 55bd fc55 bb3c
00000050: 27d2 34be 55c8 efbd d422 e03c 4ca6 70be
00000060: af8d 25be 5081 803d 9637 fcbc 6cd1 403e
00000070: 095f eb3d 49ba 43bd 42ba 5dbd e005 7b3d
00000080: 0c5f 5cbd 2012 983d 2d8a 893d a482 b6bc
00000090: 8352 e3bd 5e06 95bd 2b08 3ebe 1c74 70bd
000000a0: 830f 1b3e 8f00 e6ba 274f 09be 6395 a43d
000000b0: 8cfa 10be fc7b 2c3e 8dc6 2f3d 8e9a adbc
000000c0: 251f 86bd ab87 dfbd 715a 233e 8ac9 4fbd
000000d0: a658 97bd 18f5 053e e34e 5f3c 0fae 04be
000000e0: ec7b c73d 94eb b13d f2b2 543d fac2 cdbd
000000f0: c94e 9abc e1d3 1c3d b5ba a6bd d204 aabd
00000100: 6e1a 843d cf1f 32bd c2a0 b03a 35a8 a63d
00000110: 8bc1 543e 16f6 3c3d 5b47 8a3c 7423 f83c
00000120: e123 9dbd e402 0d3d 17e3 5b3c 12a1 ea3d
00000130: e6ad 2f3d 3b3e 4abe a661 02bd 448e b93d
00000140: d3dd 20bd 8682 bf3d e6c5 aa3d b251 b0bd
00000150: ca27 8bbd 746d 9b3d f939 5dbd 020f bebd
00000160: f32a d7bd d806 00bd 2fe7 1c3d 9b92 37bd
00000170: 5a06 303d b01a 9b3d e729 a0bd 7a38 913d
00000180: c8f8 a93d 4f2e a4bd 3046 3f3e fb85 78bd
00000190: 8329 0dbe af93 54bd 01fd 29bd f965 353d
000001a0: 808f f2bc c266 653e 92da e5bd dbf7 2dbe
000001b0: 20d2 a6bd c29b 163e 5434 0b3d c1df 1ebd
000001c0: 9dbf e13d d506 8b3d 5eb7 833d a8af 2abd
000001d0: d4ad 9c3c 245e 0c3e f45e 37bd cdc6 1fbe
000001e0: b401 11be a9b6 033d 32a9 9d3d 6f68 3a3e
000001f0: 81b4 bc3d 87da 90bd 4d7c 2cbe 5837 df3d
00000200: d925 9abd 5652 433c 4b2e ce3d ce83 17bd
00000210: adde 983d 8637 14bd dd68 b2bd 3656 403e
00000220: c481 fb3d eb9a c3bb b295 193e 846d db3d
00000230: ef7d e13d fc0c 1c3d 7342 c7bc cf63 e83d
00000240: 1296 2d3e ff11 2dbd c76b 5c3d ca58 ae3c
00000250: 3f52 e63d b34c c93d 3430 e23c 7972 6ebe
00000260: fef8 bebd c848 d7bd 87ac 0d3e a33b 933d
00000270: e7f3 9f3c bfc3 c2bd 1bb6 01be dca3 da3b
00000280: a1f7 883d 7201 62bd 1e39 dcbc 592e 02be
00000290: 7b7e a7bd c842 cb3d 2764 bdbd 50a1 013e
000002a0: bd01 6ebe 1a77 a23d df56 173d bb8d 85bd
000002b0: c3ce 20be 6fc4 3cbd e1a8 6d3d 0068 b8bc
000002c0: e1c6 113d 5002 d4bd 8e26 b23d 2395 b3bd
000002d0: 1ae0 ac3c 4db0 8c3d e970 6f3d d7f3 943d
000002e0: d509 c53d 90cb 5bbd 989f ec3b 0635 923d
000002f0: b597 e13d d889 3a3d 117b f5bd 09f1 ab3d
00000300: 7af8 2b3e d55d f13c 35f5 5d3d e477 eabd
00000310: dedf f43d 08b4 2a3e 83a7 3f3d 199c e33d
00000320: 1da9 393d 9f00 2a3e 0eea f6bd 68f5 d33d
00000330: c6e6 40be 357f d8bd 4a53 883b 2cc5 b5bd
00000340: 20a4 9c3d ddda 0dbe 7952 023d 1cd4 19be
00000350: b393 583e 7de4 1b3e c66b e53c 5080 1a3e
00000360: 670d be3d 7020 2fbe 7661 c8bd 7a0f 563d
00000370: 33fd a9bd 7f00 a8bd 8368 083d 0a05 80bd
00000380: f9a7 7f3d d975 20be 0dd9 3cba 4319 853c
00000390: 8432 acbc d117 323c 1ae1 b8bc ea8b 46be
000003a0: e21b 8dbd a2f1 61bd cd72 1cbd e3d6 a73d
000003b0: 0324 2ebc 7fc0 a83d f82c ba3d 1e66 093d
000003c0: 7e5e d6bd cffe 0c3e 0f8d e1bc 4192 8fbd
000003d0: 54ae d9bd 4f2d b83d 6838 8c3b 966f 643e
000003e0: 5bfb 0b3d 0a8f 11bc db4b 873d 43a2 52bb
000003f0: 2d4d cd3d 54bb a7bd e09e 713d 50e0 10bd

transformer.encoder.layers.0.linear1.bias f4 [256]
-0.08725561 -0.077157974 -0.1791696 0.039292913 -0.07582497 -0.147693 -0.20406523 -0.102727324
0.043326642 0.085505806 0.07227689 -0.017970549 -0.018494155 -0.13860428 0.0894855 -0.12978862
-0.15914735 -0.21955657 0.06886101 0.078843996 -0.05373029 0.040785193 -0.15466316 0.06652296
-0.13531947 -0.1561467 -0.18556441 -0.06072957 0.022450076 0.10305467 0.04077781 -0.191973
-0.17527951 -0.12418458 -0.12239281 0.0121435905 -0.069940545 0.15146443 0.019060792 0.09362155
0.12524796 -0.05654046 -0.20850687 -0.0912277 0.13420472 -0.090757005 -0.1528811 0.10892736
-0.12572207 0.048579264 -0.07711233 -0.18277961 -0.057742387 0.075000435 0.16853227 -0.112024285
0.03528025 0.098064736 0.0952898 -0.013813596 0.14090694 -0.024218034 -0.123139516 0.20107359
-0.14184526 0.10886022 0.071738556 0.05533718 -0.13627665 -0.055392407 0.049665652 -0.16060556
-0.20534863 -0.076601446 -0.013280482 -0.20976715 -0.19366641 0.17452015 0.15166537 0.038634535
0.06001733 0.033270366 0.066070616 -0.14676522 -0.30590758 -0.15165842 -0.18522213 0.15204681
-0.03600696 -0.16016585 -0.081436545 0.07945071 -0.1571186 -0.18567765 -0.18025255 -0.16084535
-0.1594381 -0.13804594 0.030370021 -0.11784931 0.114297174 0.01918431 -0.020042451 -0.09021609
0.09132635 0.018907322 -0.14124556 0.069272935 0.1455865 -0.11787446 0.12838599 -0.07511797
0.1464315 -0.09443279 -0.006792971 -0.19418876 0.04422535 -0.30634505 0.0055033034 -0.016545966
-0.21427853 -0.092795156 -0.03575472 0.14441492 0.0527975 0.041215565 0.06401909 -0.024353003
0.18684947 0.20876408 0.13108964 -0.08430508 -0.016609874 -0.17992704 -0.18944813 -0.064481504
-0.08111298 0.021621319 0.03054853 0.07590834 0.11414216 -0.12871335 0.078025416 -0.04185796
-0.103039645 0.12622847 -0.13624215 -0.05303507 0.07523072 -0.13210624 0.17109485 -0.13771768
-0.14015056 -0.011695013 -0.14470112 -0.123676255 -0.05535747 0.068069465 -0.038267806 -0.18752332
0.1633548 0.02071516 -0.16146137 -0.15237845 -0.10027562 -0.17022099 -0.18849725 0.12174412
0.02887139 -0.07494116 0.03564448 -0.0007457244 -0.12152619 -0.04559443 -0.116301015 0.1444952
-0.0277454 0.012541242 -0.15006573 -0.04224254 0.060079295 -0.1554831 0.046683345 -0.06785313
-0.055927243 -0.041354824 -0.19207157 0.037891768 0.004702938 -0.21292174 -0.021232212 0.029511323
-0.11965163 0.03796348 0.10385622 -0.11785443 -0.17369549 -0.10607172 0.14395165 -0.18355727
-0.15790287 -0.09984086 -0.20129651 -0.003032015 0.21878926 -0.17644173 -0.012584267 -0.16946216
-0.05414359 -0.13190196 -0.19717543 -0.1267527 0.033246927 -0.030792283 -0.118664876 0.06843561
-0.22376955 0.0773776 0.007364552 -0.1459304 -0.068747096 -0.053701185 -0.009726074 0.102272324
-0.1403521 -0.057467964 0.021026535 -0.037766237 0.0050551877 0.039462354 0.064252354 -0.11505275
-0.047381636 -0.03588508 -0.077086136 0.15917064 -0.1596646 0.044324186 -0.2742625 0.058944426
0.027012514 0.15097705 0.022040628 0.073844165 0.10403793 -0.0728898 -0.16062461 -0.009244571
-0.0098634185 -0.038109284 -0.21091217 0.031261336 0.056124963 -0.18151203 -0.04955719 -0.002596029
00000000: 12b3 b2bd 0005 9ebd 3c78 37be 9bf1 203d
00000010: 1f4a 9bbd d53c 17be 7af6 50be b462 d2bd
00000020: 4777 313d ab1d af3d e805 943d f936 93bc
00000030: 0e81 97bc 48ee 0dbe 2c44 b73d 4fe7 04be
00000040: 86f7 22be 70d3 60be 0007 8d3d f678 a13d
00000050: 4b14 5cbd 600e 273d 0560 1ebe 313d 883d
00000060: 3091 0abe ece4 1fbe 9904 3ebe 92bf 78bd
00000070: 39e9 b73c 540e d33d a206 273d 9294 44be
00000080: 797c 33be 7c54 febd 15a9 fabd e9f5 463c
00000090: fd3c 8fbd 7e19 1b3e 6125 9c3c a8bc bf3d
000000a0: 0041 003e f896 67bd d382 55be 97d5 babd
000000b0: f66c 093e cfde b9bd dd8c 1cbe 4f15 df3d
000000c0: 49bd 00be 0dfb 463d 12ed 9dbd 942a 3bbe
000000d0: 4883 6cbd d499 993d b993 2c3e fd6c e5bd
000000e0: 0682 103d 2ad6 c83d 4c27 c33d 6c52 62bc
000000f0: e949 103e e664 c6bc 9230 fcbd 3ce6 4d3e
00000100: e23f 11be 1bf2 de3d aaeb 923d 3da9 623d
00000110: 1b8c 0bbe 26e3 62bd 366e 4b3d c975 24be
00000120: e946 52be 38e1 9cbd 6196 59bc 33cd 56be
00000130: 7d50 46be 69b5 323e 2b4e 1b3e 3f3f 1e3d
00000140: bbd4 753d 8246 083d 0850 873d 9f49 16be
00000150: eb9f 9cbe 584c 1bbe dfaa 3dbe 29b2 1b3e
00000160: 097c 13bd 8402 24be 34c8 a6bd 0eb7 a23d
00000170: b3e3 20be 4822 3ebe 2094 38be a5b4 24be
00000180: be43 23be ea5b 0dbe 8dca f83c fb5a f1bd
00000190: a314 ea3d 6a28 9d3c 1130 a4bc 37c3 b8bd
000001a0: 4f09 bb3d 87e3 9a3c ada2 10be f8de 8d3d
000001b0: a114 153e 2a68 f1bd 9e77 033e 73d7 99bd
000001c0: 24f2 153e fb65 c1bd 9297 debb 6bd9 46be
000001d0: a425 353d 42d9 9cbe 0e55 b43b 688b 87bc
000001e0: d56b 5bbe 630b bebd 8b73 12bd 81e1 133e
000001f0: 3142 583d a7d1 283d 711c 833d f37f c7bc
00000200: 7855 3f3e 40c6 553e 5d3c 063e 24a8 acbd
00000210: 6e11 88bc cb3e 38be b1fe 41be e10e 84bd
00000220: 901e a6bd 311f b13c e940 fa3c d575 9b3d
00000230: 5dc3 e93d 6fcd 03be cacb 9f3d 4173 2bbd
00000240: 7306 d3bd 0942 013e 1083 0bbe 4d3b 59bd
00000250: 9012 9a3d dc46 07be 7d33 2f3e dd05 0dbe
00000260: a183 0fbe 719c 3fbc 882c 14be fa49 fdbd
00000270: 84be 62bd 0168 8b3d b4be 1cbd 1d06 40be
00000280: 7b46 273e d7b2 a93c 2156 25be 1909 1cbe
00000290: 4e5d cdbd 694e 2ebe 6c05 41be fb54 f93d
000002a0: b183 ec3c c07a 99bd f2ff 113d b87c 43ba
000002b0: b9e2 f8bd 3ac1 3abd 3a2f eebd 8df6 133e
000002c0: 524a e3bc c879 4d3c d5aa 19be 8306 2dbd
000002d0: b515 763d f636 1fbe 0937 3f3d 95f6 8abd
000002e0: f713 65bd ad63 29bd 69ae 44be 6634 1b3d
000002f0: 1a1b 9a3b 2808 5abe 2def adbc bbc1 f13c
00000300: ea0b f5bd 987f 1b3d 92b2 d43d aa5d f1bd
00000310: 3bdd 31be 213c d9bd 1068 133e 70f6 3bbe
00000320: 4ab1 21be 5d79 ccbd ac20 4ebe c5b4 46bb
00000330: 4b0a 603e 24ad 34be 3e2e 4ebc 7d87 2dbe
00000340: abc5 5dbd 4f11 07be 5be8 49be 76cb 01be
00000350: ee2d 083d 1940 fcbc 9206 f3bd f827 8c3d
00000360: d823 65be 2678 9e3d 5752 f13b c76e 15be
00000370: 47cb 8cbd c6f5 5bbd 1c5a 1fbc 2774 d13d
00000380: 76b8 0fbe 8763 6bbd d73f ac3c c5b0 1abd
00000390: fda5 a53b 47a3 213d bd96 833d c7a0 ebbd
000003a0: 3f13 42bd 3cfc 12bd 56df 9dbd a1fd 223e
000003b0: 1e7f 23be 478d 353d 226c 8cbe b66f 713d
000003c0: 5949 dd3c ba99 1a3e 8c8e b43c 9c3b 973d
000003d0: d711 d53d 3f47 95bd c77a 24be 8b76 17bc
000003e0: 2d9a 21bc 7b18 1cbd 5cf9 57be e30b 003d
000003f0: 4ae3 653d 4ade 39be 7bfc 4abd 2422 2abb

transformer.encoder.layers.0.linear2.weight f4 [32, 256]
0.055073563 0.08179414 -0.0067552216 0.010515301 -0.1271912 0.13951883 0.06544376 -0.08790853
0.16215819 -0.07231385 0.12075277 0.18793668 0.19604434 0.09769302 -0.04969908 0.067911886
0.056628045 -0.034626774 -0.06994072 -0.093196295 0.045555897 0.18166937 0.06347367 0.09846158
0.13709316 0.018464867 0.07380906 -0.13670284 -0.029196601 0.09021632 0.07711619 0.011582816
-0.11418174 -0.06772581 -0.016278302 -0.009348978 -0.016126748 -0.025409471 0.038439777 -0.048085134
-0.101737306 0.091322325 -0.014533515 -0.09423305 0.154311 0.12053493 -0.012277361 0.031764545
0.045769587 -0.04681583 -0.049935102 -0.12860663 0.04034673 -0.082323074 -0.098849885 0.109232254
0.09462062 0.06272654 -0.01662693 -0.09278931 -0.04295716 -0.119824015 0.05938485 -0.033642028
0.0053095478 -0.00043581874 0.05818655 0.016677758 -0.13365103 0.08890375 0.054365154 -0.09917058
0.11537073 0.17213902 0.0052583753 0.027655955 0.078096874 0.18969086 -0.02146673 -0.07372805
0.08683844 0.018801661 -0.061453003 -0.056877393 0.123633355 0.10477675 0.11099442 0.12493796
-0.0350669 -0.089360125 0.14323266 0.17089005 0.008520465 0.05818926 0.060894914 -0.117857605
-0.07538532 0.12550274 -0.054830905 -0.068546794 -0.1349958 0.099610545 -0.0053303633 -0.10810117
0.07524038 0.03828781 0.04536036 -0.054374896 -0.070925996 0.063118495 0.1298999 -0.06130539
0.030052384 0.14517878 -0.093290366 0.081586614 -0.040252384 -0.075931564 0.089843795 0.017349176
-0.20296146 -0.07759974 0.0017178543 0.13982718 0.09621981 -0.10650582 0.003311968 0.13916448
-0.07012528 -0.043626428 -0.089959495 -0.095296085 0.11681475 0.068385534 -0.0509955 -0.021563105
0.010421071 -0.067195 -0.054403495 -0.1208331 0.057004943 -0.1392473 -0.10178728 -0.09129218
-0.11930721 -0.04568981 -0.02993998 0.10826301 -0.03674398 -0.12169458 -0.08164547 0.056377
0.02555949 0.10691493 0.08761585 -0.1633245 0.08950558 -0.057657525 -0.0036123728 0.12980701
-0.046880074 0.02196981 -0.10842601 0.13731919 0.12620246 -0.1664502 0.0945769 0.14753443
0.13803583 0.046555817 -0.14993283 0.013594886 0.03178056 0.116833694 -0.0053937607 0.03053616
-0.023169702 -0.05683857 -0.03312485 0.115237445 0.041405395 0.03368396 -0.115274504 -0.02205084
0.098680906 -0.04171964 0.12832734 -0.12666264 -0.122185335 0.06307997 0.026836801 -0.089180395
0.023229701 -0.18282458 -0.0012545069 0.060224686 -0.10177761 0.05900168 -0.05770021 0.09794404
-0.0058183274 -0.10414295 0.06336091 -0.12050701 0.06755138 0.046003837 0.18509337 -0.06081562
-0.10251864 -0.029973308 0.13239704 0.00881123 0.09291253 0.12597217 -0.05644939 -0.07773503
0.16644955 0.047869172 0.0709041 -0.13758321 -0.11270134 0.061554614 -0.072507106 -0.0812297
-0.004948654 0.104772046 -0.04546302 -0.10922797 0.05859254 0.09098238 -0.070867024 0.0139644975
0.12748991 0.051209763 0.041683458 -0.036878034 0.120624006 -0.058444608 -0.032686844 0.006397751
0.020468697 0.12554196 -0.11468212 0.12311922 0.080891795 0.043739498 -0.085650146 -0.18269508
-0.10845442 0.044232413 -0.04378653 -0.024354823 -0.08529509 0.14637971 0.050793767 0.05064443
00000000: d194 613d b083 a73d e85a ddbb 5e48 2c3c
00000010: 693e 02be 06de 0e3e 6107 863d 6309 b4bd
00000020: cc0c 263e 4919 94bd 3a4d f73d 7972 403e
00000030: d9bf 483e 4713 c83d 4391 4bbd 6315 8b3d
00000040: cff2 673d ced4 0dbd 153d 8fbd b3dd bebd
00000050: d298 3a3d 8907 3a3e 7cfe 813d 3aa6 c93d
00000060: 2662 0c3e a243 973c 3429 973d d4fb 0bbe
00000070: b62d efbc 55c3 b83d 18ef 9d3d dac5 3d3c
00000080: 1ed8 e9bd d4b3 8abd 135a 85bc 752c 19bc
00000090: 3e1c 84bc 8627 d0bc 0773 1d3d ebf4 44bd
000000a0: a65b d0bd 3307 bb3d fb1d 6ebc 42fd c0bd
000000b0: b403 1e3e 04db f63d fc26 49bc 8a1b 023d
000000c0: e478 3b3d f5c1 3fbd c088 4cbd 75b1 03be
000000d0: 9d42 253d 0099 a8bd cf71 cabd 29b5 df3d
000000e0: 75c8 c13d c676 803d 3335 88bc 5208 bebd
000000f0: d9f3 2fbd 4b66 f5bd 873d 733d 39cc 09bd
00000100: b7fb ad3b 9a7e e4b9 0555 6e3d cb9f 883c
00000110: d1db 08be 2b13 b63d ffad 5e3d f219 cbbd
00000120: 7d47 ec3d 3645 303e 734e ac3b be8e e23c
00000130: 41f1 9f3d 523e 423e ffda afbc bbfe 96bd
00000140: 5ad8 b13d f105 9a3c 25b6 7bbd 45f8 68bd
00000150: 7c33 fd3d 3195 d63d 0b51 e33d 79df ff3d
00000160: 4fa2 0fbd 7102 b7bd 95ab 123e cdfd 2e3e
00000170: 6c99 0b3c dd57 6e3d f26c 793d 545f f1bd
00000180: 9e63 9abd ca83 003e 5f96 60bd 4362 8cbd
00000190: 573c 0abe 9d00 cc3d 54aa aebb 2564 ddbd
000001a0: a117 9a3d aed3 1c3d c9cb 393d 36b8 5ebd
000001b0: a641 91bd 4544 813d 7b04 053e 5c1b 7bbd
000001c0: 6b30 f63c bfa9 143e 050f bfbd e216 a73d
000001d0: afdf 24bd 0282 9bbd 0600 b83d dc1f 8e3c
000001e0: 21d5 4fbe 9dec 9ebd a029 e13a db2e 0f3e
000001f0: e40e c53d b91f dabd 9a0d 593b 2281 0e3e
00000200: d89d 8fbd a0b1 32bd af3c b8bd 982a c3bd
00000210: 923c ef3d b70d 8c3d a8e0 50bd 1ca5 b0bc
00000220: 24bd 2a3c 889d 89bd 33d6 5ebd 5877 f7bd
00000230: 047e 693d d896 0ebe d975 d0bd 65f7 babd
00000240: 5757 f4bd 3d25 3bbd b044 f5bc ffb8 dd3d
00000250: db80 16bd 023b f9bd bd35 a7bd 92eb 663d
00000260: 2362 d13c 37f6 da3d f06f b33d 8a3e 27be
00000270: b44e b73d 4c2a 6cbd 8fbd 6cbb 21ec 043e
00000280: 5205 40bd 08fa b33c 750e debd 679d 0c3e
00000290: 383b 013e ec71 2abe 89b1 c13d 4413 173e
000002a0: 4459 0d3e 50b1 3e3d fe87 19be 16bd 5e3c
000002b0: 552c 023d 8146 ef3d 25be b0bb f826 fa3c
000002c0: 63ce bdbc 8fcf 68bd ecad 07bd 9c01 ec3d
000002d0: b498 293d 31f8 093d 0a15 ecbd f7a3 b4bc
000002e0: 3719 ca3d 37e2 2abd 3e68 033e dab3 01be
000002f0: 4e3c fabd 1230 813d dad8 db3c 36a4 b6bd
00000300: 374c be3c 5e36 3bbe 446e a4ba 29ae 763d
00000310: c870 d0bd bfab 713d 0e57 6cbd e396 c83d
00000320: aba7 bebb e648 d5bd 5dc3 813d 61cc f6bd
00000330: 6158 8a3d 856e 3c3d 1e89 3d3e cd19 79bd
00000340: 4bf5 d1bd 958a f5bc 1793 073e fa5c 103c
00000350: ed48 be3d d9fe 003e 7a37 67bd 8b33 9fbd
00000360: c071 2a3e 7712 443d 2b36 913d 9de2 0cbe
00000370: f6cf e6bd b120 7c3d 9b7e 94bd c25b a6bd
00000380: 5228 a2bb ba92 d63d 6f37 3abd eab2 dfbd
00000390: bbfe 6f3d f854 ba3d bb22 91bd 59cb 643c
000003a0: b78c 023e 54c1 513d 46bc 2a3d 6c0d 17bd
000003b0: b809 f73d 9d63 6fbd a4e2 05bd 3aa4 d13b
000003c0: f8ad a73c 128e 003e 76de eabd ee25 fc3d
000003d0: 99aa a53d 3028 333d 5869 afbd 6b14 3bbe
000003e0: 5a1d debd 0c2d 353d 8159 33bd c483 c7bc
000003f0: 31af aebd 90e4 153e 200d 503d 8970 4f3d

transformer.encoder.layers.0.linear2.bias f4 [32]
-0.036942154 0.024171557 -0.08231068 -0.0033628747 -0.027398923 -0.010579078 0.11788736 -0.06904347
0.018738238 -0.07627802 0.08852875 0.062004592 0.009205534 -0.12151846 -0.0006206489 -0.07633419
0.017605426 0.05752591 0.025873108 -0.08208431 0.061699703 -0.028561179 0.010057338 0.009957465
-0.06262967 0.065811604 0.00087415957 0.052678965 0.06317466 -0.042038422 -0.1158226 0.014551152
00000000: a850 17bd 6e03 c63c 8092 a8bd ad63 5cbb
00000010: b573 e0bc df53 2dbc ee6e f13d aa66 8dbd
00000020: ef80 993c a737 9cbd 904e b53d 87f8 7d3d
00000030: cfd2 163c acde f8bd 0bb3 22ba 1a55 9cbd
00000040: 4139 903c 4aa0 6b3d d7f3 d33c d21b a8bd
00000050: d4b8 7c3d 22f9 e9bc 88c7 243c a324 233c
00000060: fc43 80bd 3cc8 863d db27 653a e6c5 573d
00000070: b761 813d 7b30 2cbd 6634 edbd f467 6e3c

transformer.encoder.layers.0.norm1.weight f4 [32]
1.0105036 0.96005213 1.022719 1.0521537 1.0485076 1.0161684 0.9869317 1.0189885
1.0200468 1.0119324 1.0815852 0.9508369 1.0497639 0.8939469 1.0063868 0.95112556
0.9639342 0.9155467 1.0110183 0.90405744 1.0089002 1.0252224 0.9716739 1.0109962
0.9450285 1.055782 0.95822215 0.92351496 0.98547024 0.99026644 0.89290124 1.0739717
00000000: 2f58 813f fac5 753f 75e8 823f f9ac 863f
00000010: 7f35 863f ce11 823f 8ea7 7c3f 376e 823f
00000020: e590 823f 0087 813f 6271 8a3f 0c6a 733f
00000030: aa5e 863f b4d9 643f 48d1 803f f77c 733f
00000040: 64c4 763f 4561 6a3f 0c69 813f 4f70 673f
00000050: a423 813f 7d3a 833f 9fbf 783f 5368 813f
00000060: 63ed 713f dd23 873f 0c4e 753f 7a6b 6c3f
00000070: c747 7c3f 1a82 7d3f 2d95 643f e877 893f

transformer.encoder.layers.0.norm1.bias f4 [32]
0.0126332445 0.04772617 -0.049447797 0.029303225 -0.015198677 -0.01547495 0.04870869 -0.029036248
0.0024506524 -0.01835052 0.011885011 0.029108055 0.021432862 -0.063196875 -0.009428146 0.014432808
0.020175181 0.013020697 -0.01062951 -0.02589482 -0.01613199 -0.05587831 0.013509851 0.019313795
-0.004613964 0.01963945 0.0005547301 -0.006158124 0.0015708288 0.015190269 -0.0013975955 0.018221151
00000000: abfb 4e3c 847c 433d c689 4abd 510d f03c
00000010: df03 79bc a58a 7dbc c382 473d 6ddd edbc
00000020: 209b 203b d453 96bc 59b9 423c 0474 ee3c
00000030: f893 af3c 5d6d 81bd 8378 1abc 9677 6c3c
00000040: 6c46 a53c c354 553c 6527 2ebc 6021 d4bc
00000050: 3c27 84bc a8e0 64bd 6c58 5d3c f737 9e3c
00000060: bc30 97bb e9e2 a03c 4f6b 113a 17ca c9bb
00000070: 45e4 cd3a 9be0 783c 862f b7ba 8644 953c

transformer.encoder.layers.0.norm2.weight f4 [32]
0.9651825 0.9942215 0.9496147 1.0620525 1.0473617 1.0210749 1.0778797 1.0075129
0.97145987 1.0525053 1.0855217 1.0177256 1.0633768 0.92043173 1.0050013 0.9889702
0.9568446 0.9066333 1.0220948 0.9642994 0.98217034 0.9742141 0.9860314 0.9988013
0.9844056 1.0014242 1.0046375 0.9695556 0.9326496 0.9750762 0.9725386 1.0928338
00000000: 3316 773f 4d85 7e3f f319 733f 56f1 873f
00000010: f30f 863f 95b2 823f f6f7 893f 2ff6 803f
00000020: 98b1 783f 7eb8 863f 60f2 8a3f d544 823f
00000030: bb1c 883f 6aa1 6b3f e2a3 803f 272d 7d3f
00000040: c5f3 743f 1f19 683f 01d4 823f 53dc 763f
00000050: 846f 7b3f 1866 793f 8e6c 7c3f 71b1 7f3f
00000060: 0102 7c3f ab2e 803f f697 803f cc34 783f
00000070: 20c2 6e3f 989e 793f 4af8 783f fae1 8b3f

transformer.encoder.layers.0.norm2.bias f4 [32]
0.008713708 -0.0073485766 0.0021760042 0.006572328 -0.0123205595 0.0048671346 0.040739533 0.00732966
0.0021432622 0.010116115 -0.02080426 -0.018700778 -0.015785305 0.0001501331 0.016847495 0.022248114
-0.014222092 -0.028288761 0.0006230701 -0.0027766891 0.0046522827 0.012117857 0.0126792295 0.0009854666
-0.0027185564 -0.014256469 -0.002153373 -0.021442335 0.009604167 0.009252596 -0.0069186552 0.006521878
00000000: f1c3 0e3c 54cc f0bb 4b9b 0e3b af5c d73b
00000010: 2cdc 49bc 7c7c 9f3b 7fde 263d a52d f03b
00000020: f975 0c3b 10be 253c b26d aabc 6032 99bc
00000030: 2f50 81bc 0c6d 1d39 c203 8a3c ad41 b63c
00000040: c703 69bc d5bd e7bc 8755 233a 1df9 35bb
00000050: 2d72 983b fa89 463c 8bbc 4f3c c62a 813a
00000060: cf29 32bb f793 69bc 9b1f 0dbb d6a7 afbc
00000070: cc5a 1d3c 3398 173c e3b5 e2bb 7ab5 d53b
