期末项目/code/Transformer法/transformer_preprossing/models/best_model_20240613-173832.pth (torch, 399330 bytes, 99 tensors)

embedding.weight f4 [32, 15]
00000000: 16ed d2be 8e00 80be a4c1 cbbb a6e4 043e
00000010: 138f e73d 4006 c23e 8ac3 5b3e 205d 61be
00000020: c0aa 483e 4e1a abbe d257 07be 4905 32be
00000030: 1841 f5bc 1202 6f3e 0313 603e 77ec bc3c
00000040: 1919 4b3c 164f 9dbd efce aa3e 1710 30bf
00000050: 2701 a63e 22b7 e23d a673 08be 1b29 d0bd
00000060: cb05 dbbd 4591 703d dd93 753e 65d7 123e
00000070: 6efe b3bd 3132 14bd 8ed2 193f f6d9 1ebe
00000080: 222b 85be 2e17 7b3e 7aba e13d f5e8 d6be
00000090: a4f6 f6bd eb25 fcbc 85c2 2dbe a15d 833d
000000a0: bb70 65be bf38 f7bc 34c7 fdba d86c 1cbe
000000b0: 93b9 a43e 19fc 15bf 030c 843b 7184 3a3e
000000c0: 9a34 ec3c 5c21 a0bc ca47 3f3c a93c babc
000000d0: a109 3c3e c4f7 8ebe 6a50 99bc 6706 62bc
000000e0: a43d 0fbe 0dd9 5f3e 5525 343e 4a91 773e
000000f0: d764 aa3e 7f31 3abe fa76 b63c e209 cfbd
00000100: 52b0 133f 7284 303f 460f 8a3e 7ad8 223d
00000110: 4d58 50bd e600 303c e417 d3bd 4fde 58be
00000120: 6381 25be 5683 00bd 1f50 70bd f9c7 f63e
00000130: 4b49 c4bd 4e6f 7f3e dfea 55be 337a 173e
00000140: a1fb 2b3f 401a 593e e212 3c3d 1575 f5bd
00000150: db47 3abe 8452 69bd 4cef 863e d8c4 733e
00000160: 2ee1 63bd 3c7e cabd 9dc7 d43d d198 b43d
00000170: cc0e fcbc fad5 a5be afc0 1b3d 7a5b 523f
00000180: e9d5 a3bd 70c8 cdbc f7e1 143e 2be9 8b3e
00000190: 82ad bb3d faa1 10be f7a5 6abe 4b1f a3be
000001a0: 6b13 76be d1a4 01bf 06b4 513e ffcd 7d3e
000001b0: be19 ddbe 61b4 96be 96b2 0e3f 924b 64be
000001c0: 5b02 d03e 14b9 153e 161d 41be 3e9f 3dbe
000001d0: 5bad 963e ae83 dd3d 5aca 123c c0e5 12be
000001e0: c670 24bf 85d8 d8bd 6807 813d 114b d6bc
000001f0: a860 533e 0dbb a73e f9c6 94be bdc0 15bc
00000200: 689e 403e 1edd 78bd 847b 973e 1440 24be
00000210: a759 073e 4176 d4bd f4cd f23d b68f 933e
00000220: c058 813b 3d0f 9cbc f1e0 393d d128 193f
00000230: ca64 e0be 88fb d4bd 1e36 033e 0724 14bd
00000240: 10bd 0a3d e4b7 fd3d 8fb7 2a3e 5ab4 213e
00000250: eba6 753e 2237 253e 82a4 193f bf38 4e3e
00000260: 698b e0bd 8e7d 42be bb21 5d3d 0a9a 253f
00000270: 958a 85be 23b8 f8bd b275 36be 06e7 6ebe
00000280: 3398 803e d23f 79bd 9daf 0bbd 43bb 9cbe
00000290: faaf b33e 78c6 933e 6fe1 74be 1c92 1cbd
000002a0: 8e49 d33e d3c7 c33e 59c6 a4bd 5062 6b3e
000002b0: 9012 a13e 2085 843e ec08 03be 65fd 523d
000002c0: be37 3c3e c886 673e 9b7a f8bd a319 c43e
000002d0: e8b7 d93e bb5d 9e3e 7f33 563e 508d 933b
000002e0: 7c6f 133f 3b77 a8bc 3d03 67be 928e 363e
000002f0: 4cf6 38be c03d 81bd a494 84b8 7843 59be
00000300: c133 adba 5a62 193e 595d f5bd c819 45bf
00000310: 871d 15bd b175 0ebb 4837 703e 73af c73d
00000320: 48ad fd3e 4388 81bb 14bd 133e 5e8a 7b3e
00000330: c933 c1bd bde8 9d3e e0ec a33d 6b5f fa3d
00000340: 3cd4 843e 1750 fe3d 427d 87be 560d 823d
00000350: eb35 3cbe 3578 a73e 4d71 743f c238 323f
00000360: 8064 95be 8863 9fbc 3666 933d 30dd 483e
00000370: 351e ea3d 936b a73d 24e9 28bd 5cf7 e33c
00000380: 8aa2 7d3e 44ed ccbe f0a3 283d 0f6b 49be
00000390: 6789 11be 1bbc f73e 4859 45be 3d9e a93d
000003a0: b4d5 863e f6b2 453e 340f 29be e4a1 633e
000003b0: f9d4 8b3e 34fa 623e c3ea 253d 7e0f 013e
000003c0: cbf8 d83d 28e9 853d 7263 f73d 2d94 89be
000003d0: 062f 8fbe 6e55 67bf a30f 0a3d f2ee 9fbd
000003e0: 8a8f 653e ebe3 d6bc 40e5 ae3e 1290 823e
000003f0: e03c 6bbe ff90 d33d ca66 41be 66b1 1f3f
-0.41196507 -0.25000423 -0.006218152 0.12977847 0.11306586 0.37895393 0.21461311 -0.2200818
0.19596386 -0.33418506 -0.13217095 -0.17384829 -0.029938266 0.23340634 0.21882252 0.023061974
0.0123961205 -0.076811 0.33361003 -0.6877455 0.32422754 0.11070086 -0.13325366 -0.1016409
-0.10694464 0.05873229 0.23982187 0.14339979 -0.08788763 -0.03618068 0.60086906 -0.15512833
-0.2600947 0.24520561 0.11021896 -0.41974607 -0.12058762 -0.0307798 -0.16968735 0.06414343
-0.22406285 -0.030178426 -0.0019361735 -0.15275896 0.32172832 -0.58587795 0.004029752 0.18214585
0.028833676 -0.019547157 0.011674831 -0.022734003 0.18363048 -0.27923405 -0.018715102 -0.013795472
-0.13988358 0.21860142 0.17592366 0.24176517 0.3328006 -0.18182944 0.02227353 -0.10109307
0.5769092 0.68952096 0.26964778 0.03975723 -0.05086546 0.010742402 -0.10307291 -0.21178554
-0.16162638 -0.03137525 -0.05867016 0.48199442 -0.09584292 0.24944803 -0.20890377 0.14792709
0.6718083 0.2120142 0.045916446 -0.11985222 -0.18191473 -0.05696346 0.26354444 0.23805559
-0.05563467 -0.098873585 0.10389636 0.0881821 -0.030768774 -0.32389814 0.038025554 0.8217083
-0.079997845 -0.02511999 0.14539324 0.2732633 0.09163953 -0.14124289 -0.22914873 -0.31859812
-0.24030845 -0.50642115 0.2047883 0.24785613 -0.43183702 -0.29434493 0.5574125 -0.22294453
0.40626797 0.14621383 -0.18858752 -0.18517777 0.29429135 0.108161315 0.008959377 -0.14345455
-0.6423458 -0.10588173 0.06300241 -0.026158841 0.2064234 0.32759896 -0.29058054 -0.009140191
0.18810427 -0.06075775 0.29586422 -0.16040069 0.13217793 -0.10374118 0.11855689 0.2882058
0.0039473474 -0.019050235 0.045380536 0.59827906 -0.43826896 -0.10399538 0.12813613 -0.03616717
0.03387171 0.1238859 0.16671585 0.15791455 0.23989455 0.16134313 0.60016644 0.20138834
-0.109640904 -0.18993208 0.053987246 0.6468817 -0.26082292 -0.12144496 -0.17818335 -0.23330316
0.2511612 -0.06085188 -0.034103025 -0.3061162 0.35095197 0.28862357 -0.23914121 -0.03822528
0.41267055 0.3823839 -0.08045644 0.22986722 0.31459475 0.25882816 -0.12796372 0.051511187
0.18380639 0.22610009 -0.1213276 0.3830081 0.42523122 0.30930886 0.20918082 0.0045029297
0.57591987 -0.020564666 -0.22559829 0.17827824 -0.18062705 -0.06310606 -6.321937e-05 -0.21217144
-0.0013214276 0.14978924 -0.11980695 -0.76992464 -0.036405113 -0.002173763 0.23458588 0.09750261
0.49546266 -0.0039530112 0.14427596 0.24564502 -0.09433705 0.30841628 0.08004165 0.12225231
0.25943172 0.1241762 -0.26462752 0.063502 -0.18379943 0.32708898 0.95485383 0.69617856
-0.29178238 -0.01945664 0.071972296 0.19615626 0.11431543 0.08174815 -0.041237965 0.027827911
0.24769035 -0.4002477 0.041171968 -0.19669746 -0.14212571 0.483857 -0.1927234 0.08282135
0.26334918 0.1930655 -0.16509706 0.22229725 0.27310923 0.22165757 0.04050709 0.12603566
0.105943285 0.06538612 0.120795146 -0.26870862 -0.27965564 -0.9036473 0.03370632 -0.07809247
0.22418037 -0.026231727 0.3415928 0.25500542 -0.2297244 0.1033039 -0.18886867 0.62380064

embedding.bias f4 [32]
00000000: c28d fdbd f3cc 873e da0b 223e 960c c83e
00000010: 2422 b9be eb77 143e 7c51 4bbe 479e 0e3e
00000020: 4a87 2cbe 8870 5d3d a1bb 6fbe ca9d 403a
00000030: 52c4 f2bb b354 35be ec48 1cbe cc57 90be
00000040: 7bf2 723e 322e a2be eb43 38bf f170 bc3e
00000050: ac51 b53e 5154 0cbc 7936 473e a9e6 11bf
00000060: cebd b13d 3425 00be 448f 1abf 5fdb 9fbd
00000070: 1be8 a33d 8a73 a33e 0be4 7c3e 9e2e 583c
-0.12380554 0.2652355 0.15824834 0.39072102 -0.3615886 0.1449887 -0.19855303 0.13927566
-0.16848484 0.054062396 -0.23411418 0.0007347731 -0.007408657 -0.17708091 -0.15262192 -0.28191984
0.23725311 -0.3167587 -0.71978635 0.36804917 0.35413873 -0.0085650245 0.19454373 -0.56992584
0.086787805 -0.12514192 -0.60374856 -0.078055136 0.08003255 0.31924087 0.24696366 0.013194708

transformer.encoder.layers.0.self_attn.in_proj_weight f4 [96, 32]
00000000: cc91 a03e a24f 19be 1a4e be3e 6a5a 6f3e
00000010: 1b25 5d3e 8118 a2bd 37f3 f2bd 3906 143e
00000020: a9cd dfbd d8ed f93d 9988 5fbd c2a4 273c
00000030: b268 823d 9813 a2bd d259 a53d 27ca 783e
00000040: 94ba a0be d255 94be 054e 803e 2e74 2d3e
00000050: aa1b 15be 63d7 cb3e 733e 133d 6a46 773e
00000060: caec 703d a040 eebe c113 d5bb 53eb 563d
00000070: 7c11 4abc b86f 373e 48ca efbd f31d b83d
00000080: 8eac 91be 82f9 9bbe 0910 1bbd bc2a 303e
00000090: 9a08 48be 470a 88be dcc1 083e 5c38 b4be
000000a0: b8cb 793e b740 733e 44ca f0bd f739 9f3e
000000b0: 9863 813e cc49 6fbd b33d 7a3e 1144 2d3c
000000c0: 75fa dcbd 1bf2 a6be 9baf a9bc 3f48 023e
000000d0: 9028 c03c 4409 1c3e 48d7 973e 7305 16be
000000e0: a86c 753e f33f a33e 900c 85be e81b 89be
000000f0: 0c81 3f3e 0697 f1bd 3c8e 9b3c 4fce 923d
00000100: 9c03 d13c 3707 c93d 822e 773e 3ef9 94be
00000110: 7545 1c3e 01b7 35be 36ab 1e3e a703 81be
00000120: 459d 5abe d068 0fbd 57a7 9d3c 1269 a53e
00000130: caff b8bd 37ce a8be b581 d6bd 2c46 983d
00000140: 0b3a d83e 2b41 c83d 6d9f f93d 1fae 243e
00000150: 812f 8e3d abbd 273d 5d05 65bd ec96 0ebc
00000160: b6e9 ad3d 5d48 6a3e 098f 023d d31a 41be
00000170: 3788 b7bd 558a 333d 151e b13e 9444 133d
00000180: 7f5a f13d 9593 86bd f7ff f6bb 5600 67be
00000190: f009 703e df1c 7e3e c4d7 233c 365b d4bd
000001a0: d0fc 9abc 8847 433e 2d6a 4c3e 827f 9a3e
000001b0: d0ce 8b3d a13b dbbd 959a 1cbe 1e35 773e
000001c0: 918c f8bc 27e3 9cbc afdd d43e f714 de3d
000001d0: 34c7 69be 10e0 923e 449f cdbc d725 403e
000001e0: a157 4ebd e351 77bd 7bbc e43d 27ca bbbc
000001f0: 6859 20be 7ed2 f8bd eeb2 9ebd be2c 363e
00000200: c7a9 2b3e 71b0 c1be 26c5 703d 44c6 17be
00000210: 97e5 c73d 30df b0be 4f5a b0bd dfc8 93be
00000220: 8b5c ca3d 1b60 cc3e 158b b3be f15b 2e3e
00000230: 8e7f a73e 9864 5abe cff3 94bd f23b 7c3e
00000240: ae0e 533e bec6 1bbe db21 b13e 6705 623e
00000250: 4d78 4fbe 7ece 153e c114 c9bc 2a42 a7be
00000260: 159e ccbd 3b07 bbbb 8e82 e6bb 8044 f2bd
00000270: 5d30 0ebd cbd2 e0bd 1554 213e 1450 033b
00000280: 9e39 4cbe 1ea0 68be 19da 6d3e 5648 12be
00000290: 5b4b dfbd 660e 95be 2957 75be 32ec 13bf
000002a0: b036 69bd 8cc9 5c3e 28f3 04bf 54db 2f3e
000002b0: 7bdf a73d f697 abbe 6b98 93bd d711 203e
000002c0: 8f54 f13d aefb dabd 0604 9f3e ba2e d23e
000002d0: 543c cdbe 93de 2d3e 48eb 5abc d098 ebbd
000002e0: 2186 0a3f 9926 b13e 08aa b6be b7a2 afbe
000002f0: d5bd ac3e 1ffc 15be 349f d2bd 0aeb 60be
00000300: f40d a63e a2fe f2be 25e4 1c3e 0388 093d
00000310: b7e5 a7bd afc5 a9bd 104d f6be 9484 50be
00000320: 1171 0a3e fd87 623e 638b c7be f1cd fa3d
00000330: 45c5 443e 5059 adbe f373 54bd 62e0 5b3e
00000340: 7040 2fbe ba10 13be fbe2 043e a8d1 873e
00000350: ad76 abbe cd28 923e 4f8d 823d 9421 623d
00000360: 8039 e4bd 8a2a e8bd 141f 34bc 11c2 abbd
00000370: 1925 3b3e 37d7 b53d 8815 7cbd c822 09be
00000380: c97d 5d3e 8bb0 d1bd 244e 823d 8f87 20be
00000390: b285 bc3d 3cbf 153e c750 95bd 1a4b ff3c
000003a0: 7fcf 53be 98e9 1fbd cf4b d6bd 461e 8e3d
000003b0: 0f42 11be b870 06be e447 89be e04b 313e
000003c0: 73cc 20be 2a39 ce3d d3bb d23e 70ef aa3e
000003d0: a92c 4bbe ffde be3e b35d 20be 16dc 7e3d
000003e0: d915 f33d b587 e23c ff03 79bd 70b4 963d
000003f0: 6c50 ebbd 27f1 0fbe 4aa2 04be d79c 9a3e
0.31361234 -0.14971784 0.37168962 0.23374334 0.21596186 -0.0791483 -0.11862796 0.14455499
-0.109278984 0.12203568 -0.05457363 0.010232152 0.06367625 -0.079138935 0.080737725 0.24295865
-0.31392348 -0.28971726 0.25059524 0.1693885 -0.14561334 0.39812765 0.035948228 0.24147955
0.05881957 -0.4653368 -0.006502599 0.052470516 -0.01233327 0.17913711 -0.11708504 0.08990087
-0.2845196 -0.30463797 -0.03785709 0.17203802 -0.19534531 -0.2657034 0.13355201 -0.3519925
0.24394119 0.23755156 -0.11757329 0.3109891 0.25271297 -0.058419988 0.24437599 0.01057531
-0.107899584 -0.32606587 -0.020713618 0.12722872 0.023456842 0.1523791 0.29656434 -0.14650516
0.2396723 0.31884727 -0.25986147 -0.26779103 0.18701571 -0.117963836 0.018988721 0.071682565
0.025514416 0.09815829 0.24138835 -0.29096407 0.15260871 -0.17745592 0.15495 -0.251981
-0.21349056 -0.035012066 0.019244833 0.32306725 -0.09033163 -0.3296983 -0.104739584 0.07435259
0.42231783 0.09778055 0.12188611 0.16082047 0.069426544 0.040952366 -0.055913318 -0.008702975
0.084918424 0.22879167 0.03187469 -0.18857889 -0.08961528 0.043833096 0.34593263 0.035954073
0.11784839 -0.06571118 -0.0075378376 -0.22558722 0.23441291 0.24815701 0.010000173 -0.103689596
-0.018919379 0.19070256 0.19962378 0.30175406 0.06826556 -0.10704733 -0.15293343 0.24141356
-0.030340465 -0.019151283 0.4157538 0.108438425 -0.22829896 0.2868657 -0.025100358 0.18764435
-0.05037654 -0.060380828 0.11168762 -0.022923542 -0.15659106 -0.12149523 -0.07748972 0.17790505
0.16763984 -0.37829927 0.058781765 -0.14821726 0.09760588 -0.3454528 -0.08610975 -0.2886419
0.098809324 0.39917073 -0.3506705 0.1702726 0.32714504 -0.21327436 -0.07273065 0.24632242
0.20611069 -0.15212533 0.34596142 0.22072373 -0.20260735 0.14629552 -0.024546029 -0.32667667
-0.09991089 -0.005707649 -0.0070346063 -0.118294716 -0.03471409 -0.109777056 0.15754731 0.0020036744
-0.19943854 -0.2271733 0.23227729 -0.14285406 -0.10903045 -0.29112548 -0.2395903 -0.5778228
-0.05693692 0.21561259 -0.51933527 0.17173511 0.081969224 -0.33514374 -0.07206806 0.15631805
0.117837064 -0.10692535 0.31057757 0.41051275 -0.4008509 0.16979437 -0.0133617595 -0.11503756
0.54110914 0.3459976 -0.356766 -0.3430383 0.3373858 -0.14646958 -0.10284272 -0.2196466
0.3243252 -0.47459894 0.15321405 0.033576977 -0.081981115 -0.08289658 -0.4810567 -0.20363075
0.13519694 0.22122188 -0.3897353 0.122463115 0.19215877 -0.33857203 -0.05186839 0.21472314
-0.17114425 -0.1436185 0.12977211 0.26527143 -0.3348898 0.28546754 0.06374609 0.055207804
-0.1114378 -0.11336239 -0.010993738 -0.083866246 0.1827587 0.088789396 -0.06154397 -0.13392174
0.21630014 -0.10238751 0.063625604 -0.15676711 0.09205188 0.14623731 -0.07290798 0.03116374
-0.20684622 -0.03904113 -0.10463678 0.06939368 -0.14185356 -0.13128936 -0.2681266 0.173141
-0.15702991 0.10069497 0.41158924 0.333858 -0.19841255 0.37279508 -0.15660743 0.06222161
0.118694015 0.0276526 -0.060794827 0.073586345 -0.11489949 -0.14056836 -0.12952533 0.30197784

transformer.encoder.layers.0.self_attn.in_proj_bias f4 [96]
00000000: bbb8 c9bd e205 813e 3ab2 f53d 571f 93be
00000010: 909f 953d 56ef 7f3e 5165 413c 9386 55be
00000020: 98b0 d73d d790 54be 4507 a9bd 1410 5fbe
00000030: 4715 043f 6174 4e3e 582a 68be 00a0 093f
00000040: e156 90bd e5cc 64be c34c a53c 1799 cdbd
00000050: 171a 09be d4a0 71bc f697 473e 4f87 efbd
00000060: ae24 fb3d f72f cbbd 9e06 bdbd ad82 dbbc
00000070: b4da 0ebe 052f 363d 1e45 0dbd 6885 c3bd
00000080: bad6 5cba 6075 c13b 8a73 2d3b 4091 3abb
00000090: 8d0c 033b dee3 cb3b cdd2 033b 9369 1fbb
000000a0: 0d15 aebb 7c37 e53b 6ca1 fb3a 41b7 f3ba
000000b0: cef9 e23b 85f5 463c 0eb6 42bc 457e 16ba
000000c0: 06b9 883b b6b6 3a3c 4622 85bb 918d ae3a
000000d0: 65cf da3b c5d9 a23b c8d9 46bc 8009 983b
000000e0: 3d0e a43a 38ee 99bb 6f87 11bc 645b 47bb
000000f0: 68bd 46bb 6909 0fbc da8d 33bb 9628 0b3c
00000100: 4ee7 76be 1f98 163d 9c27 953d 9ea8 1c3e
00000110: 810b b4bc 0699 3bbe 2e0c 4a3e 2972 803e
00000120: cf83 673e ee68 4abe 71c3 2dbe 3786 77be
00000130: 5e5c 4ebb f7ed c4bd 0101 0e3e 647d ae3e
00000140: 6153 89bc 8322 d93d bb8a ee3d 567b 8d3d
00000150: 8e7a 8abd e8b9 e0bd dc88 b93d 7eff f7bc
00000160: 374f 5cbe 0815 603d 444b 233e e168 97bd
00000170: d94a 5b3d 7878 3d3e f1df 65bd 016c 613d
-0.09849688 0.251998 0.11996885 -0.28734848 0.07305825 0.24993643 0.011803941 -0.20852117
0.105317295 -0.20758377 -0.0825334 -0.21783477 0.51594967 0.20161583 -0.22672403 0.53759766
-0.07047821 -0.22343786 0.020178204 -0.10038965 -0.13388859 -0.014747817 0.19491562 -0.1169573
0.122628555 -0.09921258 -0.09229778 -0.02679571 -0.13950616 0.044478435 -0.034489743 -0.095469296
-0.0008424331 0.005903885 0.0026466572 -0.0028467923 0.0019996495 0.0062222322 0.002011466 -0.0024324402
-0.005312568 0.0069951396 0.0019197888 -0.0018594043 0.0069267517 0.012143497 -0.0118842255 -0.00057408615
0.004172447 0.011396101 -0.0040629236 0.0013317337 0.0066775554 0.004969808 -0.012136884 0.0046398044
0.001251645 -0.0046975873 -0.008882388 -0.0030419463 -0.0030325297 -0.008730271 -0.0027397783 0.008493563
-0.24111673 0.036766168 0.072829455 0.15298697 -0.021978142 -0.18320093 0.19731209 0.25087097
0.22608875 -0.1976659 -0.16969086 -0.24172293 -0.003148816 -0.09615701 0.1386757 0.3408004
-0.016763391 0.10602286 0.116475545 0.0690829 -0.06761657 -0.10972959 0.09059307 -0.030273195
-0.21514593 0.054707557 0.1594668 -0.07393051 0.053538177 0.18502986 -0.05612177 0.05503464

transformer.encoder.layers.0.self_attn.out_proj.weight f4 [32, 32]
00000000: 8001 9cbe 630a 113e 0af1 abbd 4dec 193d
00000010: 518c 613e 2024 28be c62b 4a3d 4711 233e
00000020: 742b 18be 322e babd 6812 f43c 4d04 603d
00000030: e439 c63e a14c 37be b4fc 66be 1a2f 333e
00000040: eef3 5b3e 607d b93d 54a9 413e 836b 17be
00000050: b7be c1bc 6e09 01be aa5a c4bd 8e1a 10be
00000060: 6cb3 abbe 6149 1abe fa12 d63c 508c 3f3d
00000070: b5ab df3d 677b a63e c62c 373e baf5 3bbe
00000080: ff32 8a3d d139 923d 6878 343c b92a 313e
00000090: 0629 123b 7692 f4bd 97c7 6ebe eaa7 4bbd
000000a0: df19 74be e943 093e 67a2 713e 64b8 36be
000000b0: fab7 8abd 0f74 13be 113d 0d3e 05d6 043e
000000c0: 2354 52be 2da7 683d 6279 32be afe4 8fbd
000000d0: b963 863e 1d47 763d d4d1 afbe 51d8 1abe
000000e0: 0b56 38bd 025e dc3d 53d3 383e 2507 06be
000000f0: 0a68 173e 6e91 583e 6a0e e5bd fb04 86be
00000100: 8f45 043e 7c6e 6fbe 650b 8bbd 8a96 abbd
00000110: 5b95 313c 4a87 813e b32c 063e 517c 3e3e
00000120: 0e35 3b3e f82b 773e adbd abbd bf21 01be
00000130: e9d8 363e 8199 70be dc6c 863e e280 933e
00000140: 8001 e03d be29 17bc c9bd 79be e0ff 803d
00000150: ffb9 3f3e 356e adbd d08c 78bd 27b9 423e
00000160: e0bc 423e b3e2 2c3e 6c5d e7bd 08c1 d13d
00000170: 418a cfbc 2d2b e63d 99a2 b0bd 9074 62bd
00000180: 28a7 edbc 1537 703d fa9f b2bc b12e 503e
00000190: 08e3 24bd 68f5 e93d d79a 9fbe 9f8f 05be
000001a0: 4696 503d 4896 5e3e c9f8 a9be 787b 013e
000001b0: 7dd6 ab3e b53e b9bd 8585 0f3d 4bac 7ebd
000001c0: 0d07 7b3e ec54 813e 1631 993c 1b2f 783d
000001d0: c89d 213e 4b8a c1bd 9eb0 31be d9b9 42bd
000001e0: dce1 97be 9350 813e be9b 4bbc 1360 ffbd
000001f0: 9f0b 273e dc8d 643e b154 e73d 478e fbbd
00000200: c74a af3e 22da 80be 6e36 19be 78b0 ee3d
00000210: b179 083e 75c3 293e 0622 8bbe a173 293e
00000220: d512 953e c825 1ebe 4832 413e 001b 753e
00000230: 771a 1bbd 9ab6 eb3d 42f0 333e 373b e73e
00000240: 0f0c 35be 78c5 c83d 2fa8 59be b05d 85bc
00000250: df83 8ebd 234a 35be 7044 ec3d aa5a a03d
00000260: 863c efbd b37f d6bd e5f8 eabd f783 303e
00000270: eefa a4be 26ff 88be 559f 463e 988d 21be
00000280: 03ec a7bd 3afb 6f3e c607 553e 4072 f5bd
00000290: 7b18 83bb 92ca 3d3e eaf6 5abe 59f0 743e
000002a0: cd0f 0c3d 6f72 d1be a1be 6bbe edca 2c3e
000002b0: 26a8 6cbe d664 063d 31da 96bd 2c35 b4bd
000002c0: ca5c b83d cf5e 50be 2f8a 9fbe 61c5 27bc
000002d0: 84c1 54be dd33 443e 1bab 373d adad 033d
000002e0: 0117 1ebe aa93 4cbe 3e11 53bc e871 85be
000002f0: f034 303e 4c98 0e3e 1975 3bbe 1c56 b43d
00000300: 0ee1 823e ff25 cabd 12d3 a43d 5d73 1ebe
00000310: 0c0b 65be 1bee 71be 6b84 783c 097d ffbd
00000320: 35b4 8fbd 0d15 6bbe 2aef 183e e40e a83e
00000330: 20c7 92bd b1a7 82be dd40 9ebe 5b78 5e3e
00000340: 184d 083e c1f8 7f3e 0f3e 6bbe c391 77bd
00000350: 0eb5 933e f9b3 c5bc b1f6 04bd d957 f5bd
00000360: 2c36 29bc cf1a fabc dd07 9bbd 9dcc 9bbe
00000370: ffaa 6dbe 8839 83bd 540b a5be a238 78b9
00000380: f6cd 8abe 8065 fc3c 2d4a febd 0d69 843c
00000390: a12f e3bd ad60 4abe bdbf fb3d 8e98 afbd
000003a0: 120b 94be 86a2 32bc 9d91 363e cc9d 553e
000003b0: 3d04 9bbe e5b5 c63c ff80 3e3d b3fa 25bd
000003c0: b483 1bbd 4677 0e3e 9924 56bd 5b23 f0bd
000003d0: fc55 8c3d 78ae 48be 4a69 64be 8af7 113e
000003e0: 6845 823e 2bca 413c 198a 9fbc 6661 613e
000003f0: 18cc 95be f231 093e 2f94 0abe 9e31 b43d
-0.30469894 0.14164118 -0.08395584 0.03757887 0.22026183 -0.1642003 0.04935815 0.1592456
-0.14860326 -0.09090842 0.029793933 0.0546916 0.38716042 -0.17900325 -0.22557336 0.17498437
0.2147977 0.090571165 0.1891225 -0.14787106 -0.02365051 -0.12601253 -0.09587605 -0.1407263
-0.33535326 -0.15067054 0.026132096 0.04676467 0.109214224 0.32516024 0.17888173 -0.18355456
0.06748008 0.07139934 0.011015035 0.17301454 0.0022302284 -0.11941998 -0.23318325 -0.049720682
-0.23837994 0.13404812 0.23597108 -0.17843777 -0.06773372 -0.14399742 0.13792826 0.12972267
-0.20539908 0.056800056 -0.17429116 -0.0702604 0.26247957 0.060126413 -0.34339774 -0.1512158
-0.045003932 0.10760118 0.18049364 -0.13088663 0.14785782 0.21149227 -0.1118439 -0.26175675
0.1291716 -0.2338199 -0.06789283 -0.083783224 0.010838832 0.2529853 0.13102989 0.1860211
0.18281958 0.24137866 -0.08385787 -0.1261053 0.17856182 -0.23496057 0.26254928 0.28809267
0.10937786 -0.009226261 -0.24388804 0.06298804 0.18723296 -0.08468286 -0.060681164 0.19015943
0.19017363 0.16883354 -0.11297116 0.10241896 -0.02533448 0.11238704 -0.08624763 -0.055286944
-0.02901037 0.05864628 -0.021804798 0.20330311 -0.040255576 0.11423761 -0.3117282 -0.13043068
0.050924562 0.21737015 -0.3319762 0.12644756 0.3356208 -0.090451635 0.035039444 -0.06217603
0.24514408 0.25260103 0.018700164 0.0605918 0.15782845 -0.094502054 -0.1735253 -0.04754052
-0.29664505 0.25256786 -0.012427269 -0.124694966 0.16313027 0.2231974 0.112954505 -0.122829966
0.34236738 -0.25166422 -0.1496217 0.116547525 0.13327672 0.16578467 -0.27174395 0.16548015
0.2911593 -0.154441 0.18866837 0.23936081 -0.037867036 0.11509438 0.1757212 0.45162365
-0.17680381 0.09803289 -0.21255563 -0.016280025 -0.06958746 -0.17704062 0.11536491 0.07829793
-0.11681466 -0.104735754 -0.11473254 0.1723784 -0.32222694 -0.26757163 0.19396718 -0.1577667
-0.081993125 0.23435679 0.20803747 -0.11984682 -0.004000721 0.18534306 -0.21383253 0.2391981
0.034194756 -0.40907618 -0.23021938 0.16874285 -0.23111019 0.03281101 -0.073658355 -0.08799204
0.09002073 -0.20348667 -0.31160113 -0.01023993 -0.20776945 0.1916041 0.044840913 0.032148052
-0.15438463 -0.19978204 -0.012882529 -0.26063466 0.17207694 0.13925284 -0.18306388 0.088054866
0.25562328 -0.098705284 0.08048071 -0.15473695 -0.22367495 -0.23625986 0.01516829 -0.124750204
-0.07016794 -0.22957249 0.14934984 0.3282386 -0.07166886 -0.25518563 -0.30908862 0.217256
0.13310659 0.24997236 -0.22972892 -0.060441744 0.2884907 -0.02413367 -0.032461826 -0.11979646
-0.010327857 -0.030530361 -0.07569859 -0.30429545 -0.23209761 -0.064074576 -0.32235205 -0.0002367222
-0.2711026 0.030810118 -0.12416492 0.016163373 -0.11093069 -0.19763441 0.122924305 -0.08574019
-0.28914696 -0.010903006 0.17828985 0.20860976 -0.3027667 0.024256656 0.04650974 -0.04052229
-0.0379674 0.13912687 -0.052280996 -0.117254935 0.06852338 -0.19597805 -0.2230579 0.14254585
0.25443578 0.011827986 -0.01947503 0.22009811 -0.29257274 0.13397959 -0.1353309 0.08798526

transformer.encoder.layers.0.self_attn.out_proj.bias f4 [32]
00000000: e180 363e 8dd5 983e 1ca6 4d3e 9d7e 433e
00000010: 6a37 57be a4fa 36be 20d7 81be f415 793e
00000020: 816a b1bd be22 90be 1520 05bd 1b66 82bd
00000030: 2145 363e a5d1 4bbd ff79 51be fd65 08be
00000040: cfe3 9c3e e0dd f3bd e417 bebe 0121 573e
00000050: 40cd 763e 8a8a a3be f66e 813e 595e bebe
00000060: b076 17be 7141 a43d 6af9 a8be c1d7 bfbc
00000070: e90c 193e 253e 8a3e 73cc 833d 6219 ce3d
0.17822601 0.29850426 0.20082897 0.19091268 -0.21017233 -0.1786905 -0.2535944 0.2432478
-0.08662892 -0.28151506 -0.0325013 -0.06367131 0.17799808 -0.04976048 -0.20456694 -0.13320155
0.30642554 -0.11907554 -0.37127602 0.21008684 0.24101734 -0.31941634 0.2527997 -0.37181357
-0.1479137 0.080202945 -0.33002788 -0.02341831 0.14946331 0.27000538 0.0643548 0.10063435

transformer.encoder.layers.0.linear1.weight f4 [128, 32]
00000000: fd7d e43c 5023 f93d 7675 483e 0b58 293e
00000010: 4f66 aebd 3f02 10be 3762 1abe 2434 d93c
00000020: 7be7 313d 0f0d adbc 3907 64bc b87a 80bd
00000030: 4887 6fbd afb4 073e 5f3e cf3d 8f54 473d
00000040: 5bd6 f83d 7fd1 1c3e 343b 533d 6a41 30be
00000050: 9159 703e 2bf1 193e 4fcf 103d c543 1a3e
00000060: fa26 05be 893c e93d 2956 013d 8a7a 323d
00000070: 0355 53be 81b1 2b3d 26e2 bcbd 12e5 f63d
00000080: d9b8 a9be b583 ad3c 3cae 4cbd 6581 c9bd
00000090: 5b58 b13d 01db 82bd e26a 7f3e a008 34be
000000a0: 379b c83d b634 e0bd 198e 18bd 6340 35be
000000b0: b7dc 15bd 8d4c 8d3d 5a95 13be 1999 7dbd
000000c0: 98cd 7dbe 9af8 823e d4d2 8f3e 0f04 d23d
000000d0: cac9 94bd 7421 07be dab9 7a3e 16cb f8bd
000000e0: 97f8 8eba f961 9cbd cecb f23d cfdb 223c
000000f0: 6d0f 5ebe b140 cc3d 33b3 4ebc cbdd fabd
00000100: 46e7 aebd 9eef c2bd 3b3f b53d e7ad 0a3e
00000110: b3bb 593e fcfb b93d 919d 70bd a72e 623e
00000120: 304e a13d 4f38 d23d 5cb1 c9bd 7171 823c
00000130: c8de b03d 0cc8 b7bc bb8e d23d 72b2 0abe
00000140: 1e2a d9bd 57c0 4dbe 791f 843e 5a7f cdbd
00000150: 88d6 cf3d 32f3 283e e6bc 6cbe de32 d63d
00000160: 80eb 1d3e dbc3 20bd d3df 253e 73af cb3d
00000170: 323c d0bc a9c5 5fbb c8a1 cd3d 1e20 a8bc
00000180: 474a de3d 5e8c 68be a342 083e f210 79bd
00000190: 30ef 90be 91da dc3d 88b5 2bbe c4d5 873d
000001a0: 2e02 f7bd 6e1f 683e c2c9 3f3e 61a6 943d
000001b0: bd55 87bd e0ac d9bd e53b ddbc d395 1f3e
000001c0: aea0 2e3e d64c 4c3d 9a86 46be bb10 3d3c
000001d0: f152 463e 817f 45bd d655 0e3e 486b cbbd
000001e0: 0f4a 3abe a588 dcbd f36a be3d 1e8b c43d
000001f0: 9d5a f43d d641 37be 1134 91bc 24eb 0bbe
00000200: 37b0 73be b1b0 0bbe 5d8f 03be 2b7b a8bb
00000210: 2548 c8bd 50d4 873e be42 a53e 964f 44be
00000220: a1aa 71be 21ca adbd ce7b e1bd f46b 8abd
00000230: a926 94bd d375 2b3b c921 d4bc 3e13 143d
00000240: a6b9 bf3d bac5 dd3e 6b74 a23e 1f00 89bd
00000250: 5ef9 4bbd 215c a93d a9ff 043b cab5 533e
00000260: 59d5 4d3e 57ed 80be aa90 3c3e 8b44 e4bc
00000270: 566a 003e e6d2 66bc bb48 5dbe a2f5 083e
00000280: 9c33 4c3d 35ed 99be 56ee 98be b2c3 02bd
00000290: 8518 2fbd 9367 e53d e881 8e3e 4ced 2fbb
000002a0: 48b7 3a3d 2f1d fcbd 7d7f 8d3e 2b25 11bd
000002b0: 99ce 57be d10c d23c 2950 7e3e cf83 3b3e
000002c0: d490 c03d 36d9 c73e dbb8 f53d 9dd2 a0bd
000002d0: bd92 5dbe 2333 3e3b faa2 1bbe 7f25 cc3e
000002e0: 9548 3cbe 781b 3dbd a408 443e 3020 4f3d
000002f0: 64d5 053e 53bc 5639 fbf0 90be 08fc 1dbe
00000300: 1632 3bbe cab1 ddbc fd96 ae3e cb49 08bb
00000310: c10b c33d 411e 9f3d c6f7 e03d 3346 89be
00000320: 2bd3 253d b44f acbd 2042 063e 6faa 52be
00000330: 5cf8 943d b9df c13a 6be9 78bd f9a6 e63c
00000340: a7ba 2ebe 60e8 60bd 5a48 35be c37f c7bd
00000350: a350 683e 1e94 df3e 2559 2b3e 5f05 923d
00000360: 0b04 15be 494b c2bc 6329 29be de4b 213e
00000370: 2c45 04be 4a12 1f3c a73e f23c 5cda 943d
00000380: e497 30bd 6fbb 96be 6a6f cf3c 169c ee3a
00000390: cd61 76bd 03e4 3abe c689 2b3d ade4 a1be
000003a0: 2f33 19be 807e 563e ab01 29be b21a 223e
000003b0: 69a7 b33d 4c09 53be 1205 af3d c6a0 b03d
000003c0: 39e3 31be e561 333d e0ac af3d aef7 763e
000003d0: dd3c 1cbe c566 013e 9fd1 d53d ff34 903e
000003e0: f6b5 88ba 7608 013d c32e 9a3e f0b2 e93c
000003f0: fd59 443d 9c27 4cbd e289 783c ad74 623e
0.027892107 0.121649384 0.19576058 0.16537492 -0.085156076 -0.14063357 -0.15076528 0.02651412
0.043433648 -0.02112439 -0.013917738 -0.06273407 -0.058478624 0.13252519 0.10119318 0.048664626
0.1215026 0.15314291 0.051570132 -0.17212453 0.23471667 0.15033405 0.035353955 0.15064915
-0.1300315 0.11388499 0.03157631 0.043573894 -0.20637898 0.041917328 -0.09222822 0.120554104
-0.3314884 0.021180967 -0.04997085 -0.09839133 0.086594306 -0.06389428 0.24943116 -0.17581415
0.0979523 -0.10947554 -0.03724489 -0.17700343 -0.036587443 0.068993665 -0.14412442 -0.061913583
-0.24785459 0.25580293 0.28090537 0.1025468 -0.07265051 -0.13196355 0.24484959 -0.121481106
-0.0010907826 -0.07635874 0.11855279 0.009940102 -0.21685572 0.099732764 -0.012615967 -0.12249335
-0.08540206 -0.095183596 0.08849951 0.13542901 0.21263008 0.09081265 -0.058744017 0.22088109
0.07876241 0.10264646 -0.09848282 0.015923234 0.08636242 -0.022434257 0.1028113 -0.13544634
-0.10603736 -0.20092903 0.25805262 -0.10034056 0.101483405 0.16499022 -0.23118934 0.10458921
0.15421867 -0.039249282 0.16198663 0.09945574 -0.025419328 -0.0034144914 0.10040623 -0.020523127
0.10854011 -0.22709796 0.1330667 -0.060807176 -0.28307486 0.10783876 -0.16768467 0.066325694
-0.120609626 0.2266824 0.18729308 0.07258297 -0.0660815 -0.106286764 -0.027006099 0.15584497
0.17053482 0.049877964 -0.19387284 0.011539633 0.19367577 -0.0482173 0.13899931 -0.09932572
-0.18192314 -0.107682504 0.09297743 0.09596847 0.119313456 -0.17896208 -0.017725023 -0.13663918
-0.2379769 -0.13641621 -0.12847658 -0.005141636 -0.097793855 0.2652917 0.32277483 -0.19170985
-0.23600246 -0.08485819 -0.11009942 -0.06758872 -0.07233936 0.0026162758 -0.025895016 0.036151163
0.093615815 0.43314916 0.31729445 -0.06689476 -0.049798362 0.08269525 0.0020293987 0.20674816
0.20100917 -0.25181076 0.1841456 -0.027864715 0.12540564 -0.014088368 -0.21609776 0.13374951
0.049853906 -0.30063787 -0.29869336 -0.03192491 -0.042747993 0.11201396 0.27833486 -0.002684432
0.045584947 -0.12310254 0.27636328 -0.035435837 -0.21074905 0.025640877 0.24835266 0.18312
0.09402624 0.39032906 0.11998149 -0.07852671 -0.21638007 0.002902218 -0.1519889 0.39872357
-0.18387063 -0.046168774 0.19143921 0.050567806 0.13069683 0.00020478787 -0.28308854 -0.15428174
-0.18280825 -0.027062315 0.3409957 -0.0020795937 0.09523726 0.07769442 0.10984759 -0.2681137
0.04048459 -0.0841364 0.13111162 -0.20572828 0.07273933 0.0014791406 -0.06076948 0.02815579
-0.1706339 -0.05490911 -0.17703381 -0.097411655 0.2268701 0.43667692 0.16733225 0.07129931
-0.14552324 -0.02371754 -0.16519694 0.15751597 -0.12917012 0.00970895 0.02957089 0.07268211
-0.043113604 -0.29439875 0.025321681 0.0018204476 -0.060151864 -0.18251042 0.041879438 -0.31619778
-0.14960931 0.20946693 -0.16504543 0.15830496 0.08772165 -0.20609015 0.08545889 0.08624415
-0.17371835 0.04379453 0.08577895 0.2411792 -0.15257592 0.1263686 0.10440373 0.28165433
-0.0010430205 0.03150221 0.301138 0.028527707 0.047937382 -0.049842462 0.015169593 0.22114821

transformer.encoder.layers.0.linear1.bias f4 [128]
00000000: 55b9 b9bd a882 313b a596 cebd 7874 55bd
00000010: dd35 cf3d 57d3 0dbe 514d 03be 7260 993d
00000020: 8df4 2dbd 61a4 23be 6e60 94bd 2137 cabc
00000030: 0a99 69be 199c 8a3d 8050 20be a482 95be
00000040: 4171 a2bd 24c5 29bc 7dc8 24be 88a0 aa3d
00000050: fbc6 17be be10 053d 5e14 94be fca7 62be
00000060: 4cf0 bcbc 7019 4f3d ca3f 36be 2ac5 52bd
00000070: 1095 60bd feb7 08be c141 87bd 2929 26be
00000080: 58a0 7abe e9b7 e1bd da44 9dbd d769 a1bd
00000090: 55f8 a03d d5e0 b1bd 9ab6 c4bc 29bd b93d
000000a0: ab08 c7bc 98fa a43d 3996 55bd f734 cc3d
000000b0: 68ae c2bd f13b 85bd c3d4 47bd a0db 44be
000000c0: 31bf babb d14d 36bc d584 d7bd 0e60 28be
000000d0: 01ca 2fbe 5990 26bd f3e9 58be c719 80bd
000000e0: afe8 e8bd 9c1b 57be 2acf bbbd 1406 f6bd
000000f0: d3e4 00be 27f2 9fbc 7331 39be 5774 c63c
00000100: 379c f8bd 78d7 ee3d 45f0 74be a2b3 fb3d
00000110: 8734 393b 30be 83be 28d6 f7bd 2339 26bd
00000120: 7a80 b2bd 483e 83be 6ada 38be 3aa6 6fbe
00000130: 8883 33bd 9ea7 183e 95e5 cfbd 4907 91bc
00000140: eaa9 f6bd 92ea b9bd b3c1 f2bc feb9 f9bd
00000150: 34d1 3cbe 4f69 8ebe be5e c5bc ab0c d1bd
00000160: 0e42 bd3b 7fdd 2ebc 79a4 363d 3f70 abbe
00000170: 037a 90bd 37ed 6b3d debc 01be 72b3 9ebd
00000180: 4995 7dbe 08f8 c8bd 5c2e 473e 2c34 45be
00000190: bdf0 31be 28d1 64be 6840 0dbe 99ca 30bc
000001a0: 869d 50be b855 2dbe db2c a2bd d3dc 9e3c
000001b0: ca05 38be 6b44 6ebe 0efc 70be 8fcf 6dbe
000001c0: 296b 84be 5815 5f3d 3bda d13d 9c6e d7bd
000001d0: d33b 98bc f876 07be b13e dcbc 8565 b0bd
000001e0: 4871 0fbe 2565 64bd 6a07 b13c 965a 16be
000001f0: 4a56 cfbd ce43 253d 45de f9bd 7c90 a2bc
-0.090685524 0.0027085934 -0.10087327 -0.052113026 0.101176955 -0.13850151 -0.12822463 0.074890986
-0.04246955 -0.15980674 -0.07244955 -0.02468449 -0.22812286 0.067680545 -0.15655708 -0.29201233
-0.07931758 -0.010361943 -0.16092105 0.083314 -0.14821999 0.03248667 -0.2892179 -0.22134393
-0.023063801 0.05056137 -0.17797771 -0.05145756 -0.054829657 -0.13351437 -0.066043384 -0.16226639
-0.24475229 -0.11021406 -0.07679148 -0.078815155 0.078598656 -0.086854614 -0.024012852 0.090692826
-0.024296125 0.080556095 -0.052145217 0.0997104 -0.095059216 -0.065055735 -0.04878689 -0.19224405
-0.0056990613 -0.011126951 -0.105233826 -0.16442892 -0.17166902 -0.040665004 -0.21182995 -0.06254917
-0.11372506 -0.21006626 -0.09170373 -0.12012878 -0.1258729 -0.019524647 -0.1808527 0.024225397
-0.121391706 0.11662191 -0.2391978 0.122901216 0.0028260069 -0.2573104 -0.12101394 -0.040581834
-0.08715911 -0.25633454 -0.18052068 -0.23403254 -0.04382661 0.14907691 -0.10151211 -0.01770367
-0.12044127 -0.09077944 -0.029633379 -0.12193678 -0.1843918 -0.2781472 -0.024093028 -0.10207494
0.0057756966 -0.010672926 0.044590447 -0.33484074 -0.07054522 0.057599273 -0.12669703 -0.0774907
-0.24763979 -0.09812933 0.19451278 -0.19258183 -0.1737699 -0.22345412 -0.137941 -0.010790491
-0.2037259 -0.1692723 -0.07918712 0.019392407 -0.17970958 -0.23268287 -0.23533651 -0.23223709
-0.25863007 0.054463714 0.10246702 -0.10519144 -0.018583214 -0.13228977 -0.026885362 -0.08613113
-0.14008057 -0.05576052 0.02160998 -0.14682993 -0.1012388 0.040347867 -0.12200598 -0.019844286

transformer.encoder.layers.0.linear2.weight f4 [32, 128]
00000000: ed81 28be 8f88 8a3d 4d83 4dbe 9f83 483d
00000010: 18e6 aa3d e752 97bd e7dc 0fbd f21d 6abd
00000020: b1b9 10be f52f a5be 4c99 833c cbe4 5bbd
00000030: 58ff 8bbc 3807 2f3d 4298 fcbd 2d9e 65be
00000040: 926c b63d 750d 9f3d af66 ae3b ade8 953e
00000050: c76c 293d 2bf8 a7bc 29bc 3bbe 577a b13d
00000060: 2e8d d13d fab5 60bd 1216 85bd 216d 72bd
00000070: e7c7 53be 4507 6f3e e65d 073d 5bf0 e63a
00000080: e468 74bd 6e5e a7bd cade 4f3e 91e6 333e
00000090: 5584 edbd 48ad 353d 3c5a 20be fb11 3fbe
000000a0: 2bf7 b63d 9320 75be c324 253e c5e0 e9bc
000000b0: 0881 9ebd e671 123d cbbe 5f3e 2830 a4be
000000c0: 3724 ccbc b7d4 a73e 2160 2ebe 647e 84bd
000000d0: 463b 20bd d0e8 723e 681d bc3d b891 7dbd
000000e0: ecd6 1f3e 443b de3d c230 703e af6e 033c
000000f0: 21e5 273e 4ee0 a93d 1bab 9a3d bcf8 3e3e
00000100: e995 493e eaee 25be a5ad 01be 7bde e2bd
00000110: 8c1c b7bd 76b4 993c cdea 40bd 545c 3c3d
00000120: feb0 ef3c 1649 aebd 7b5a 843d 4607 853c
00000130: b4e5 2b3d 1857 ba3d daed 3b3d 15e5 b5bd
00000140: f3cf 253e 6d27 883e 1e98 ff3d 8234 2fbe
00000150: 1891 5f3d 250c 883d ea3f 1c3e 8c18 1c3e
00000160: 3120 45be 7a2e b4bd 954d 0dbe 4e56 9b3d
00000170: 7e89 433e 4728 923e accd e6bd c0eb dbbd
00000180: 1a47 c03e 75b9 e93d 4e81 8b3c 3d16 f53c
00000190: a7d6 0f3e 6230 0cbe cb81 a93d 945d d7bd
000001a0: 0978 353d e8d5 533d fe14 e7bd 7235 b6bd
000001b0: 2c9e 53be b2bb a93e 8c09 6ebd 5f8b 053e
000001c0: 6695 8a3e 4d4d 0ebe 011b 0ebe fbf5 2cbe
000001d0: af42 443e a93d d0be 0dac 2e3d 7a60 1fbe
000001e0: f4c3 903c 534e 2d3e bd59 52be b412 623e
000001f0: f8fb 823e a091 37bb beb8 333d e386 4b3d
00000200: 8a30 59be 2134 94bd 23d8 eebd d2f2 94bc
00000210: a885 58be 1cfd 0abd a6f6 40be 02fa 29be
00000220: fa2d 7bbe 4f31 483d da61 4d3e 7160 cebd
00000230: ed40 1cbe ebba 323c 58be 06be b555 f43d
00000240: 9b29 d53d 4bcf 40bc f089 dabd 6862 153e
00000250: fa34 5e3e a219 2abe d365 593d d655 8c3b
00000260: 6bb6 99be 3b0d 73bd 8669 7b3e 24b0 cfbc
00000270: 9057 37be 7d4a 32bd c8a7 a63d f56a 563d
00000280: d5e4 163e 04a5 f73d c934 b6bc d1a2 d8bd
00000290: 7696 d839 0e53 1cbe ae9c 91bd 47ff bb3d
000002a0: 9849 6abe a749 e1bd 05ac 09be b797 9a3e
000002b0: b194 3f3e 2c79 173c 9a42 dc3b 4ec8 debd
000002c0: c25d 1f3e c358 423e 61d7 82be bf2f 843d
000002d0: 0c2d 2d3e 5dc6 42bd 00e1 64be c159 78bd
000002e0: e0aa bcbc 64b9 e8bc a584 8c3d f03a 82be
000002f0: e2aa 5c3e 5f84 a7bd ac16 4abe 4c23 90be
00000300: 50e5 393d 8867 58bd 6300 c2bd ce0a 9b3c
00000310: 6986 86bd 9ebf 6dbe c918 47bd 9a50 733d
00000320: c581 08be 4855 18bd a276 053e a275 2b3e
00000330: 4273 733e b564 16be 12fd e8bd a21b 34be
00000340: 0066 26bc 10d3 06bb 193a 05bd 0a70 69be
00000350: 1741 ecbd a322 fd3d 9441 9cbe c658 22bd
00000360: aec8 2cbe aa7a 013c 8920 38be fd3c 523e
00000370: a8bf bdbe c4d8 72ba 0229 87bd 89d1 a2bd
00000380: a22f a0bc d0b6 c03c 629f 8d3d d416 a6bd
00000390: 084d 88be 2fe0 3d3d 28ec 84bd 8707 10bd
000003a0: d168 3dbe bb91 153e 2789 11bd d296 d43e
000003b0: 19a7 313e a75e 063e 2a02 52be a751 3e3e
000003c0: 71fb b23d f787 ff3d 0af0 df3d 739e aebc
000003d0: 9884 8a3e b452 b43d c2da 133e 89e3 ddbd
000003e0: fc8f 1e3e 2665 02bd c0fd a5bd 1083 78be
000003f0: 5c17 96bc c3ce 1e3c adc2 b3bb d814 923e
-0.16455813 0.06764328 -0.20069619 0.04895365 0.08344668 -0.07388859 -0.03512278 -0.057157464
-0.14133336 -0.3226315 0.016064309 -0.05368499 -0.01708953 0.042731494 -0.123337284 -0.2242362
0.08907427 0.077662386 0.0053222994 0.2927908 0.041363504 -0.020504078 -0.18333496 0.086659126
0.10232006 -0.054861046 -0.0649835 -0.059186105 -0.20681725 0.23342617 0.033048533 0.0017619239
-0.059670344 -0.08172308 0.20299831 0.17568423 -0.11597506 0.044354707 -0.15659422 -0.18659203
0.08933862 -0.23938207 0.16127305 -0.028549561 -0.077394545 0.035753153 0.21850125 -0.3206799
-0.024919612 0.32779476 -0.17028858 -0.064694196 -0.039119028 0.23721623 0.09185296 -0.061906546
0.1560933 0.10851148 0.234561 0.0080219945 0.16396 0.08294736 0.07552167 0.18649572
0.19686092 -0.1620442 -0.12663896 -0.11077591 -0.08940992 0.018762808 -0.047098923 0.04598649
0.029259201 -0.08510034 0.0646257 0.01623882 0.04196711 0.09098643 0.04588113 -0.088815846
0.16192608 0.2659258 0.12480186 -0.17109874 0.05458173 0.066429414 0.15258756 0.15243739
-0.19250561 -0.08797927 -0.13799126 0.07584821 0.19095418 0.28546354 -0.112696975 -0.10738325
0.37554246 0.11412326 0.01702943 0.02991783 0.14046727 -0.13690332 0.08276709 -0.105158955
0.044303928 0.05171767 -0.11283301 -0.08896913 -0.20665807 0.33151013 -0.058114573 0.13041447
0.27067107 -0.13896675 -0.13877489 -0.16890709 0.19166063 -0.40672043 0.04264455 -0.15564147
0.017671563 0.1692441 -0.20542045 0.22077447 0.25582862 -0.0028010383 0.043877356 0.049689185
-0.21209922 -0.07236505 -0.116623186 -0.018182192 -0.21144736 -0.03393279 -0.18844089 -0.16599277
-0.24529257 0.04887515 0.20056859 -0.100769885 -0.15259142 0.0109088225 -0.13158548 0.1193041
0.10408326 -0.0117681725 -0.10670841 0.1458832 0.21699896 -0.1661134 0.053075623 0.0042826934
-0.30021986 -0.05933879 0.24551973 -0.025352545 -0.17904496 -0.04352807 0.081374705 0.052348096
0.1473573 0.12092021 -0.022241967 -0.1057793 0.00041310833 -0.15266058 -0.071099624 0.0917955
-0.22879636 -0.11000376 -0.13444526 0.30193874 0.18709065 0.009245198 0.0067218067 -0.10878049
0.1556311 0.18979172 -0.25554946 0.06454419 0.16911715 -0.047552455 -0.22351456 -0.06063247
-0.023030698 -0.028408714 0.068612374 -0.2543559 0.21549562 -0.08179545 -0.19735211 -0.2815193
0.045384705 -0.05283311 -0.0947273 0.01892605 -0.065686055 -0.23217627 -0.04860762 0.05940304
-0.13330753 -0.037190706 0.13033536 0.16744092 0.23774436 -0.14686854 -0.11376394 -0.17588666
-0.010156155 -0.002057258 -0.03252611 -0.22796646 -0.115358524 0.12360122 -0.30518782 -0.039635442
-0.16873428 0.007902781 -0.17981161 0.20531078 -0.37060285 -0.0009263868 -0.065996185 -0.07950122
-0.019553963 0.023524672 0.069151655 -0.08109823 -0.2662127 0.046356376 -0.06490356 -0.03516343
-0.18497016 0.14606373 -0.03553119 0.41521317 0.17348899 0.13122045 -0.20508638 0.18585835
0.08739365 0.12477105 0.10934456 -0.021315789 0.27054286 0.08804837 0.14438918 -0.108344145
0.15484613 -0.031834744 -0.081050396 -0.24268746 -0.018321685 0.0096928505 -0.0054858536 0.28531528

transformer.encoder.layers.0.linear2.bias f4 [32]
00000000: 6da7 af3d 47be 913d 1881 62ba cbf4 99bd
00000010: c84d 803d fc5a 57bd b911 2abd 238f f3bc
00000020: 0b4b 193d d014 9bbd 5d9d 8a3d c1ea ff3c
00000030: 971d 4f3d 8bd3 b83d fe56 4e3b a1b2 343d
00000040: 0420 a23c 85e5 b03c be00 75bd c33d 1bbc
00000050: 1535 d23b 5ae7 6fbd 06b5 7bbb 97e4 02be
00000060: ba09 e5bc 1edb ab3d e732 46bd 88ca 4b3d
00000070: 3a5c 033d fb49 943d b9a3 99bd 7ead 743d
0.08576856 0.07116371 -0.0008640452 -0.07517394 0.062648356 -0.052577004 -0.041520808 -0.029731339
0.037425082 -0.07572329 0.06768296 0.03123987 0.05056533 0.090247236 0.0031484957 0.044115666
0.019790657 0.021593818 -0.05981516 -0.009475174 0.0064150193 -0.058570243 -0.003840746 -0.12782513
-0.02795874 0.08391403 -0.048388388 0.049753696 0.032070376 0.07240673 -0.07501931 0.059735768

transformer.encoder.layers.0.norm1.weight f4 [32]
00000000: 3324 663f e671 7e3f 5421 873f 9af7 783f
00000010: e69b 683f 5626 723f 5494 813f 47c6 7d3f
00000020: 55d8 8e3f 75ee 7e3f e528 803f 8d87 873f
00000030: 698c 803f 8c6b 7c3f 0241 5f3f e17e 793f
00000040: a5d6 7c3f a210 833f 106a 903f 098d 813f
00000050: a6a3 8b3f 129f 803f 99f1 743f 13ed 843f
00000060: c839 6e3f f4a5 7a3f 5b35 843f bb75 823f
00000070: 9ee0 753f 1885 8e3f 1fb1 8c3f bbc1 7c3f
0.89898986 0.99392545 1.0557046 0.9725281 0.9086288 0.94589746 1.0123391 0.9913067
1.1159769 0.99582607 1.001248 1.0588242 1.004285 0.98601604 0.8720857 0.97459227
0.9876502 1.0239451 1.1282368 1.0121166 1.0909317 1.0048544 0.9568115 1.0384849
0.9305692 0.97909474 1.0328783 1.0192178 0.96045864 1.1134367 1.0991553 0.9873311

transformer.encoder.layers.0.norm1.bias f4 [32]
00000000: e02b c23d 1274 92bc 1819 7ebd f9cc 2b3d
00000010: b7bf a5bd 448d 24be 27b0 e13c cf11 a23d
00000020: 19e4 983d baae bbbd 9701 da3b ae90 9cbd
00000030: e6ca 4ebd 1be9 733d 88d9 2a3d 6676 a73d
00000040: 2eea a43d 1b73 813d e81e cdbd f288 803d
00000050: bcc1 313c b7af 0dbe 978a 073d 1816 1dbd
00000060: 5372 463d a479 04bd 1949 d839 6611 783d
00000070: b263 e13d 1fa8 d53d 564e 43bd 5c01 7bbd
0.09481025 -0.017877612 -0.06203565 0.041943524 -0.08093207 -0.16069514 0.027549816 0.07913553
0.07465381 -0.09164186 0.0066530216 -0.07644783 -0.050486468 0.05954848 0.04171136 0.081768796
0.08052479 0.06320783 -0.100156605 0.0627612 0.0108494125 -0.13836561 0.033091154 -0.03835115
0.04844887 -0.032342568 0.00041253192 0.060563467 0.110053435 0.10432457 -0.04768213 -0.061280593

transformer.encoder.layers.0.norm2.weight f4 [32]
00000000: 3d23 773f 1f32 7a3f 375f 7b3f 226d 7f3f
00000010: 601a 6d3f be63 7d3f b88d 843f 3718 6b3f
00000020: e717 813f e49d 8b3f c308 7f3f bb57 8f3f
00000030: b313 873f 815a 733f 103b 7f3f 1cc0 853f
00000040: 98d8 803f ba0b 813f d7e5 823f 2fc4 763f
00000050: acaf 843f 6730 6f3f 980b 753f 4ab9 823f
00000060: 18a3 623f c215 8a3f 1c46 853f 94cc 753f
00000070: 76f6 823f 4e4b 933f 401a 893f 8073 683f
0.96538144 0.9773273 0.9819216 0.997759 0.9261837 0.9898032 1.0355749 0.91833824
1.008542 1.0907559 0.99622744 1.1198648 1.0552887 0.95059973 0.996995 1.0449252
1.0066099 1.0081704 1.0226392 0.963931 1.0366111 0.9343323 0.95720816 1.0212796
0.8853011 1.078789 1.0412021 0.96015286 1.0231464 1.1507356 1.0711136 0.9080124

transformer.encoder.layers.0.norm2.bias f4 [32]
00000000: ccc3 bcbc bd51 983c 5900 91bd e91b 48bb
00000010: c250 0c3d 1500 843d 166d 423d 7a9f 983d
00000020: 7b93 8f3c 63d6 abbb 4253 f038 9f00 64bc
00000030: c5d0 a4bc c2e8 bf3d 1ef6 013d fec5 353d
00000040: 7dc6 76bc 473f 3dbc 0b7b a33b 3580 92bd
00000050: 40d6 74bd f669 6b3d f32f df3c 15c2 86bc
00000060: 5b64 3dbd 6ff5 44bc 4150 553d f74c ad3d
00000070: 31a6 4d3c 6e1c f03c 1ea5 48bd 14e6 00bd
-0.023042582 0.018593663 -0.070801444 -0.0030534214 0.034256704 0.06445328 0.047467314 0.07452293
0.017526379 -0.0052440627 0.000114596 -0.013916164 -0.02011908 0.09370567 0.031728856 0.044378273
-0.015061972 -0.011550731 0.004989033 -0.0715336 -0.059774637 0.0574741 0.027244544 -0.016449967
-0.046238285 -0.012021407 0.05207849 0.084619455 0.01255183 0.029310431 -0.048985593 -0.03146942

transformer.encoder.layers.1.self_attn.in_proj_weight f4 [96, 32]
00000000: 9c0d babd ff18 1cbe eac5 5e3c 0023 3c3e
00000010: f2e5 94bd 9716 e1bd b426 8cbd 8523 7c3e
00000020: 3835 553c f78e 1a3e 9251 6a3e 0131 9b3d
00000030: 15e6 73be 89c0 80bd 1874 65be b929 0e3d
00000040: 53ae 043d 4a34 78be 3466 6a3d 30f1 eabc
00000050: 65c8 4e3e 1259 7dbe 5f9d aabe 9ef5 4dbe
00000060: f04f c7bd e201 343e 00fc c13d c3aa 81be
00000070: de38 62bd 01e0 88bd 9f86 643d 66bc 67be
00000080: 8126 04bd 30a8 bdbe 1e76 b4bd 8d1d 74bd
00000090: 1688 453e d620 213e dd1e 35be 1b14 fb3c
000000a0: 9a2a 08be b0b8 8c3e 7f46 103e ded7 b8bd
000000b0: 6365 15be 9391 a33e a42b 083e 25bc ec3d
000000c0: 9df0 18bd 95a1 883d 83b5 453e 3850 6abc
000000d0: 2e0a adbd 167e 533e c7d5 a4be 2726 763e
000000e0: 730a ed3c 1e4d 65be c412 7dbc 1e7b cabd
000000f0: 286a f53c 391a 28be 7c80 343c 78bb 38be
00000100: 27dc 4d3e 404c 893e a5a0 97be 2b53 fcbd
00000110: 57ba e4bb 6d19 c1be bb05 e13d 6dd9 b93e
00000120: 6c0b 2c3e 397f 3abe 7bb6 5cbe 27ac 0bbe
00000130: 0b52 44bc 92d3 d6bb c5b3 3f3d 1cac d9bd
00000140: d0df 0c3e 23f8 de3d fa77 333e 433b cfbc
00000150: fe30 8ebd 6d34 8abe c834 cebd 3e48 8e3e
00000160: ec3a 613e d923 79bd 2fb5 8b3d c6fc 273e
00000170: 8ec4 803e 4ccb 84bd b860 e93d 3204 e5bc
00000180: f4b3 97be 0beb 243c 55a7 e43d ccbc ebbd
00000190: 1d62 46bc bace c9bd 7b74 87bd e979 02be
000001a0: f767 663e 0175 b13d 33b3 9bbd b5ba 04be
000001b0: 1b80 1a3e 491a 0ebe 5ec2 5c3e ebf8 73bd
000001c0: a7c5 603e f9e9 473d 7944 01be 763e 033e
000001d0: 7494 c9bd 8ba0 07be 4e9a 3a3e c4cb 453e
000001e0: c0e5 1bbe 320e eabd 1bac 18be 56a4 0c3e
000001f0: b30c 323e 8171 50be 55f2 8a3d 8183 0bbd
00000200: 495a 133e 5be7 37bd d6b8 ac3e bb77 3cbe
00000210: 0c7c a7bd 4541 15be ec4e ef3d 9415 c1bd
00000220: f730 db3c 348c 293e b661 9b3e 1a6e a53e
00000230: 0e9e c93e 3e56 203d ffa7 e33c d47b 07be
00000240: 228b e33c bf6b 5b3e 6c13 073e 1259 f53d
00000250: 848e 8e3d 095c 703e 1aaa 553e a4c3 b2bd
00000260: 0138 4b3e d2d5 ce3d 8744 4bbe 1db1 843e
00000270: f801 f93d 7ff0 813d c71b 39be 8e85 913d
00000280: 4d20 503e 144c ef3d bfe5 8abe 88f8 34be
00000290: 0eda 483e 7a48 083e 8ec8 85bd aa96 b73d
000002a0: 97ea 3cbd 0db1 213e 259f 083e 3671 4a3e
000002b0: 723a fdbb b2a8 a43d b9c1 153d fae5 b9be
000002c0: d1c7 f0bc 420f 823e e6c2 663d 9b88 adbd
000002d0: 76ef bc3c dd91 f1bd f657 02bf 6717 013d
000002e0: 05e7 763d fd3e 003e a3d6 68be 3531 d6be
000002f0: 07a7 e1bd 01c6 2a3c 5dff 6c3e 977f afbd
00000300: 41a1 09be 185c 63bd 9af9 97be 4607 8d3e
00000310: adb5 e33d d1ae 1a3e 76a6 5abe b2a3 8d3d
00000320: eb58 613e 2cba 923e 5eb1 753c acae e93d
00000330: 3d63 27be 4869 20bd c449 5abe 548d 5f3e
00000340: 2f43 c1bd 1ac9 4ebc 77d9 873e c91e 263e
00000350: d3d2 1dbe 4a50 58be 7fac 3fbe d02a a23e
00000360: 55b5 203e 700e e3bd 3c05 b93c 4270 b6be
00000370: f606 203d 892c 453d ea27 c43e 7ede 1b3e
00000380: 3166 843c 7f8a 19bd 502c f0bd 5065 b93d
00000390: ba75 24be 5423 6dbe 08a8 b13d 5c9e b13e
000003a0: 45f6 fe3c 5233 58bc 24dd 0bbe b289 8f3c
000003b0: 51a2 efbc 9ba0 093c bdf3 803e 6b63 673e
000003c0: bbf2 12be ad6d 7dbe 617f 61bc 519e ad3e
000003d0: b62b 53be f1a5 af3c 79d0 4fbe 97d5 933e
000003e0: b804 23bd 6e95 c73d 7c03 9b3d f9ad 13be
000003f0: 9066 af3d efcc c2bd 8af2 7d3e 22fe f1bd
-0.09084627 -0.1524391 0.013596991 0.18372726 -0.07270421 -0.10990637 -0.068433195 0.24622925
0.013013177 0.150936 0.22882679 0.07577706 -0.23818238 -0.06286723 -0.22407568 0.03470776
0.03239281 -0.24238697 0.057226375 -0.02867946 0.20193632 -0.24741009 -0.3332319 -0.20113227
-0.09732044 0.17578843 0.09471893 -0.25325593 -0.055230014 -0.0668335 0.055792447 -0.22630462
-0.032263283 -0.3704238 -0.088115916 -0.059598494 0.19290194 0.15735182 -0.17687555 0.030649235
-0.13297501 0.27484655 0.14089392 -0.090255484 -0.14589457 0.31947002 0.13297898 0.11559323
-0.03733884 0.06671444 0.19307522 -0.014301352 -0.08449207 0.20653567 -0.3219435 0.24037991
0.028935647 -0.22392699 -0.015446369 -0.09886764 0.029957846 -0.16416253 0.011016961 -0.18040264
0.20103513 0.26815987 -0.2961475 -0.123205505 -0.0069802213 -0.3771471 0.10987421 0.36298695
0.16801232 -0.18212594 -0.21553986 -0.1363989 -0.011982451 -0.006555983 0.0468023 -0.106285304
0.13757253 0.10887172 0.17526236 -0.025296813 -0.06942938 -0.26993123 -0.10068661 0.2778949
0.21995133 -0.060825203 0.068216674 0.16405019 0.2514996 -0.06484088 0.11395401 -0.027956102
-0.2962948 0.010065804 0.111647286 -0.115106195 -0.012108353 -0.09853883 -0.06614014 -0.12741818
0.22500597 0.08664895 -0.07602539 -0.12961848 0.15087931 -0.13877214 0.2155852 -0.05956356
0.21950398 0.048807118 -0.12623776 0.12816796 -0.09842768 -0.13244836 0.18222925 0.19316012
-0.15224361 -0.11428489 -0.14909403 0.13734564 0.17387657 -0.20355798 0.067845024 -0.03406096
0.1438991 -0.044898372 0.3373477 -0.18405049 -0.08177957 -0.1457568 0.11684975 -0.09427944
0.026756747 0.1655739 0.30347985 0.32310563 0.393784 0.039144747 0.027790068 -0.1323083
0.027776305 0.2142782 0.13191003 0.119798794 0.069607764 0.23472609 0.2086567 -0.08728722
0.19845583 0.10099377 -0.1985036 0.25916377 0.12158579 0.06344699 -0.18077002 0.07105552
0.20324822 0.116844326 -0.27128407 -0.17672932 0.19614431 0.13308898 -0.065323934 0.08964284
-0.04612216 0.15790196 0.13341959 0.19769749 -0.0077279145 0.080399886 0.0365617 -0.3630827
-0.029392155 0.25402266 0.056338213 -0.08473321 0.023063403 -0.11795399 -0.5091547 0.03151646
0.06027891 0.12524028 -0.22738127 -0.41834417 -0.11018186 0.010423184 0.23144288 -0.08569258
-0.1344042 -0.05550775 -0.29682618 0.27544612 0.11118636 0.1510575 -0.21352562 0.06915988
0.22006576 0.28657663 0.014995901 0.11410269 -0.1634645 -0.039162904 -0.21317202 0.21831256
-0.094366424 -0.012621189 0.265331 0.16222681 -0.15412454 -0.21124378 -0.18718146 0.31673288
0.15694173 -0.11086738 0.022585504 -0.3563252 0.03906914 0.048138175 0.38311702 0.15221593
0.01616201 -0.037485596 -0.11727202 0.09052527 -0.16060534 -0.23158008 0.086746275 0.3469113
0.03112329 -0.0131958295 -0.13658577 0.017521713 -0.029252203 0.008400108 0.25185958 0.22596519
-0.14350407 -0.24748869 -0.01376328 0.33909848 -0.20622143 0.021441432 -0.2029437 0.28873894
-0.039799422 0.09745298 0.07569024 -0.14421834 0.08564484 -0.09511744 0.24799553 -0.1181605
