期末项目/code/Transformer法/transformer_preprossing/models/best_model_20240613-172139.pth (torch, 397088 bytes, 129 tensors)

embedding.weight f4 [32, 15]
-0.38222948 -0.19404429 0.052948616 -0.105853215 0.5500002 -0.28931433 -0.26794225 0.27773273
0.13548084 -0.097455345 0.18538144 0.35330757 -0.07610921 -0.12200995 -0.09207465 0.34948704
0.23825769 -0.28158122 0.3329826 0.11542015 -0.22684465 -0.25251952 -0.11953059 0.27323774
0.30014628 0.11679869 -0.16505748 0.031070674 0.3133668 0.22391787 0.34221998 -0.00083625485
-0.06792711 0.32833922 -0.41164953 -0.049329896 0.22187126 -0.0039848704 -0.020238046 0.098280184
0.023063319 -0.15425141 -0.20944054 -0.1649519 -0.18740466 0.36413845 -0.009937375 -0.21144788
0.3902906 0.16062106 -0.29532203 -0.3564272 -0.31029812 0.108645305 -0.21369311 0.25072452
0.01834245 0.2513617 0.040767826 0.17716524 0.63248175 0.26503223 0.23420222 0.098929524
0.45754412 0.3171665 0.13556206 0.27618757 -0.22051461 0.094033085 0.24136627 -0.15661518
0.10655654 -0.035866752 -0.29484102 0.33048567 0.053873684 -0.28303832 -0.59946483 -0.59828633
-0.55699205 -0.053237 -0.040326197 -0.3471609 -0.19075601 -0.16833061 0.21674299 -0.1091934
-0.27468416 0.3413417 0.3823069 -0.10242358 -0.20909163 0.1951027 -0.020185223 -0.17780404
0.03282471 0.064835206 -0.16560082 -0.10595496 -0.09080294 -0.2662275 -0.21265773 0.25754327
-0.22909865 -0.3947009 0.16992581 -0.10194019 0.2116649 0.45964396 0.15598638 -0.07256557
-0.2819411 0.0014542217 0.06775852 -0.24168585 0.24599205 0.062370595 -0.2559036 -0.08584673
-0.582743 0.08109634 -0.18834187 -0.22109781 -0.04889107 0.13320199 -0.3169144 -0.3090539
0.1613503 0.113903955 0.1261208 0.13276722 0.0016600717 -0.09562807 0.04797002 -0.7407882
0.23410721 0.26291573 0.29741248 -0.2275954 -0.6331051 -0.21730743 0.05660132 0.2455531
0.008531744 0.20689781 -0.28328365 -0.09803213 0.14036807 -0.12537475 0.46778604 0.047262456
0.14321648 -0.18967335 -0.6909974 -0.05621709 0.15683497 0.23604907 0.23202647 0.2239308
0.15860543 -0.13259792 -0.11103179 -0.0083680125 -0.26277557 0.5063796 0.08829809 -0.08717076
-0.2191739 -0.4021804 -0.36960736 0.2785105 -0.11040484 0.14062715 -0.10450622 0.10781374
0.25074044 0.22214676 -0.23352809 -0.1892198 -0.3517473 -0.06446558 0.02969142 -0.1445964
0.010991544 -0.60927165 0.32161108 0.012008729 -0.16920674 -0.040431105 0.22526379 0.091587014
-0.2700009 -0.020018548 -0.25695345 0.23367454 -0.28626934 0.31624407 0.014155117 -0.6032371
-0.51239806 -0.108462684 0.039860237 0.23312561 0.12061845 -0.1664092 0.17920625 -0.12025834
-0.2588945 0.18204702 0.40755662 0.2702089 -0.20635308 0.068000816 -0.5015274 0.18011498
-0.34910557 -0.33254537 0.16184607 0.25335345 -0.1307046 -0.007556847 -0.2971206 -0.14952289
-0.18842259 0.059030708 0.26787084 0.11217839 0.1822244 -0.10440723 0.215585 -0.22891937
-0.110327795 0.29581454 0.19499506 0.18182915 -0.23357353 0.2792435 -0.24048452 0.046736665
0.52856964 -0.101428255 -0.18573196 0.10295077 0.47043848 -0.6357007 0.12400974 0.07475598
-0.1063854 0.11700327 -0.23582704 0.105286956 0.079820275 -0.10602857 -0.17004596 0.16253477
00000000: 95b3 c3be 8cb3 46be a6e0 583d 92c9 d8bd
00000010: d0cc 0c3f 0221 94be ba2f 89be fc32 8e3e
00000020: 7dbb 0a3e ab96 c7bd a2d4 3d3e bbe4 b43e
00000030: 25df 9bbd 5ae0 f9bd a291 bcbd f7ef b23e
00000040: d3f9 733e 6a2b 90be b27c aa3e 6661 ec3d
00000050: f749 68be 3d4a 81be 74cc f4bd d1e5 8b3e
00000060: c6ac 993e 2734 ef3d d404 29be ed87 fe3c
00000070: 9d71 a03e ba4a 653e 7537 af3e 1d38 5bba
00000080: 5e1d 8bbd 141c a83e bac3 d2be 250e 4abd
00000090: 3832 633e 8493 82bb 42ca a5bc 1f47 c93d
000000a0: 49ef bc3c 15f4 1dbe 9577 56be 27e9 28be
000000b0: 02e7 3fbe 5b70 ba3e 5fd0 22bc cb85 58be
000000c0: 2bd4 c73e d979 243e 7334 97be a07d b6be
000000d0: 65df 9ebe 6e81 de3d 5ed2 5abe f75e 803e
000000e0: e842 963c 7bb2 803e 2afc 263d ce6a 353e
000000f0: 53ea 213f 4eb2 873e b5d2 6f3e 909b ca3d
00000100: 3943 ea3e a663 a23e c8d0 0a3e 7568 8d3e
00000110: 95ce 61be 6b94 c03d b828 773e bb5f 20be
00000120: 513a da3d 04e9 12bd 67f5 96be 6b35 a93e
00000130: a7aa 5c3d 66ea 90be 8776 19bf 4b29 19bf
00000140: 0897 0ebf 0a0f 5abd 152d 25bd 13bf b1be
00000150: 8b55 43be dc5e 2cbe e0f1 5d3e caa0 dfbd
00000160: 67a3 8cbe 57c4 ae3e bbbd c33e 74c3 d1bd
00000170: 1e1c 56be 01c9 473e 7b5b a5bc 4312 36be
00000180: 3473 063d 52c8 843d 4393 29be eafe d8bd
00000190: e4f6 b9bd f94e 88be f3c2 59be b6dc 833e
000001a0: d698 6abe 3d16 cabe 0801 2e3e 05c6 d0bd
000001b0: afbe 583e 7456 eb3e e5ba 1f3e 429d 94bd
000001c0: 955a 90be 959b be3a fbc4 8a3d 7f7c 77be
000001d0: 57e5 7b3e 4f78 7f3d cc05 83be 69d0 afbd
000001e0: a52e 15bf d715 a63d b1dc 40be 7767 62be
000001f0: 0142 48bd 1a66 083e 9b42 a2be 503c 9ebe
00000200: 0339 253e 7a46 e93d d025 013e 21f4 073e
00000210: c396 d93a a6d8 c3bd 367c 443d 4ca4 3dbf
00000220: cdb9 6f3e e49c 863e 7346 983e c50e 69be
00000230: 2d13 22bf d785 5ebe c9d6 673d 4672 7b3e
00000240: bac8 0b3c 05dd 533e 8e0a 91be 12c5 c8bd
00000250: a6bc 0f3e 3d62 00be a781 ef3e 4796 413d
00000260: 57a7 123e bb39 42be 35e5 30bf e443 66bd
00000270: 5999 203e d9b6 713e 5998 6d3e 1e4e 653e
00000280: 7669 223e c0c7 07be a364 e3bd fd19 09bc
00000290: 858a 86be 18a2 013f a1d5 b43d 9586 b2bd
000002a0: 1f6f 60be 97ea cdbe 2d3d bdbe ee98 8e3e
000002b0: ef1b e2bd 9000 103e 5b07 d6bd 73cd dc3d
000002c0: 0d61 803e 717a 633e fd21 6fbe d6c2 41be
000002d0: 3918 b4be 8806 84bd 6c3b f33c 1411 14be
000002e0: e115 343c 3af9 1bbf 35aa a43e 43c0 443c
000002f0: 8844 2dbe 169b 25bd 8dab 663e f991 bb3d
00000300: 8f3d 8abe f0fd a3bc 678f 83be 6148 6f3e
00000310: e591 92be beea a13e ddea 673c bf6d 1abf
00000320: 852c 03bf af21 debd 7d44 233d 7bb8 6e3e
00000330: ce06 f73d 2c67 2abe d881 373e 014a f6bd
00000340: d28d 84be 896a 3a3e 43ab d03e d258 8a3e
00000350: 394e 53be 0344 8b3d 1a64 00bf 1070 383e
00000360: f7bd b2be 6343 aabe faba 253e 8bb7 813e
00000370: 6dd7 05be 6d9f f7bb 3120 98be 871c 19be
00000380: daf1 40be 2fca 713d 5e26 893e c9bd e53d
00000390: 0899 3a3e 75d3 d5bd 50c2 5c3e d769 6abe
000003a0: 8af3 e1bd 0175 973e c9ac 473e 6c31 3a3e
000003b0: e62d 6fbe 01f9 8e3e 9341 76be f26e 3f3d
000003c0: 5750 073f 9eb9 cfbd 8530 3ebe dad7 d23d
000003d0: 50dd f03e 48bd 22bf d2f8 fd3d aa19 993d
000003e0: 97e0 d9bd 699f ef3d a57c 71be b0a0 d73d
000003f0: d078 a33d 8225 d9bd 8720 2ebe 846f 263e

embedding.bias f4 [32]
-0.0007429019 0.11060661 0.3066572 0.2863253 -0.26361972 0.087663755 -0.0996358 0.26354125
-0.20339264 0.23613288 -0.111357935 -0.06480621 -0.01062609 0.4001775 0.21726611 -0.30505994
-0.1601519 0.41610265 0.24121942 0.3791747 0.45240662 -0.2836052 0.18685733 0.3311118
0.13747714 0.26864 -0.5830291 -0.12675488 0.2827182 0.19001232 -0.12657914 -0.0054481537
00000000: 4dbf 42ba b885 e23d 2c02 9d3e 3b99 923e
00000010: 2af9 86be 0e89 b33d db0d ccbd e1ee 863e
00000020: 2946 50be d1cc 713e a10f e4bd 1eb9 84bd
00000030: 0d19 2ebc 11e4 cc3e 027b 5e3e d130 9cbe
00000040: dcfe 23be 680b d53e 3902 773e 3023 c23e
00000050: d7a1 e73e b334 91be 8757 3f3e 7c87 a93e
00000060: cfc6 0c3e 2f8b 893e 6541 15bf 08cc 01be
00000070: 71c0 903e 9792 423e f69d 01be 6d86 b2bb

transformer.encoder.layers.0.self_attn.in_proj_weight f4 [96, 32]
0.20986111 0.09958157 -0.22119598 0.40315205 -0.058338862 -0.044798523 0.20556879 0.15053734
-0.14937556 0.118659645 -0.3089188 -0.14071701 0.16025452 0.0036132727 -0.25365663 -0.1373187
-0.024407407 0.036517862 -0.023593469 0.018081801 0.14055511 -0.21573655 0.3133561 -0.19949645
-0.30740753 0.0593398 -0.135124 -0.15483482 0.20991597 0.08094461 -0.12923165 -0.07948892
-0.14965217 0.12533659 -0.113856345 0.11351503 0.23768464 -0.36667132 -0.0023249502 0.16792186
-0.10967532 -0.27314657 0.075814925 0.11269804 0.12807158 -0.370389 0.07914704 0.10603488
0.31588802 -0.11031271 0.2910248 -0.40254316 -0.115649 0.24789135 -0.002380949 -0.063361235
-0.22067888 0.2695208 0.4220362 0.076320045 -0.21336667 0.0040638307 -0.25693014 0.2225772
0.49751455 0.12593825 -0.36811623 0.5064848 0.18925881 -0.2109 -0.0072917254 0.21944438
-0.09773471 0.16213943 -0.38309982 -0.16383235 0.21094319 -0.08783535 -0.057892416 -0.44707945
0.33954778 -0.030597059 0.40810686 -0.18086107 0.01785525 0.06851678 0.2199468 0.042130094
-0.42424217 0.279014 -0.111842275 -0.27386308 0.022563694 0.4253382 0.1280127 0.05033853
0.30274934 -0.2497915 0.129963 0.1604373 -0.14129578 0.42116615 -0.14072524 0.0045655603
-0.07459895 0.14328688 0.15572463 -0.21700825 0.39204845 0.06779686 0.23465511 -0.08851205
-0.015489923 0.04407364 -0.12958625 0.19422723 -0.0644735 -0.2936813 -0.21655655 -0.23954932
0.044476192 -0.0039069364 -0.21114126 -0.16196573 0.19438039 -0.18267904 0.09645716 -0.3401131
0.3830665 0.06833109 0.18473272 0.4025639 -0.22134437 0.42422646 -0.13892658 -0.04194577
-0.17016815 0.3030226 0.01789871 -0.11764319 -0.04090489 0.09977894 -0.020783668 -0.12467802
-0.084481806 0.21551074 -0.21098553 -0.027555168 0.332207 -0.13556238 0.10871621 0.02332142
0.010514483 0.20137274 -0.18761343 -0.3047696 0.27537695 -0.048192997 0.22944446 -0.16594094
0.5252833 0.17733218 -0.0977348 0.15448935 0.16329035 0.09500063 0.08852934 0.09229152
0.13738933 -0.07419564 -0.31534535 -0.28254962 -0.12914637 0.0695572 -0.028026173 -0.0061229123
0.08332682 0.050303083 -0.0147466995 -0.14510624 -0.14775552 -0.06529842 0.40169168 -0.15647371
-0.36591452 0.07974989 0.25127527 0.058039133 0.36133984 -0.11328142 0.048960015 -0.3103895
-0.11041313 -0.15249231 0.09737101 -0.114933856 0.12787202 -0.30711132 0.18906125 0.06877939
0.20257972 -0.5232312 -0.0219847 -0.13074413 -0.6659866 -0.15778655 0.17233354 0.16649455
-0.11878286 -0.30500013 -0.37193775 0.090677656 0.25296554 -0.019675577 0.041272916 -0.15121582
-0.17459899 -0.10068926 0.19736286 0.22117625 -0.21001951 -0.3021348 -0.37833107 0.15095803
-0.05055803 -0.2262048 -0.11803225 -0.14703502 0.32477263 -0.47850767 0.036255512 -0.068753354
0.107746944 -0.5200922 -0.25814268 -0.22153872 -0.32073107 -0.39460012 0.19021998 0.30731466
-0.028130833 -0.08209019 -0.12309745 -0.22521345 -0.19889209 0.1997014 0.049756553 -0.062400345
0.053676385 0.06848528 0.2543057 -0.015151333 -0.040041137 -0.037212882 -0.16846947 0.08686705
00000000: d5e5 563e 6cf1 cb3d 3381 62be f269 ce3e
00000010: bbf4 6ebd a87e 37bd a080 523e 7626 1a3e
00000020: e8f5 18be d403 f33d 9b2a 9ebe 1f18 10be
00000030: c319 243e a8cc 6c3b 48df 81be 469d 0cbe
00000040: 0bf2 c7bc c193 153d 1747 c1bc 4920 943c
00000050: aeed 0f3e 0bea 5cbe 3670 a03e cc48 4cbe
00000060: 8564 9dbe 4a0e 733d f25d 0abe 058d 1ebe
00000070: 36f4 563e 4ac6 a53d 4d55 04be 16cb a2bd
00000080: 6b3e 19be 3c58 003e 842d e9bd 917a e83d
00000090: 9a63 733e 58bc bbbe 315e 18bb b5f3 2b3e
000000a0: 749d e0bd ded9 8bbe db44 9b3d 3bce e63d
000000b0: 3225 033e a1a3 bdbe d817 a23d d128 d93d
000000c0: 13bc a13e a1eb e1bd 3401 953e 231a cebe
000000d0: 62d9 ecbd 3bd7 7d3e b209 1cbb 89c3 81bd
000000e0: a5f9 61be a1fe 893e 2115 d83e af4d 9c3d
000000f0: cb7c 5abe e229 853b 598c 83be 47eb 633e
00000100: 3aba fe3e f5f5 003e bb79 bcbe fda8 013f
00000110: 10cd 413e 2bf6 57be 6def eebb 07b6 603e
00000120: 2329 c8bd e107 263e a925 c4be abc3 27be
00000130: 7e01 583e 05e3 b3bd 9920 6dbd 99e7 e4be
00000140: 35d9 ad3e afa6 fabc 62f3 d03e a533 39be
00000150: 2c45 923c 8752 8c3d bc39 613e 9b90 2c3d
00000160: 4536 d9be ecda 8e3e 900d e5bd c837 8cbe
00000170: 7fd7 b83c eec5 d93e c315 033e c62f 4e3d
00000180: f601 9b3e 58c9 7fbe 0515 053e ad49 243e
00000190: d7af 10be 17a3 d73e 471a 10be b29a 953b
000001a0: 56c7 98bd ccb9 123e 4776 1f3e 6937 5ebe
000001b0: 93ba c83e 15d9 8a3d 6e49 703e ce45 b5bd
000001c0: 72c9 7dbc 9086 343d 42b2 04be 81e3 463e
000001d0: af0a 84bd 655d 96be 00c1 5dbe 6b4c 75be
000001e0: ab2c 363d c205 80bb 6a35 58be 58da 25be
000001f0: a70b 473e 3710 3bbe 558b c53d 4e23 aebe
00000200: 4b21 c43e 2cf1 8b3d 932a 3d3e db1c ce3e
00000210: 19a8 62be 3634 d93e c542 0ebe 54cf 2bbd
00000220: 8f40 2ebe c725 9b3e 51a0 923c eaee f0bd
00000230: e38b 27bd e758 cc3d 8342 aabc 3157 ffbd
00000240: cc04 adbd d9ae 5c3e 970c 58be 60bb e1bc
00000250: 0917 aa3e ddd0 0abe 9ba6 de3d 900c bf3c
00000260: f044 2c3c a834 4e3e bc1d 40be c30a 9cbe
00000270: 35fe 8c3e 0566 45bd 7df3 6a3e 6cec 29be
00000280: f778 063f 9196 353e 2f29 c8bd 7532 1e3e
00000290: 9635 273e b18f c23d df4e b53d 5603 bd3d
000002a0: caaf 0c3e e2f3 97bd f274 a1be 58aa 90be
000002b0: f23e 04be 0174 8e3d 2597 e5bc b6a2 c8bb
000002c0: 40a7 aa3d 9b0a 4e3d 249c 71bc bb96 14be
000002d0: 394d 17be 2ebb 85bd 88aa cd3e a53a 20be
000002e0: 2659 bbbe e953 a33d 27a7 803e 71ba 6d3d
000002f0: 8901 b93e 1700 e8bd 4c8a 483d 5feb 9ebe
00000300: 4720 e2bd f226 1cbe 746a c73d 7162 ebbd
00000310: e2f0 023e b23d 9dbe 4699 413e 35dc 8c3d
00000320: 0f71 4f3e 7bf2 05bf 4219 b4bc cae1 05be
00000330: 197e 2abf cc92 21be 3478 303e 8c7d 2a3e
00000340: 6e44 f3bd fa28 9cbe a06e bebe 35b5 b93d
00000350: b384 813e ad2e a1bc ca0d 293d 52d8 1abe
00000360: 14ca 32be 2c36 cebd 7d19 4a3e 077c 623e
00000370: 5b0f 57be 6ab1 9abe 9cb4 c1be be94 1a3e
00000380: f015 4fbd 3ba2 67be e4ba f1bd 5990 16be
00000390: 9948 a63e f5fe f4be a980 143d 8fce 8cbd
000003a0: 6eaa dc3d c324 05bf 472b 84be 0cdb 62be
000003b0: dd36 a4be 0709 cabe 07c9 423e 5958 9d3e
000003c0: a272 e6bc e71e a8bd 841a fcbd 5b9e 66be
000003d0: 5eaa 4bbe 867e 4c3e 87cd 4b3d 8197 7fbd
000003e0: c5db 5b3d 0342 8c3d 5b34 823e 4c3d 78bc
000003f0: 2d02 24bd 896c 18bd 4383 2cbe 5ae7 b13d

transformer.encoder.layers.0.self_attn.in_proj_bias f4 [96]
0.090134226 -0.27509066 0.16166495 0.2352975 0.28160232 0.032646656 -0.21694528 -0.30397382
0.013434836 0.028429817 -0.19626385 0.070098855 0.12243386 -0.20209499 0.02729993 0.081254594
-0.08818432 -0.009828188 0.1483203 0.039591044 -0.045922056 0.15355025 0.08609066 -0.1513687
0.053931072 0.50297856 0.18862973 0.10508692 -0.08065042 -0.33743852 0.08283219 0.2561813
0.010697657 -0.0030982348 0.012636993 0.0049071233 0.008371379 0.0101207355 -0.0076729627 -0.0052681207
-0.0011524988 0.0015789894 -0.0009791383 0.0020161818 -0.0016780156 0.002883722 -0.0021672123 0.0018971838
-0.007957937 0.0020950476 0.0009636946 -0.002892601 0.005034465 0.003451507 0.0064381496 -0.0025207535
0.00042471374 0.011874213 0.013887809 -0.0041930317 0.01273222 -0.0021496464 0.0016587807 0.019864421
0.083174944 0.12008997 0.10476351 0.06857381 0.250167 0.11870697 -0.2042583 0.3092953
-0.24632284 -0.22133471 0.1573982 0.1329732 0.03260746 0.014595248 -0.0047177314 -0.16182415
-0.08442949 0.013137197 0.13362488 -0.14883804 -0.055206943 -0.088384494 0.06824115 0.14533243
-0.15939523 0.2166768 0.070863545 -0.00447572 0.095133625 0.25804856 -0.20442887 0.10467632
00000000: 4b98 b83d afd8 8cbe 7f8b 253e d4f1 703e
00000010: 2e2e 903e 80b8 053d e726 5ebe 75a2 9bbe
00000020: c91d 5c3c a6e5 e83c 64f9 48be fd8f 8f3d
00000030: 9bbe fa3d fdf1 4ebe 1aa4 df3c cf68 a63d
00000040: fb99 b4bd 6906 21bc 47e1 173e 382a 223d
00000050: c418 3cbd 473c 1d3e 4d50 b03d 6600 1bbe
00000060: d4e6 5c3d 34c3 003f 2728 413e d037 d73d
00000070: 0c2c a5bd bec4 acbe eca3 a93d 322a 833e
00000080: 3a45 2f3c c10b 4bbb 640b 4f3c efcb a03b
00000090: 1c28 093c 71d1 253c 7a6d fbbb 33a0 acbb
000000a0: 710f 97ba 18f6 ce3a 6e56 80ba eb21 043b
000000b0: dcf0 dbba d4fc 3c3b ca07 0ebb edaa f83a
000000c0: 0262 02bc 114d 093b 73a0 7c3a cb91 3dbb
000000d0: 27f8 a43b ae32 623b 1df7 d23b 3a33 25bb
000000e0: 1dac de39 0f8c 423c b189 633c b365 89bb
000000f0: cd9a 503c 15e1 0cbb 726b d93a b6ba a23c
00000100: a057 aa3d bbf1 f53d 408e d63d 6d70 8c3d
00000110: e415 803e a41c f33d 1629 51be f45b 9e3e
00000120: 0e3c 7cbe 91a5 62be fe2c 213e 202a 083e
00000130: 668f 053d e820 6f3c 3397 9abb 3bb5 25be
00000140: 5ee9 acbd 663d 573c f6d4 083e 0069 18be
00000150: ad20 62bd ee02 b5bd 04c2 8b3d 06d2 143e
00000160: 8138 23be 86e0 5d3e e820 913d 10a9 92bb
00000170: 6bd5 c23d f11e 843e cd55 51be 8a60 d63d

transformer.encoder.layers.0.self_attn.out_proj.weight f4 [32, 32]
0.13526593 0.05528666 -0.10795554 0.045399897 0.22796924 0.25737333 0.16389948 0.35644537
-0.23703223 -0.15804228 -0.07001879 0.16123825 -0.2405522 -0.108329885 -0.18510307 0.08135699
-0.15681438 -0.04672518 -0.27243364 0.021630239 -0.06531501 -0.010089735 -0.13802724 0.03593111
-0.30756477 0.036066215 0.17643856 -0.006338295 0.045029275 0.21104285 -0.119545385 0.23534463
-0.27970243 -0.16385226 -0.14721963 -0.028061004 0.07300023 0.033732723 -0.031794272 -0.13576156
-0.023695018 -0.21651699 0.011802213 -0.16935335 0.12617593 -0.024863977 -0.1743363 0.08656739
0.19528306 -0.00877957 0.22814363 0.048227187 -0.16836947 -0.3049703 -0.18498869 0.16251986
0.062297374 0.16195536 -0.11227113 -0.21500897 0.18540534 -0.17837575 -0.09795373 0.23760703
-0.11558596 0.025890278 0.1736465 0.083060354 0.12007423 -0.04729498 0.10788942 0.28932416
-0.19146225 -0.21777545 0.15544683 -0.03354046 0.15538909 0.00018196681 0.07762209 -0.19158275
0.27890775 -0.012479975 -0.15646125 0.051831953 -0.17961276 -0.22069515 -0.050024718 -0.20045519
0.09874677 0.17399503 -0.18202421 0.18446927 -0.25904766 0.14118525 0.21523315 -0.2743386
-0.22519106 0.19778967 0.191255 -0.31421942 -0.0913975 -0.16654864 -0.20161791 0.23104934
-0.16012733 0.18907785 0.19841088 -0.30089828 -0.12556863 0.2128282 0.24697529 0.18270506
-0.16617401 0.29127553 -0.23240693 -0.012305989 0.30538142 -0.008153854 0.18248723 0.047296338
-0.15598054 -0.08689903 0.19710872 -0.04992908 0.04294958 0.11283061 -0.36313426 0.09397181
0.036296528 -0.2195618 0.11311945 0.06129237 0.11540107 -0.25617823 0.2986336 0.021618914
0.1741887 0.022936784 -0.0077473335 0.11611379 0.2672525 -0.25921932 0.20579715 0.37779114
0.16046236 0.009687177 -0.24132213 -0.2277737 0.28047267 0.30370048 -0.025348226 -0.20980616
0.1335105 -0.17411509 0.32087165 -0.13907179 -0.22199182 -0.23897737 -0.079393215 -0.112330586
0.23319443 0.24144907 -0.2272606 -0.06802007 -0.31265002 -0.20655066 0.060462523 -0.20983194
-0.011886484 -0.19044024 0.15435505 -0.2505156 0.14063512 0.061965816 0.36492562 0.08662517
0.056328773 0.1920452 0.2308574 0.118119076 -0.09438115 0.05002583 -0.20175253 -0.054121356
0.20656738 0.27716354 0.40705508 -0.08840695 -0.40560153 0.2024623 -0.44107965 -0.052124333
-0.25533587 0.015216675 0.087955974 -0.06809957 0.12066078 -0.13416861 -0.18379325 -0.13747627
-0.09742161 0.05349937 0.094098926 -0.09062071 0.006285472 -0.202797 0.2868664 -0.25360313
-0.027725276 0.16951376 0.107735135 0.10707733 -0.28377783 0.01131178 0.32329366 -0.12647721
-0.28411135 0.090728566 -0.50878465 -0.12433708 0.26324546 -0.013223128 0.2770974 0.4223225
-0.02177179 -0.2436422 0.25469694 -0.21548215 0.0692996 0.14870842 0.112692714 0.14076692
-0.16346122 0.1452038 0.15478043 0.35246956 0.0618333 -0.039304968 0.08089696 0.06522883
0.064149044 0.0066267364 0.25915483 -0.047870643 -0.22452188 -0.3613599 -0.12726519 0.064246066
-0.33337754 -0.0800517 -0.14549832 -0.3626009 0.30326077 0.29248527 0.010950997 0.20356447
00000000: 2783 0a3e 4474 623d cb17 ddbd 3ef5 393d
00000010: c570 693e 70c6 833e 44d5 273e 0280 b63e
00000020: 94b8 72be d6d5 21be 0366 8fbd a41b 253e
00000030: 5153 76be 0fdc ddbd a98b 3dbe 7e9e a63d
00000040: f393 20be e762 3fbd 6c7c 8bbe e631 b13c
00000050: e0c3 85bd 6a4f 25bc 0357 0dbe 802c 133d
00000060: 2179 9dbe 2bba 133d 4fac 343e 79b1 cfbb
00000070: 9e70 383d 9e1b 583e 36d4 f4bd 2ffe 703e
00000080: 2835 8fbe e3c8 27be bec0 16be 31e0 e5bc
00000090: 2581 953d 532b 0a3d b63a 02bd 1405 0bbe
000000a0: 0e1c c2bc a1b6 5dbe 125e 413c f76a 2dbe
000000b0: 4334 013e 8aaf cbbc 3785 32be 3e4a b13d
000000c0: 48f8 473e 30d8 0fbc 7c9e 693e df89 453d
000000d0: 0c69 2cbe 1125 9cbe ad6d 3dbe 9b6b 263e
000000e0: 882b 7f3d a0d7 253e 68ee e5bd 502b 5cbe
000000f0: e6da 3d3e 22a8 36be f79b c8bd 424f 733e
00000100: 55b8 ecbd d917 d43c 63d0 313e 8c1b aa3d
00000110: 7ae9 f53d 62b8 41bd 21f5 dc3d 4c22 943e
00000120: ae0e 44be 8700 5fbe 742d 1f3e b961 09bd
00000130: 511e 1f3e 58ce 3e39 55f8 9e3d 452e 44be
00000140: ffcc 8e3e cf78 4cbc 6137 20be be4d 543d
00000150: 68ec 37be e9fd 61be b8e6 4cbd 2044 4dbe
00000160: bf3b ca3d c12b 323e 8e64 3abe 83e5 3c3e
00000170: e5a1 84be de92 103e 1466 5c3e 1c76 8cbe
00000180: 7c98 66be 6089 4a3e 5ad8 433e 5ee1 a0be
00000190: 9d2e bbbd ba8b 2abe ed74 4ebe 3398 6c3e
000001a0: 6bf8 23be a09d 413e 392c 4b3e 570f 9abe
000001b0: 1095 00be a3ef 593e 17e7 7c3e 0917 3b3e
000001c0: 8529 2abe 1122 953e 15fc 6dbe 0f9f 49bc
000001d0: f45a 9c3e be97 05bc efdd 3a3e ceb9 413d
000001e0: 5db9 1fbe 1ef8 b1bd ded6 493e 6f82 4cbd
000001f0: e6eb 2f3d bc13 e73d bcec b9be 4b74 c03d
00000200: abab 143d cfd4 60be 2cab e73d b50d 7b3d
00000210: 6557 ec3d cb29 83be 81e6 983e 261a b13c
00000220: 865e 323e ece5 bb3c 58dd fdbb 11cd ed3d
00000230: 52d5 883e 65b8 84be 7dbc 523e d76d c13e
00000240: 3f50 243e f7b6 1e3c 261d 77be 823d 69be
00000250: 1d9a 8f3e a17e 9b3e 15a7 cfbc 6dd7 56be
00000260: fab6 083e 3a4b 32be 4a49 a43e d668 0ebe
00000270: d351 63be 7cb6 74be e998 a2bd 940d e6bd
00000280: 85ca 6e3e 6d3e 773e 01b7 68be 1b4e 8bbd
00000290: aa13 a0be 0482 53be 8da7 773d 2fde 56be
000002a0: 87bf 42bc c402 43be 400f 1e3e 9543 80be
000002b0: a702 103e decf 7d3d 88d7 ba3e 8a68 b13d
000002c0: 00b9 663d 7fa7 443e e265 6c3e 6ae8 f13d
000002d0: e84a c1bd e2e7 4c3d 3798 4ebe 5bae 5dbd
000002e0: 6686 533e 61e8 8d3e 8669 d03e b40e b5bd
000002f0: 01ab cfbe 4752 4f3e 31d5 e1be 5380 55bd
00000300: 62bb 82be 5c4f 793c 4322 b43d ca77 8bbd
00000310: 001d f73d 7f63 09be 4c34 3cbe 94c6 0cbe
00000320: fb84 c7bd 2822 5b3d f0b6 c03d 5a97 b9bd
00000330: 5cf6 cd3b 04aa 4fbe 27e0 923e 45d8 81be
00000340: 1e20 e3bc 0495 2d3e 3da4 dc3d 5c4b db3d
00000350: 544b 91be 0b55 393c bf86 a53e 3e83 01be
00000360: 0b77 91be e6cf b93d b63f 02bf 70a4 febd
00000370: 1cc8 863e d2a5 58bc b6df 8d3e a83a d83e
00000380: c15a b2bc 577d 79be a367 823e 5aa7 5cbe
00000390: f3ec 8d3d 0547 183e 70cb e63d 3425 103e
000003a0: 6162 27be 4eb0 143e c37e 1e3e e476 b43e
000003b0: ea44 7d3d 3ffe 20bd 4ead a53d b196 853d
000003c0: 9360 833d 1825 d93b f1af 843e 0214 44bd
000003d0: 10e9 65be 2a04 b9be ce51 02be 7193 833d
000003e0: 76b0 aabe 25f2 a3bd 83fd 14be d3a6 b9be
000003f0: ff44 9b3e a1c0 953e cf6b 333c 3473 503e

transformer.encoder.layers.0.self_attn.out_proj.bias f4 [32]
0.19557936 0.05800617 0.1727257 0.2257516 -0.16274224 -0.059368458 -0.09227812 0.274318
-0.07838272 0.038568333 -0.12631717 -0.09571357 -0.11656111 0.054031618 -0.00043350595 -0.24409306
-0.23092712 0.03310493 -0.0012061676 0.02263338 0.17834668 -0.25525975 0.26485392 0.27447954
0.057879772 0.13011174 -0.28734002 0.11194334 0.10611828 0.2308111 -0.21508475 0.26151866
00000000: f545 483e e197 6d3d 02df 303e 6d2b 673e
00000010: e7a5 26be 572c 73bd 50fc bcbd 6973 8c3e
00000020: 1f87 a0bd d4f9 1d3d 4a59 01be 7a05 c4bd
00000030: 97b7 eebd 4250 5d3d 2f48 e3b9 88f3 79be
00000040: 2978 6cbe 0999 073d 4518 9eba a369 b93c
00000050: 83a0 363e 68b1 82be ef9a 873e 9588 8c3e
00000060: 5713 6d3d 033c 053e 3b1e 93be 8d42 e53d
00000070: 8a54 d93d bf59 6c3e 2d3f 5cbe c6e5 853e

transformer.encoder.layers.0.linear1.weight f4 [64, 32]
0.19646363 -0.2292272 0.09937315 -0.07216949 0.1398299 0.2606438 -0.15922418 -0.41629615
0.34917057 0.13192546 0.23925574 -0.024666226 0.24400657 0.018650878 0.047314323 0.087880194
0.18728828 -0.06377872 -0.09351104 0.12722124 0.15440056 0.1179785 0.038130697 -0.078961685
-0.048422273 0.1397142 -0.009014173 0.029977009 0.06822632 0.098045245 0.10583769 0.0807189
-0.19186994 0.053484313 -0.038535558 0.062437084 0.14995983 0.081969224 -0.07215347 -0.06392716
-0.23438118 -0.26364666 -0.04088782 0.1657197 -0.006966701 -0.14095435 -0.13669217 -0.1342186
-0.047133986 -0.15501209 -0.114932396 0.22680062 -0.2068404 -0.22943479 0.15423138 0.09400593
-0.18536721 -0.03443825 0.0791815 -0.15376909 0.20391676 0.0042903 0.11849733 0.10986297
0.057515845 0.0012681088 -0.009980958 -0.26541016 0.026191648 0.28455275 0.02060778 0.0355693
0.058630053 -0.30082658 -0.050378576 -0.046648428 -0.12468626 0.17063789 0.06633554 -0.006133948
-0.19135706 0.0011936874 0.1958579 -0.3199888 0.20477588 0.19947875 0.24397542 0.032852713
0.30417183 0.12874869 0.05320416 0.21012208 0.15372059 0.08177372 0.19043258 -0.064697914
0.110770814 0.049833305 0.1255878 0.017092679 -0.16273212 0.22274023 0.07368432 -0.07983311
0.06431595 -0.024783146 0.38572317 0.26326877 0.1434508 -0.139235 0.047649454 -0.16197035
-0.014258572 -0.026837751 -0.1260233 0.10839707 0.013335064 -0.089524195 -0.075661 -0.14998436
0.19224721 -0.28591734 0.26102987 0.1769013 0.29941863 0.047527965 0.17971571 0.15892802
-0.03134127 0.016551055 0.16299403 -0.27254102 -0.040995378 0.08923246 -0.011364295 -0.09071716
-0.22526902 -0.076875634 -0.13949385 0.2690017 -0.091813296 0.24297589 -0.12048829 0.15887311
-0.071892254 -0.06538981 0.089924216 0.09430585 0.1632696 0.020941673 -0.31283706 0.16294254
0.21230257 -0.18092237 -0.073114425 -0.18714535 -0.29210767 0.05471439 -0.18637292 -0.16623846
-0.062652744 0.22299545 0.26707104 0.016300252 0.1300932 0.10829678 0.12967433 -0.13562626
-0.17937341 0.23666398 0.062239435 -0.093275785 0.05677712 0.07365415 -0.19888389 -0.05903923
0.31619337 -0.13953422 0.36268947 -0.01359664 -0.12346823 -0.05799557 -0.06394908 -0.032652143
-0.098263785 0.20598681 -0.27827236 0.0828401 -0.23218887 -0.16613173 -0.07669134 0.17447671
-0.16574427 0.084429055 0.09386372 -0.20003839 0.14078055 0.14637226 -0.14032446 -0.2131401
-0.087589025 0.051571846 -0.098438665 0.26337093 0.16965954 0.30197018 0.0825185 0.07244917
0.22005394 0.01847315 -0.21597244 -0.21564852 -0.0907498 -0.052432068 -0.25786012 0.06964666
0.17417432 -0.23993394 0.36221862 0.19529723 -0.27485323 0.08004591 0.17078371 0.054454345
-0.024085416 -0.013589729 -0.024345256 -0.11127018 -0.15580477 0.23295161 0.12246365 -0.077370666
-0.024901804 -0.16752435 0.03447474 0.29109406 0.12274617 0.12883319 -0.30283552 -0.01850613
0.26972842 0.1583828 -0.11317853 -0.0478543 -0.041891187 -0.1194024 -0.27261823 -0.051748056
-0.26861468 0.2172573 0.18318412 -0.07177568 -0.08066822 0.16450731 0.2750538 -0.022636838
00000000: c32d 493e 89ba 6abe 2684 cb3d 99cd 93bd
00000010: 922f 0f3e 1b73 853e aa0b 23be c524 d5be
00000020: 7cc6 b23e 7817 073e 75ff 743e d310 cabc
00000030: dcdc 793e bac9 983c aacc 413d 88fa b33d
00000040: 80c8 3f3e 6b9e 82bd b782 bfbd 4946 023e
00000050: 2e1b 1e3e b69e f13d ef2e 1c3d aab6 a1bd
00000060: 6f56 46bd 3d11 0f3e 2fb0 13bc 5892 f53c
00000070: 3eba 8b3d f2cb c83d 6ec1 d83d f34f a53d
00000080: 8e79 44be 5e12 5b3d 76d7 1dbd 07be 7f3d
00000090: 128f 193e 7bdf a73d 33c5 93bd 3eec 82bd
000000a0: 9f01 70be b2fc 86be fd79 27bd 6db2 293e
000000b0: ec48 e4bb 5656 10be 08f9 0bbe 9a70 09be
000000c0: 910f 41bd 7dbb 1ebe ad61 ebbd 6c3e 683e
000000d0: f8cd 53be f4f0 6abe d5ee 1d3e 2e86 c03d
000000e0: e7d0 3dbe 1f0f 0dbd e929 a23d a575 1dbe
000000f0: 8ecf 503e a595 8c3b baae f23d d6ff e03d
00000100: bc95 6b3d ac36 a63a 2c87 23bc d7e3 87be
00000110: de8f d63c e6b0 913e a6d1 a83c 1db1 113d
00000120: 1126 703d f105 9abe c459 4ebd 6c12 3fbd
00000130: 835b ffbd b3bb 2e3e edda 873d 49ff c8bb
00000140: 1bf3 43be 8175 9c3a f98e 483e 92d5 a3be
00000150: c5b0 513e 2844 4c3e b1d4 793e 9190 063d
00000160: 69bc 9b3e b2d6 033e 9bec 593d 3e2a 573e
00000170: ee68 1d3e fb78 a73d c200 433e 5780 84bd
00000180: cfdb e23d 021e 4c3d 179a 003e f205 8c3c
00000190: 40a3 26be 0416 643e cee7 963d 8b7f a3bd
000001a0: 15b8 833d 0606 cbbc 827d c53e 2acb 863e
000001b0: c4e4 123e 9f93 0ebe 132c 433d 8edb 25be
000001c0: c99c 69bc d8da dbbc 410c 01be 48ff dd3d
000001d0: 507b 5a3c 7658 b7bd 28f4 9abd 8095 19be
000001e0: 74dc 443e c263 92be b5a5 853e 9d25 353e
000001f0: 664d 993e afac 423d 6507 383e 07be 223e
00000200: b45f 00bd 1496 873c e8e7 263e 7f8a 8bbe
00000210: c5ea 27bd 82bf b63d 4f31 3abc ebc9 b9bd
00000220: ecac 66be f970 9dbd 7ad7 0ebe 97ba 893e
00000230: 9c08 bcbd acce 783e 91c2 f6bd a2af 223e
00000240: 3f3c 93bd 18eb 85bd 302a b83d 6d23 c13d
00000250: 2530 273e df8d ab3c 2e2c a0be 69da 263e
00000260: d865 593e b743 39be 04bd 95bd 08a3 3fbe
00000270: 238f 95be 321c 603d 8bd8 3ebe 6a3a 2abe
00000280: 1550 80bd eb58 643e 89bd 883e 1b88 853c
00000290: 2737 053e b4ca dd3d 59c9 043e 9ce1 0abe
000002a0: aaad 37be 0b58 723e c7ee 7e3d 6007 bfbd
000002b0: 208f 683d fdd7 963d 38a8 4bbe 1fd3 71bd
000002c0: 19e4 a13e 0fe2 0ebe 6fb2 b93e 71c4 5ebc
000002d0: e9dc fcbd c38c 6dbd bcf7 82bd 41be 05bd
000002e0: 863e c9bd 35ee 523e b779 8ebe 12a8 a93d
000002f0: ebc2 6dbe 701e 2abe 5910 9dbd 06aa 323e
00000300: deb8 29be 24e9 ac3d 9f3b c03d ddd6 4cbe
00000310: c728 103e 9ce2 153e 37b1 0fbe 6641 5abe
00000320: e061 b3bd 003d 533d 369a c9bd 8ed8 863e
00000330: 3bbb 2d3e d69b 9a3e 76ff a83d 3b60 943d
00000340: d255 613e 0155 973c e127 5dbe f7d2 5cbe
00000350: 08db b9bd 02c3 56bd 3e06 84be e8a2 8e3d
00000360: c15a 323e 3eb1 75be b874 b93e fffb 473e
00000370: 90b9 8cbe 1cef a33d ede1 2e3e 850b 5f3d
00000380: c74e c5bc 74a7 5ebc b46f c7bc 9fe1 e3bd
00000390: 498b 1fbe de8a 6e3e 39ce fa3d 8374 9ebd
000003a0: defe cbbc 818b 2bbe 6335 0d3d 480a 953e
000003b0: 5862 fb3d d9ec 033e 420d 9bbe 2b9a 97bc
000003c0: d819 8a3e 1a2f 223e 25ca e7bd df02 44bd
000003d0: 1896 2bbd 3f89 f4bd 9e94 8bbe c5f5 53bd
000003e0: dd87 89be b378 5e3e 9e94 3b3e 21ff 92bd
000003f0: 6135 a5bd 9b74 283e dad3 8c3e e470 b9bc

transformer.encoder.layers.0.linear1.bias f4 [64]
-0.03883462 0.053147208 -0.12825094 -0.1967782 0.0028858087 -0.03280475 0.052416764 -0.1746468
0.110021085 -0.20274161 -0.20875819 0.01240753 -0.22482264 -0.049214818 -0.18787074 -0.09118765
-0.05623637 -0.13329245 -0.1562467 -0.046553127 -0.10521175 -0.033921238 -0.0041756197 -0.0837231
-0.010191118 -0.2614959 -0.20709619 -0.20979065 -0.089104965 0.11917557 0.029757265 -0.04407641
-0.075833604 0.09746883 -0.11806646 -0.012580524 -0.12268671 -0.2510787 -0.13581955 0.063965574
-0.09301212 -0.0059902645 0.01461501 -0.02984219 0.1560853 0.10256832 -0.18669671 -0.066617824
0.029220086 -0.015472054 -0.094477214 -0.15236506 0.052179027 -0.31792805 -0.30036584 -0.17502026
-0.10108092 -0.13500029 -0.35212952 -0.322278 -0.12725085 -0.24568117 0.06371735 -0.15986867
00000000: 0d11 1fbd e3b0 593d 3754 03be 3980 49be
00000010: d61f 3d3b 465e 06bd f6b2 563d 9cd6 32be
00000020: bc52 e13d 7f9b 4fbe b5c4 55be f448 4b3c
00000030: e837 66be 7a95 49bd 3061 40be 97c0 babd
00000040: 1c58 66bd d17d 08be 23ff 1fbe 7eae 3ebd
00000050: 4279 d7bd fff0 0abd a3d3 88bb 0477 abbd
00000060: a6f8 26bc cae2 85be 0611 54be 5cd3 56be
00000070: aa7c b6bd 5212 f43d 82c5 f33c 7789 34bd
00000080: a64e 9bbd bd9d c73d d4cc f1bd 8b1e 4ebc
00000090: 2b43 fbbd 638d 80be 4814 0bbe 6200 833d
000000a0: 237d bebd fb49 c4bb cb73 6f3c 9c77 f4bc
000000b0: d3d4 1f3e 570f d23d 6c2d 3fbe ed6e 88bd
000000c0: f65e ef3c 7f7e 7dbc 457d c1bd 9605 1cbe
000000d0: adb9 553d 77c7 a2be 8dc9 99be 8338 33be
000000e0: 8303 cfbd 843d 0abe 524a b4be 9f01 a5be
000000f0: 0c4e 02be d893 7bbe 3e7e 823d 9db4 23be

transformer.encoder.layers.0.linear2.weight f4 [32, 64]
0.02422816 0.16647309 0.18390904 -0.24741255 0.14185776 0.016889464 -0.102684185 0.31167278
-0.19372123 -0.14678214 -0.21324609 0.15657152 0.12256462 0.09961722 -0.08893219 -0.11570651
0.18001045 -0.24769297 -0.009477271 0.24331582 0.16465686 -0.16908233 0.13516977 0.12237001
-0.11717426 -0.13256681 -0.30796048 0.1094802 -0.051072948 0.082929805 -0.014352205 0.27849218
0.021810852 0.30159646 -0.02591211 0.12235149 0.0032774855 0.03448737 0.10960319 0.15407835
-0.1129347 -0.09384417 0.112703554 0.04863093 -0.06238536 -0.039012168 0.09299428 0.13981175
0.01543631 -0.013334317 0.12188894 -0.2040982 0.11406062 -0.018297056 -0.11435048 -0.31437373
-0.069902785 0.08428252 -0.08801814 -0.13716267 0.18696935 -0.11768319 0.08345695 -0.06347011
0.2595382 0.08369853 -0.20696831 -0.062138595 -0.17128465 -0.070987076 -0.043347143 0.16730411
-0.07855758 0.08703765 0.107926555 0.27325523 0.1931453 -0.012253673 0.016061325 0.11750278
0.13619763 -0.07182512 0.10629784 -0.0782223 0.16829161 -0.1297138 0.104914606 -0.14859036
0.22254322 0.11558822 -0.03552319 0.06235548 -0.056008082 -0.24093461 -0.10054961 0.018336851
-0.007343638 0.057087287 -0.016010474 -0.27302608 -0.050494764 -0.28181678 0.09290532 0.1976561
-0.122524455 -0.24557263 -0.17454773 -0.09735511 -0.086515784 0.05534478 -0.022765014 -0.19234523
-0.02103548 -0.08608453 -0.1423973 0.08409436 -0.025173938 0.17413059 -0.07249921 -0.03619056
0.16727796 0.07699497 -0.15849689 -0.007977818 0.07288352 0.007628024 0.26995653 -0.1661771
-0.054076094 0.17965436 -0.15524192 0.07682971 0.16499713 -0.16225423 -0.07003268 -0.03210614
0.10845239 -0.056977455 0.17229007 0.16921784 -0.07524822 -0.17611635 0.10104783 0.0615776
0.22910556 -0.23106776 -0.23629318 -0.101053074 -0.17771086 -0.20888756 0.1741082 -0.19780906
-0.14653173 0.013679195 0.057083193 0.11203491 -0.050619487 -0.18051605 0.040749162 -0.035847384
-0.14378387 0.088373914 -0.1631869 -0.10222941 0.00772116 -0.04342516 0.09574751 0.12220503
-0.1473988 0.12766178 -0.10075431 0.030200196 -0.1507225 0.15386568 0.049512163 0.13541628
-0.008476332 0.10931395 0.034876384 -0.16572934 -0.117588334 -0.19735458 0.095517516 -0.1280876
-0.24042279 0.09476897 0.09240002 -0.15522309 -0.058809333 0.10046526 -0.21486828 0.121376716
-0.030269237 0.14358908 -0.02335147 -0.07724386 0.24158755 -0.049796388 0.055950686 0.09614707
0.1419169 0.10430042 0.17329611 0.01934059 0.27262253 -0.09722041 0.08805312 0.1122149
0.19943148 -0.20214768 0.055856284 0.066631734 -0.10310248 -0.19550103 0.16233419 -0.07422736
-0.121320434 -0.18362798 0.1455402 -0.098649584 -0.072615385 -0.14109688 -0.2235438 -0.018832648
-0.22005191 0.15778968 -0.093743704 0.0045683305 -0.007346726 0.23882523 0.3198746 0.27600268
-0.19368696 0.02131113 0.039432727 0.18027093 -0.066258445 -0.15463164 0.12773515 -0.020539403
-0.17746285 -0.30342096 0.1357616 -0.060706507 0.27764997 0.1496833 0.08898887 -0.016042499
0.28235337 -0.013862831 -0.22467832 -0.20285353 0.107901864 0.05673919 0.12710032 -0.31301355
00000000: 227a c63c ec77 2a3e a752 3c3e b759 7dbe
00000010: 2943 113e c65b 8a3c 164c d2bd 9393 9f3e
00000020: dc5e 46be 0f4e 16be 2f5d 5abe 4954 203e
00000030: 2903 fb3d 1d04 cc3d 1422 b6bd 89f7 ecbd
00000040: a954 383e 3aa3 7dbe 8e46 1bbc c827 793e
00000050: cf9b 283e eb23 2dbe f269 0a3e 219d fa3d
00000060: 0ff9 efbd 98bf 07be ffac 9dbe 2837 e03d
00000070: de31 51bd 1ad7 a93d 8325 6bbc 8796 8e3e
00000080: acac b23c da6a 9a3e a245 d4bc 6b93 fa3d
00000090: 15cb 563b a142 0d3d a377 e03d b7c6 1d3e
000000a0: 4f4a e7bd 5f31 c0bd 1fd1 e63d 3a31 473d
000000b0: cb87 7fbd 39cb 1fbd c973 be3d d02a 0f3e
000000c0: 94e8 7c3c 2e78 5abc e9a0 f93d 1eff 50be
000000d0: 9d98 e93d b5e3 95bc 9630 eabd 98f5 a0be
000000e0: 3129 8fbd 509c ac3d db42 b4bd 5f74 0cbe
000000f0: e574 3f3e e203 f1bd 7aeb aa3d 9efc 81bd
00000100: 31e2 843e 236a ab3d 80ef 53be 0a85 7ebd
00000110: 3e65 2fbe ac61 91bd c68c 31bd c551 2b3e
00000120: cce2 a0bd cc40 b23d 9908 dd3d 1ce8 8b3e
00000130: e2c7 453e a1c3 48bc 0a93 833c 4ca5 f03d
00000140: 6477 0b3e 0c19 93bd afb2 d93d 0333 a0bd
00000150: a354 2c3e b2d3 04be 78dd d63d 1228 18be
00000160: 5fe2 633e 84b9 ec3d c480 11bd 7668 7f3d
00000170: bb68 65bd 90b7 76be f4ec cdbd 2a37 963c
00000180: e7a2 f0bb 5cd4 693d 6628 83bc 13ca 8bbe
00000190: 99d3 4ebd 4a4a 90be 2545 be3d 5c66 4a3e
000001a0: 1aee fabd 6477 7bbe a4bc 32be 1e62 c7bd
000001b0: 302f b1bd 35b1 623d b27d babc 26f6 44be
000001c0: 9952 acbc 164d b0bd 99d0 11be aa39 ac3d
000001d0: 9339 cebc 4a4f 323e 777a 94bd 8d3c 14bd
000001e0: ea4a 2b3e 8aaf 9d3d 024d 22be 65b5 02bc
000001f0: f443 953d 81f4 f93b be37 8a3e 542a 2abe
00000200: e57e 5dbd 50f7 373e bdf7 1ebe e558 9d3d
00000210: 02f5 283e f925 26be 4b6d 8fbd ba81 03bd
00000220: 491c de3d 3161 69bd cf6c 303e 7147 2d3e
00000230: bd1b 9abd d857 34be 2af2 ce3d cb38 7c3d
00000240: a69a 6a3e 079d 6cbe d7f6 71be eaf4 cebd
00000250: d6f9 35be 9fe6 55be 6c49 323e 758e 4abe
00000260: 6a0c 16be b41e 603c 11d0 693d 8f72 e53d
00000270: 6156 4fbd 33d9 38be 98e8 263d b5d4 12bd
00000280: 143c 13be 62fd b43d 771a 27be a75d d1bd
00000290: c901 fd3b 95de 31bd 4517 c43d a146 fa3d
000002a0: b6ef 16be c5b9 023e 4758 cebd 6766 f73c
000002b0: 0057 1abe f78e 1d3e 44cd 4a3d 91aa 0a3e
000002c0: 50e0 0abc fedf df3d 8ada 0e3d f4b4 29be
000002d0: 27d2 f0bd 5217 4abe b09e c33d 6529 03be
000002e0: 6431 76be 3c16 c23d 393c bd3d cdf2 1ebe
000002f0: 0ee2 70bd bbc0 cd3d 6e06 5cbe 5b94 f83d
00000300: 31f7 f7bc 0409 133e 954b bfbc 0732 9ebd
00000310: ba62 773e 4cf7 4bbd 8c2c 653d c1e8 c43d
00000320: aa52 113e 759b d53d 8974 313e 2870 9e3c
00000330: 2e95 8b3e 7f1b c7bd 3255 b43d edd0 e53d
00000340: c437 4c3e cdff 4ebe 8fc9 643d 3876 883d
00000350: 6527 d3bd 6c31 48be ef3a 263e 8404 98bd
00000360: d976 f8bd f908 3cbe 7d08 153e cb08 cabd
00000370: 60b7 94bd b37b 10be aae8 64be ed46 9abc
00000380: 4a55 61be 9e93 213e b3fc bfbd efb1 953b
00000390: cebc f0bb 9a8e 743e 9bc6 a33e 3950 8d3e
000003a0: e055 46be ae94 ae3c 3684 213d f198 383e
000003b0: 82b2 87bd c257 1ebe 01cd 023e 4042 a8bc
000003c0: d2b8 35be fe59 9bbe 1705 0b3e 63a7 78bd
000003d0: 2328 8e3e 9446 193e cc3f b63d 8f6b 83bc
000003e0: 9f90 903e ed20 63bc 1312 66be d6b8 4fbe
000003f0: a7fb dc3d 5a67 683d 9626 023e 5043 a0be

transformer.encoder.layers.0.linear2.bias f4 [32]
0.08447024 0.0025368046 0.0020203856 0.14303383 0.13092598 -0.16612287 -0.1450965 0.14363366
-0.0410716 -0.07050823 -0.07524867 -0.10140032 0.0886353 0.08109027 -0.012218409 -0.09778971
-0.012811538 -0.025424618 0.0075925454 0.13697834 0.023254944 -0.0942272 0.044974 0.057790406
-0.071374506 0.15117016 -0.13720337 -0.0034688667 -0.06547128 -0.011810792 0.14481986 0.06336006
00000000: bcfe ac3d 8540 263b 7268 043b 7677 123e
00000010: 7611 063e 1d1c 2abe 2d94 14be b414 133e
00000020: b23a 28bd 9e66 90bd fa1b 9abd f9aa cfbd
00000030: 6d86 b53d a812 a63d b92f 48bc f945 c8bd
00000040: 7ce7 51bc 4a47 d0bc e3ca f83b 0d44 0c3e
00000050: 2781 be3c 31fa c0bd a836 383d a2b5 6c3d
00000060: cc2c 92bd 5acc 1a3e 0a7f 0cbe ed55 63bb
00000070: ce15 86bd 0d82 41bc a84b 143e ebc2 813d

transformer.encoder.layers.0.norm1.weight f4 [32]
0.9176416 0.9119163 0.97038865 1.0360429 1.009126 1.1269654 1.0638443 0.97290576
1.1041683 1.0079169 0.95523685 1.0434 0.97419506 0.92631847 0.9510709 1.0705281
1.081097 0.98745507 0.97030985 0.9607165 0.98029345 1.0534931 1.0566723 0.9789043
0.99437326 0.99181557 1.0791439 0.9233013 0.9978978 0.96563756 1.0352585 0.8991538
00000000: 8fea 6a3f 5973 693f 646b 783f 0e9d 843f
00000010: 0a2b 813f 6740 903f 0d2c 883f 5a10 793f
00000020: 6355 8d3f 6c03 813f 678a 743f 228e 853f
00000030: d964 793f 3523 6d3f 6279 733f 1107 893f
00000040: 6361 8a3f dbc9 7c3f 3a66 783f 84f1 753f
00000050: 83f4 7a3f ddd8 863f 0a41 873f 7999 7a3f
00000060: 3f8f 7e3f a0e7 7d3f 6321 8a3f 795d 6c3f
00000070: 3b76 7f3f 0634 773f 5a83 843f f22e 663f

transformer.encoder.layers.0.norm1.bias f4 [32]
0.11963268 -0.1320882 -0.047314554 0.06922259 -0.12772323 0.043761935 -0.08647339 0.049740937
0.107429475 0.040720057 -0.048980445 -0.12351291 0.015467429 -0.1006212 -0.061721023 -0.0905317
-0.0588638 -0.12166282 -0.07730855 0.044418093 -0.019555828 -0.070017144 0.07109367 0.051525075
0.06635389 0.07181183 -0.023765597 0.119490765 -0.035267986 0.03754065 -0.009982681 0.10435198
00000000: fb01 f53d 2142 07be e8cc 41bd 93c4 8d3d
00000010: e1c9 02be b73f 333d f618 b1bd 27bd 4b3d
00000020: fc03 dc3d 13ca 263d b89f 48bd 56f4 fcbd
00000030: 196b 7d3c 7d12 cebd 2fcf 7cbd af68 b9bd
00000040: 2b1b 71bd 5b2a f9bd f253 9ebd bfef 353d
00000050: 8b33 a0bc 2665 8fbd 8f99 913d f50b 533d
00000060: 8ce4 873d 1512 933d 12b0 c2bc 93b7 f43d
00000070: 2a75 10bd 3ac4 193d 668e 23bc 7eb6 d53d

transformer.encoder.layers.0.norm2.weight f4 [32]
0.94224447 1.0246549 0.85318273 1.0313983 0.9923351 0.98851806 1.1287229 0.984506
1.1234577 0.8872884 0.95106524 1.0255182 1.110467 0.9621271 1.0256544 1.026932
0.92648447 1.1329442 0.85685635 0.95230556 0.97484064 1.0835723 1.0591959 1.0166426
1.0085505 1.0234221 1.0461849 0.98079777 1.0331146 0.9917494 0.9596757 0.9015931
00000000: ef36 713f e427 833f 2f6a 5a3f dc04 843f
00000010: ac09 7e3f 850f 7d3f fe79 903f 9608 7c3f
00000020: 76cd 8f3f 5525 633f 0379 733f 2e44 833f
00000030: c823 8e3f f64d 763f a548 833f 8272 833f
00000040: 162e 6d3f 5104 913f f05a 5b3f 4cca 733f
00000050: 288f 793f 7fb2 8a3f bb93 873f 5821 823f
00000060: 2f18 813f 7fff 823f 63e9 853f 9015 7b3f
00000070: 193d 843f 4ae3 7d3f 4fad 753f cece 663f

transformer.encoder.layers.0.norm2.bias f4 [32]
-0.017366037 -0.030132858 -0.07175544 0.011537922 0.05246643 -0.010212963 -0.03215588 -0.0056959456
0.066038035 -0.0199883 0.038542688 -0.009403546 0.016411915 -0.067395136 -0.022652341 -0.017332757
0.052379772 -0.033324227 0.05011168 0.0006985098 -0.020255927 0.012671307 0.08905338 -0.019929029
0.036863893 0.03659424 -0.016706089 -0.056213096 -0.005632649 -0.0087387 0.045224216 -0.0304152
00000000: 3843 8ebc 2fd9 f6bc 84f4 92bd 8d09 3d3c
00000010: 0ae7 563d 4654 27bc e2b5 03bd 0ea5 babb
00000020: f33e 873d 81be a3bc f0de 1d3d 5511 1abc
00000030: 4872 863c 7606 8abd 6791 b9bc 6dfd 8dbc
00000040: 2c8c 563d fc7e 08bd e841 4d3d 331c 373a
00000050: c2ef a5bc 509b 4f3c 9e61 b63d 3442 a3bc
00000060: 98fe 163d d8e3 153d 35db 88bc b43f 66bd
00000070: 1692 b8bb c42c 0fbc 073d 393d 4c29 f9bc

transformer.encoder.layers.1.self_attn.in_proj_weight f4 [96, 32]
0.015663689 0.4118495 -0.015415807 -0.10405573 -0.24336867 0.039637573 -0.032288373 0.020129293
-0.13202734 -0.09640102 -0.36666414 -0.22517401 -0.42398348 0.068925776 -0.035506863 -0.2383155
-0.27697834 0.3654733 0.12126374 0.004669758 0.14134796 0.22317044 0.26772732 0.09417695
-0.5715152 -0.13481109 -0.026778543 0.062039364 0.29344237 -0.012834427 -0.05378372 -0.049906097
0.082334 -0.22531702 0.057488088 0.24913818 0.017256374 -0.17650205 -0.1530852 -0.02710318
-0.028036775 0.04477319 0.09409013 0.2753135 -0.010728203 0.09097891 0.1058203 -0.12965025
-0.073751174 -0.18860826 0.08322386 -0.108180314 -0.14275755 -0.19173563 -0.2088825 -0.16537842
-0.053950157 -0.12303707 -0.013046015 0.1519479 -0.023339873 -0.12509839 -0.29886025 -0.050201897
-0.08613498 0.12909484 0.030720273 -0.19599691 0.07221663 -0.10706641 0.032202452 0.1657694
-0.054355998 0.10307688 -0.045273013 0.14331618 0.15509818 -0.033890247 -0.15991893 0.031420477
-0.018400256 0.17609859 -0.094194956 0.22579011 -0.1326787 -0.13821168 0.023732139 0.15385616
0.07700444 0.3119743 -0.05717494 0.24389552 -0.1460644 -0.13163319 -0.14300291 0.18267418
0.06944048 0.064704075 -0.12599282 0.050996546 0.016352458 -0.11237505 0.11054044 -0.20027441
0.023152635 -0.26610917 -0.109543085 -0.08255293 -0.16559115 0.1470065 -0.1349475 -0.070654124
0.07723326 -0.00043249468 0.19623801 -0.1727228 0.17944622 -0.13414723 0.086600974 -0.1996888
0.05269099 0.29206565 0.18380122 0.28498766 0.23227209 -0.065860555 -0.14282613 0.22071357
-0.18738808 0.05326303 0.1317903 -0.17626059 -0.05912099 -0.17800355 0.03430731 0.045339752
-0.020492248 0.16175798 0.23220971 -0.0026548135 0.21469684 -0.02515405 0.22320132 0.012494828
0.13474393 -0.18609163 0.0110324975 0.15995479 0.115876324 0.24136801 0.18199001 -0.07574891
0.06313485 -0.13346367 0.06638157 -0.012149891 0.08738398 0.17242086 -0.03875201 0.12190928
0.14733261 0.15541725 -0.15475437 0.07842153 -0.3133096 0.11873461 -0.029948011 0.19180906
-0.22693385 0.013765171 -0.2583761 -0.23063812 0.20727198 -0.12562607 -0.13807207 0.07370362
-0.16044079 0.024703678 -0.34726235 -0.10068254 0.16846588 -0.3861636 0.2637629 0.24499539
0.06148214 0.3595448 0.106450945 -0.010991194 -0.06747925 0.37490946 0.112462245 0.048115507
0.23342045 0.28627476 0.08531319 -0.20369709 -0.46869734 0.03575327 0.2628119 0.27007797
-0.17849134 -0.06368203 -0.13093325 -0.016728252 -0.09434243 0.33751905 0.056924388 -0.11788185
0.17326874 -0.10109892 -0.14962557 0.22106028 0.016081827 -0.27165043 -0.22767691 -0.075897396
-0.34635243 -0.2936897 -0.016611036 0.10150842 0.25651935 0.15189327 0.10073629 -0.08121601
0.098059334 0.0034209283 -0.22870812 0.08987339 -0.11266287 0.2776444 0.0584191 -0.20284753
-0.060365703 0.1302527 -0.34206128 0.020524304 -0.25903636 -0.053015508 -0.10664222 0.049335778
-0.21012524 -0.08648761 0.021425156 -0.09218711 -0.12567756 -0.03446815 0.23530716 -0.1749919
-0.24184099 -0.111297384 -0.015251601 -0.11325613 0.3484409 0.109780766 -0.053955004 -0.06395013
00000000: 2351 803c f0dd d23e 9592 7cbc 2c1b d5bd
00000010: a335 79be 025b 223d d040 04bd 30e6 a43c
00000020: 2d32 07be e66d c5bd 67bb bbbe 0494 66be
00000030: 5d14 d9be f528 8d3d a56f 11bd fa08 74be
00000040: 1bd0 8dbe 511f bb3e 2059 f83d c504 993b
00000050: 85bd 103e cb86 643e 8e13 893e d8df c03d
00000060: d24e 12bf eb0b 0abe ad5e dbbc fd1c 7e3d
00000070: 143e 963e 7d47 52bc 514c 5cbd 566a 4cbd
00000080: ba9e a83d 81b9 66be a178 6b3d 141e 7f3e
00000090: 3d5d 8d3c f4bc 34be 5ec2 1cbe 7d07 debc
000000a0: 61ad e5bc 1864 373d 53b2 c03d e4f5 8c3e
000000b0: 58c5 2fbc 2753 ba3d 50b8 d83d 09c3 04be
000000c0: db0a 97bd 8622 41be 4571 aa3d a48d ddbd
000000d0: 092f 12be 5856 44be 4be5 55be f658 29be
000000e0: d7fa 5cbd dcfa fbbd f4be 55bc 3b98 1b3e
000000f0: 4333 bfbc cb19 00be 3604 99be 81a0 4dbd
00000100: 8967 b0bd 7031 043e 15a9 fb3c 6ab3 48be
00000110: 50e6 933d a245 dbbd b8e6 033d 74bf 293e
00000120: 65a4 5ebd f919 d33d 3270 39bd 7ac1 123e
00000130: 0fd2 1e3e 80d0 0abd cac1 23be c2b2 003d
00000140: 22bc 96bc 3053 343e 49e9 c0bd 8635 673e
00000150: eddc 07be 5d87 0dbe e769 c23c 788c 1d3e
00000160: 81b4 9d3d 18bb 9f3e 4530 6abd bfbf 793e
00000170: e891 15be daca 06be 5b6f 12be f10e 3b3e
00000180: cf36 8e3d 9283 843d 4304 01be c1e1 503d
00000190: 97f5 853c e424 e6bd 0763 e23d bc14 4dbe
000001a0: 98aa bd3c 763f 88be 2058 e0bd 8311 a9bd
000001b0: ba90 29be df88 163e ad2f 0abe 1cb3 90bd
000001c0: 792c 9e3d 74c0 e2b9 9ef2 483e 3fde 30be
000001d0: c0c0 373e e45d 09be da5b b13d 397b 4cbe
000001e0: 82d2 573d a189 953e 6336 3c3e e7e9 913e
000001f0: bcd8 6d3e e6e1 86bd 0341 12be bd02 623e
00000200: a9e2 3fbe 562a 5a3d 09f4 063e a87d 34be
00000210: da28 72bd 9046 36be d285 0c3d 2db6 393d
00000220: 5cdf a7bc e2a3 253e 62c8 6d3e 61fc 2dbb
00000230: 7dd9 5b3e de0f cebc e38e 643e 1bb7 4c3c
00000240: 50fa 093e ce8e 3ebe a6c1 343c 30cb 233e
00000250: 9150 ed3d 2d29 773e 975b 3a3e 3f22 9bbd
00000260: d84c 813d b3aa 08be 10f3 873d 5610 47bc
00000270: 5ff6 b23d 188f 303e 6dba 1ebd 93ab f93d
00000280: 5cde 163e b325 1f3e ee77 1ebe 789b a03d
00000290: 1e6a a0be 222b f33d 8855 f5bc 9869 443e
000002a0: 5961 68be 5087 613c df49 84be 662c 6cbe
000002b0: 1b3f 543e 1fa4 00be c462 0dbe ecf1 963d
000002c0: 974a 24be 5e5f ca3c 5fcc b1be a632 cebd
000002d0: 5282 2c3e 3cb7 c5be ee0b 873e 12e0 7a3e
000002e0: b2d4 7b3d 4216 b83e f402 da3d 6914 34bc
000002f0: 9032 8abd 22f4 bf3e 9b52 e63d c414 453d
00000300: c505 6f3e 9b92 923e afb8 ae3d f895 50be
00000310: 19f9 efbe 0572 123d 488f 863e a947 8a3e
00000320: 6fc6 36be b96b 82bd 5e13 06be b009 89bc
00000330: 9b36 c1bd 4ccf ac3e 8c29 693d 0a6c f1bd
00000340: 5c6d 313e f30c cfbd 7237 19be a05d 623e
00000350: 09be 833c c415 8bbe 2324 69be 1870 9bbd
00000360: 1b55 b1be 7f5e 96be de13 88bc a6e3 cf3d
00000370: 8156 833e e989 1b3e d44e ce3d 9454 a6bd
00000380: 55d3 c83d a731 603b 7632 6abe 8a0f b83d
00000390: cabb e6bd 6827 8e3e de48 6f3d 43b7 4fbe
000003a0: 0742 77bd f760 053e a822 afbe 9622 a83c
000003b0: 6aa0 84be ca26 59bd 3c67 dabd 5014 4a3d
000003c0: 122b 57be 6b20 b1bd cf83 af3c 98cc bcbd
000003d0: 9eb1 00be 7a2e 0dbd 5cf4 703e 1431 33be
000003e0: 2aa5 77be e2ef e3bd dae1 79bc d4f2 e7bd
000003f0: d866 b23e bdd4 e03d ecff 5cbd 49f8 82bd

transformer.encoder.layers.1.self_attn.in_proj_bias f4 [96]
0.07331107 0.07719821 0.0039797234 -0.040930554 0.005890247 0.07024463 0.118536465 -0.004599808
-0.07900485 0.08345629 0.02190097 -0.0010482704 -0.084072374 -0.045526087 0.12512238 -0.08812594
-0.17835926 -0.04364835 -0.26937345 0.0061115613 0.07698735 0.18718635 -0.05272824 -0.005550522
-0.12105755 -0.06319912 -0.11676137 -0.107931845 -0.07872132 -0.048716106 0.1233357 -0.05723868
-0.00031901966 4.936129e-05 0.002118016 9.437665e-05 -0.0020175334 -0.002889379 -0.00069006404 -0.0015228277
0.0012184579 0.0014908849 7.4965865e-05 0.0016296888 0.0011861023 0.0002676863 -0.0004521014 0.00038599374
-0.0038167462 -0.00042286908 -0.0034956068 0.0018932227 0.0037501836 0.0034668655 -0.0011837467 0.0019569423
-0.0023850244 -0.0013675808 -0.001484843 -0.0012712369 -0.0016801719 -0.0015413901 0.000683775 -0.00023989053
0.008055453 -0.031099558 0.0427879 0.014483428 -3.922613e-05 -0.0071289055 -0.0032284453 0.046789415
-0.036410224 -0.047650505 0.02612838 0.011684978 0.017930884 -0.008047358 -0.019855559 -0.020618653
-0.027945254 -0.04307768 0.017323349 -0.04428142 0.011558632 0.021400528 -0.003285643 0.036106385
-0.04673485 -0.031774048 -0.021526348 -0.047062255 -0.008223148 0.05760336 0.015965724 -0.0080691
00000000: 1d24 963d 181a 9e3d 5768 823b cca6 27bd
00000010: f902 c13b 6bdc 8f3d 3fc3 f23d fcb9 96bb
00000020: 4bcd a1bd 22eb aa3d aa69 b33c 1e66 89ba
00000030: 232e acbd 9079 3abd 1520 003e 5f7b b4bd
00000040: cfa3 36be 9dc8 32bd 51eb 89be 7e43 c83b
00000050: 8bab 9d3d c7ad 3f3e 91f9 57bd 27e1 b5bb
00000060: 05ed f7bd 8a6e 81bd 9620 efbd 5f0b ddbd
00000070: a538 a1bd 8a8a 47bd 6d97 fc3d 1b73 6abd
00000080: 1842 a7b9 4809 4f38 69ce 0a3b 14ec c538
00000090: 9838 04bb bc5b 3dbb 6ae5 34ba 9e99 c7ba
000000a0: aab4 9f3a cc69 c33a fe36 9d38 489b d53a
000000b0: fd76 9b3a 3f58 8c39 0608 edb9 345f ca39
000000c0: 6022 7abb 87b4 ddb9 8d16 65bb 0326 f83a
000000d0: a4c5 753b 5a34 633b f327 9bba 0b40 003b
000000e0: 124e 1cbb 6640 b3ba 109f c2ba a29f a6ba
000000f0: 3739 dcba 7808 caba 5d3f 333a 208b 7bb9
00000100: 05fb 033c 80c4 febc 5d42 2f3d e64b 6d3c
00000110: bd86 24b8 9899 e9bb 5394 53bb 42a6 3f3d
00000120: e322 15bd 2d2d 43bd 2f0b d63c 5a72 3f3c
00000130: cae3 923c 11d9 03bc 20a8 a2bc 73e8 a8bc
00000140: 72ed e4bc 3972 30bd b2e9 8d3c 6f60 35bd
00000150: 6b60 3d3c 2950 af3c f153 57bb 4ae4 133d
00000160: 0b6d 3fbd 8125 02bd 0658 b0bc 5ac4 40bd
00000170: 62ba 06bc 80f1 6b3d 8dca 823c 4234 04bc
