期末项目/code/Transformer法/transformer_preprossing/models/best_model_20240614-113015.pth (torch, 399330 bytes, 99 tensors)

embedding.weight f4 [32, 15]
000000 20 7f d0 3c 32 61 5f bc 74 eb 84 be 48 07 8d 3e
       0.025451243 -0.013634013 -0.25960886 0.27544618
000010 e9 da 94 be d9 9a 9d 3f e6 a2 9c bd 3d 9d 8e 3d
       -0.29073265 1.2312881 -0.07648258 0.069635846
000020 d8 2f b8 3b 22 dd ca bd 8a 4e 17 3e 91 c8 e6 3c
       0.005620938 -0.09905459 0.14776054 0.02817181
000030 f4 c0 7f 3e c3 45 7c bd 56 ff 62 3e d3 e2 27 bf
       0.2497595 -0.061589967 0.22167715 -0.6558048
000040 9e 6b a4 3c 89 e1 8d be a1 d0 2a 3e 02 59 45 3e
       0.020070847 -0.27711132 0.16681148 0.19272235
000050 d5 27 9c be 25 59 bc 3e c9 23 bb 3d ba a9 27 be
       -0.3049914 0.36786762 0.09137685 -0.1637334
000060 6e 54 10 be 06 7b 46 3e 5c 7d c3 3d 66 c5 8c 3e
       -0.14094707 0.19382867 0.09545395 0.27494353
000070 52 51 23 3e 47 4b 4b 3d 77 2d 6e be 85 f6 26 3e
       0.1594899 0.049632337 -0.23259531 0.16304977
000080 54 ce 30 3e 8f 30 2e be e8 5f 4c 3d 3a c9 56 bf
       0.17266208 -0.17010711 0.04989615 -0.839008
000090 dc f4 0d be 79 bd 45 3d f2 93 6f 3e ea d9 db 3c
       -0.13862938 0.0482764 0.2339628 0.026837308
0000a0 b7 9f c8 be 66 7d b7 bd 5c 66 a3 3e f1 56 3a be
       -0.39184353 -0.08959465 0.31914032 -0.18197228
0000b0 6c ca 3d 3e 5e dd 25 3e d4 4d eb 3c 39 ac f1 bc
       0.18534249 0.16197726 0.028723635 -0.029501067
0000c0 73 f2 b4 3d e6 71 0b be d8 01 13 3e 6b 9f 0a bf
       0.08835306 -0.13617668 0.14356172 -0.541495
0000d0 68 55 47 3d a7 f3 7c 3e c6 0b 0c be 1f d6 32 bd
       0.048665434 0.24702321 -0.13676366 -0.043661233
0000e0 49 f4 cd 3d a6 57 ae 3b 1a e7 f2 bd 7a 27 2b 3e
       0.10056359 0.005320507 -0.118604854 0.16714278
0000f0 ce 6c a0 3e 41 60 8f be ba 45 84 3e 38 6c d4 3e
       0.3133301 -0.28003123 0.25834447 0.41488814
000100 f4 68 c5 be b4 df bd be 93 6a f7 bd 0f 00 06 be
       -0.38556635 -0.37084734 -0.12080874 -0.1308596
000110 7d bd 79 3e b6 82 04 3e 28 c3 ac bc 34 fc 0d 3d
       0.2438869 0.12940487 -0.021089152 0.034664348
000120 2a 7a 91 3e 6b 06 75 3e f8 5f f9 3d ee 7d 10 3f
       0.28413516 0.2392823 0.12176508 0.56442153
000130 a1 68 6a be 97 ba 35 3d 05 39 69 bc c5 5d ea 3e
       -0.22891475 0.0443674 -0.014234786 0.45774665
000140 0a e9 2b bf 6f 3d 8f be 12 47 c8 bd f9 4a 0e 3e
       -0.67152464 -0.27976558 -0.097791806 0.13895787
000150 fb 1a 29 3d 84 87 b6 3e ba ca b6 bd 93 d2 21 bc
       0.041285496 0.35650265 -0.08925386 -0.009876865
000160 99 b2 15 3e 41 ba 5b 3e e6 8c 38 3c 8b 70 5f be
       0.14618911 0.21457769 0.011264062 -0.21820275
000170 1f 08 80 be c9 11 c1 3e 7b ba e8 be a7 db e5 3d
       -0.25006196 0.37708881 -0.45454773 0.11223536
000180 2f 8a 71 3e 2d 2d 43 be 1f 4b e8 3c 26 40 37 be
       0.23587869 -0.19060202 0.028356133 -0.17895564
000190 15 da 25 3e d6 f1 c6 3e 76 75 95 3e ac af 71 3c
       0.16196473 0.3885638 0.29191178 0.014751356
0001a0 25 90 13 3e 4e bc 3c be d4 05 4e 3e 3b 6e 34 be
       0.14410456 -0.18431208 0.20119411 -0.17620175
0001b0 8b ef 41 be 5d d3 cb be a8 1f 27 bf 2b a5 e8 3d
       -0.18939035 -0.39809695 -0.6528268 0.11359628
0001c0 66 c6 62 bd 99 ec f3 bd 87 5a 12 bc 06 8c bf 3e
       -0.05536499 -0.11910362 -0.008932716 0.37411517
0001d0 ca bf 77 bd 08 39 ad bb be 99 de bd 90 a8 61 3e
       -0.06048564 -0.0052863397 -0.10869168 0.22036958
0001e0 40 3d 05 3e 55 17 ba be 4d 62 1b be 4e bb 07 3e
       0.13011646 -0.36345926 -0.15174218 0.13255045
0001f0 da e6 5a 3f 94 54 42 3f 11 53 8e be db 5f 84 be
       0.855085 0.75910306 -0.2779775 -0.25854382
000200 73 74 c4 bd 52 38 7b 3e c8 cc 90 be 02 79 62 be
       -0.095925234 0.24533203 -0.28281236 -0.22116473
000210 e5 6c 06 3e f0 0f 1d be 5b c9 7a 3e 4c 8d c3 3e
       0.13127477 -0.15338111 0.24490874 0.38193738
000220 cd e4 17 be ec 03 02 3e 13 98 9d 3e 28 2a 16 bf
       -0.14833374 0.12696809 0.30780086 -0.58658075
000230 0a d2 76 3e 8a b2 a8 bd 1b 58 14 3d 79 68 af be
       0.24103561 -0.082371786 0.036216836 -0.34259394
000240 f2 2d 0d be 3a d5 7e bd 25 bb 43 bd f5 bc 7a be
       -0.13787058 -0.062215067 -0.047785897 -0.24486144
000250 ac c9 8c be d5 33 51 3e c8 b6 37 3f 56 3d 2b be
       -0.27497613 0.20429929 0.7176328 -0.16722617
000260 c8 62 c4 3e 35 55 b6 bd ba 78 18 be 4f 51 f0 3e
       0.38356614 -0.08902971 -0.14889804 0.46937034
000270 c3 0c b4 bd da f4 00 3e 67 0f 98 3e 95 75 30 3e
       -0.087914966 0.12593403 0.2969925 0.17232354
000280 75 5f 40 be fc 8d 24 3e 25 de 66 3e 29 87 a3 3a
       -0.18786414 0.16069788 0.22545679 0.0012476194
000290 56 29 bc 3d 15 3a 03 bd ef a1 0e 3e e3 c3 35 3d
       0.09187572 -0.032037813 0.1392896 0.044376265
0002a0 e2 bb 4e bd 3a 26 56 3f 55 6c d5 3d 90 c1 25 bd
       -0.050472148 0.8365208 0.10421053 -0.0404678
0002b0 e4 04 06 3e 91 01 87 bd d4 de 83 be d2 74 53 be
       0.13087803 -0.06592096 -0.25755942 -0.20650032
0002c0 d7 8b 8e 3e 98 a3 81 bc 1b 82 8e 3d ed 56 26 3d
       0.27841064 -0.015825078 0.069584094 0.040610243
0002d0 6c 89 44 3f 0e 8b 64 bd 92 5c 7a be 0d a9 80 be
       0.7677219 -0.055796675 -0.24449375 -0.25128976
0002e0 0f 14 ea 3d 18 0d 8c be 12 c4 0d 3e 94 e7 c6 bd
       0.11429607 -0.2735374 0.13844326 -0.09712139
0002f0 7f d8 b4 be 80 6f 48 3e 90 47 af 3d 7f 51 86 3e
       -0.35321423 0.19573784 0.08558571 0.26234052
000300 1c d6 f0 3d 46 ff 81 be b1 c5 cb 3d 1c 17 bb be
       0.11759588 -0.2539007 0.09949816 -0.3654107
000310 0d ef 92 3c 66 e5 65 3e 8c 70 98 3e 3f 56 b5 3b
       0.017936254 0.2245079 0.29773366 0.005533963
000320 9a 9d 81 be 5f 2e 0e be 2e 70 83 3e 24 c6 61 3e
       -0.25315553 -0.13884877 0.25671524 0.22048241
000330 6d 1d b3 3e 1b e2 01 be 38 65 16 3e 05 a8 3b bd
       0.34983388 -0.12683909 0.1468705 -0.045814533
000340 5a 06 d1 3d 6a a0 6d 3d dd 1f 1b 3f a9 cf ca 3d
       0.102062896 0.05801431 0.60595495 0.09902889
000350 57 8b 2d 3e af 41 6d 3e df 1f 21 3b cd 9b 8e be
       0.16947685 0.23169588 0.0024585647 -0.27853242
000360 8d 45 0b 3e a9 e3 62 3c 3e 1d 3a be f9 00 85 be
       0.1360075 0.013848224 -0.18175218 -0.25977305
000370 db aa 4b 3d e2 6c 09 be 1d 41 4e be 80 9e c4 3d
       0.049723487 -0.13420442 -0.20142026 0.09600544
000380 37 19 8f be 55 40 c8 be 01 54 6e 3e fb 6a c0 3e
       -0.27948925 -0.3911158 0.23274232 0.3758162
000390 ad e5 3d 3b 51 82 e8 be 1a 99 0a 3e 83 fb 78 bd
       0.0028976009 -0.45411924 0.13534966 -0.060786735
0003a0 af cc 43 be 5a 92 70 be 95 1b 1d 3e f9 69 60 be
       -0.1912105 -0.23493329 0.15342553 -0.21915425
0003b0 20 91 2f be f8 6e 1f bd 6a 1b de bd d2 73 24 be
       -0.17145205 -0.038924187 -0.108450726 -0.16059807
0003c0 1f ed ec be 01 8c 62 be d5 bd 99 bd 9b c5 d2 be
       -0.4627466 -0.2212372 -0.07506911 -0.41166386
0003d0 5f 58 a8 be 9f d2 f9 3e 25 85 91 3e 67 1b cd 3c
       -0.32879922 0.48793504 0.28421894 0.02503748
0003e0 b8 18 7b bd 3a 82 a4 be 32 fc b3 be 7e 63 8c be
       -0.06130287 -0.32130605 -0.35153347 -0.27419657
0003f0 4c c2 40 be 30 24 22 be 7b f9 bf bd fe 12 8b 3e
       -0.18824118 -0.15834117 -0.093737565 0.27162927

embedding.bias f4 [32]
000000 05 0e 2f 3d bf 0c f3 bd 1a ef f1 3e 11 8d ed be
       0.04273798 -0.118676655 0.47252733 -0.46396688
000010 4a c1 d2 be 05 26 16 3c 1a 62 18 3f c4 0b 22 3d
       -0.41163093 0.009164338 0.5952469 0.039562
000020 17 5b cd 3e ed 7a be be 5d 3b 83 be 21 fb 17 3e
       0.4010856 -0.3720316 -0.25631228 0.14841892
000030 43 28 9c be fe c5 5c bd 50 11 b8 3e 6b 60 da 3e
       -0.30499467 -0.053899758 0.35950708 0.42651686
000040 50 06 9c be 83 7e ec be 7b c8 8b 3e 5c 86 cc be
       -0.30473566 -0.4619027 0.27301392 -0.39946258
000050 ae f4 f0 be 67 cf 12 3e ec 82 c4 bd 8b 8b 52 be
       -0.47061676 0.1433693 -0.09595284 -0.20561044
000060 21 84 82 3e 9d 6e cf be 44 cc 06 be be 7f ef bc
       0.2549143 -0.4051408 -0.13163859 -0.029235717
000070 bc c4 ec 3e 03 d3 5a 3d 4f 94 b7 be 34 8c 11 bd
       0.46243846 0.053423893 -0.35855338 -0.0355341

transformer.encoder.layers.0.self_attn.in_proj_weight f4 [96, 32]
000000 f4 1a 3a 3e 9f 87 3f 3e 7b 6a b9 be 75 d5 94 3d
       0.18174344 0.18704079 -0.3621405 0.07267276
000010 8b d7 44 3c 05 e1 78 be 54 86 ec bd a6 5b ac be
       0.01201428 -0.24304588 -0.115490586 -0.33663672
000020 34 27 69 3e d5 dd 4f 3b e5 5d 2d 3e c6 d6 e7 bc
       0.22768861 0.0031717916 0.16930349 -0.028300654
000030 4f 52 b6 bd 4f ba 9b 3a 2d 9a 80 be c5 d6 87 be
       -0.08902418 0.0011881086 -0.25117627 -0.26531044
000040 ce 63 54 3e 4b 02 cc bd c4 91 55 be 1b 73 6b be
       0.20741197 -0.09961375 -0.20856386 -0.22993128
000050 7e dc 32 3e 5d f5 f9 3c 11 b0 15 bd 49 a1 b8 3d
       0.17466924 0.030512506 -0.036544863 0.09015138
000060 fb 1d a3 be f0 ee 28 3e c5 64 27 be fc 1d 2d 3d
       -0.3185881 0.16497397 -0.16347034 0.042264923
000070 4a 89 44 3d 06 a2 c8 bd 87 55 91 3e a0 d2 49 3b
       0.04798249 -0.097965285 0.28385565 0.0030795708
000080 64 df 59 bd c6 69 8c bd 56 81 08 3c 1f 4e f1 bb
       -0.053191558 -0.06856112 0.008331617 -0.007364049
000090 19 ec 1a be c1 44 c8 3d 81 f3 a9 3d 42 5e 81 3e
       -0.15129127 0.09778739 0.08298398 0.25267226
0000a0 d0 6f 77 3e d2 40 e1 bc 80 5b 0f 3e 71 07 40 3e
       0.24163747 -0.027496729 0.13999748 0.18752839
0000b0 1a ee 26 be d7 c8 90 bc 05 6a 60 3e a1 0c 08 3e
       -0.16301766 -0.017673893 0.21915443 0.13286068
0000c0 05 66 63 be 12 2d 3f be 22 5c c4 bc 9e 14 ab 3d
       -0.22206886 -0.18669537 -0.023969714 0.08353542
0000d0 97 de 18 be 00 fc 95 3c 0d 8d 61 3d 64 b6 8c 3c
       -0.14928661 0.01830864 0.055066157 0.017176814
0000e0 c0 3d b6 3d 09 8d 6a 3d ed 88 56 3e a6 d9 b5 3c
       0.08898497 0.057263408 0.2095067 0.02219851
0000f0 83 7c da bd 09 44 52 3e 9f 96 c0 bd 4b 49 55 3e
       -0.1066828 0.20533766 -0.09403729 0.2082874
000100 04 46 58 be b1 9e a7 3d 2e 73 93 3e 8e 40 14 3d
       -0.21120459 0.08184565 0.28798813 0.036194377
000110 d3 6c ad 3d 7f 44 a4 bd e1 eb 38 be 8e c7 11 be
       0.08468022 -0.08020877 -0.1805873 -0.1423628
000120 f5 4e 6b 3d 20 7c 8c bd bb 52 bc 3e 1c b6 91 3c
       0.057448346 -0.068596125 0.36781868 0.017787032
000130 07 9f ae 3d 0f 92 eb 3e 03 dd b5 be a6 fe ae bd
       0.08526426 0.4600987 -0.3552018 -0.08544664
000140 dd b3 62 bd 51 24 7b 3d 9f fc 47 3c 4c d3 31 3d
       -0.055347312 0.06131393 0.012206226 0.0434144
000150 63 7c d7 bd ea 72 1d 3e 52 5f ad ba 1f bf b7 3d
       -0.10521772 0.15375867 -0.001322726 0.08972
000160 da 0f 91 be 30 41 97 3e 0f 4e e0 bc 98 3b 34 3e
       -0.28332406 0.29541922 -0.027380971 0.17600858
000170 76 10 05 bd ce a0 8c be b2 e0 83 3c 64 07 0d 3e
       -0.0324864 -0.27466434 0.016098354 0.1377235
000180 a9 06 88 bd a2 d2 00 bd a4 9c 4e 3e a8 84 29 be
       -0.06641895 -0.031450875 0.20176941 -0.1655451
000190 f6 08 a4 be 67 62 65 bc fc ef 83 3d 96 11 4c bd
       -0.32038087 -0.014000512 0.06442258 -0.04982146
0001a0 fa 99 c2 bd 93 39 ee bd ea cc 97 3d bf 17 89 3e
       -0.09502025 -0.11632075 0.07412131 0.2677593
0001b0 44 13 c6 bd a2 84 7c 3e ae 8a 18 3f ce f2 91 3d
       -0.096716434 0.2465997 0.5958661 0.071263894
0001c0 eb 5c cd bd 54 c8 f4 be 4c 3f f8 3e ae 11 28 3e
       -0.10027488 -0.47809088 0.48485792 0.16412994
0001d0 ea 77 c8 bd 2c 90 4b 3e c2 86 04 3e 0c 48 e8 bd
       -0.09788497 0.19879216 0.12942031 -0.11341867
0001e0 b9 5c 74 3e 18 b4 93 be 1e 4b b4 3e e3 a3 3d 3e
       0.23863496 -0.28848338 0.3521356 0.18519549
0001f0 e3 3b 27 be 14 b3 a8 3d 6a 23 8f bd 25 68 5b 3d
       -0.16331439 0.082372814 -0.069891766 0.053566117
000200 7f 0c a0 bd 00 2b 75 3e f4 15 a5 be 60 b4 67 bd
       -0.078148834 0.23942184 -0.3224331 -0.056568503
000210 07 f8 ed 3d 16 7e b1 bd 4c 3c d9 bd ba f9 0c bd
       0.11619573 -0.08666627 -0.10607204 -0.034417845
000220 1d eb 9a 3b 51 dd f2 bd 95 97 90 3e 3a 4e 21 be
       0.0047277347 -0.11858619 0.28240648 -0.15752497
000230 be a9 99 3e 59 ac 1d be 1a d3 3c be e6 c6 56 be
       0.30012316 -0.15397777 -0.18439904 -0.20974311
000240 b2 7f c7 3e 53 6f 03 3d 94 a6 a8 bc f3 f3 65 3c
       0.3896461 0.03208859 -0.020587243 0.014035213
000250 94 74 89 3e 94 11 4c bd b4 2e 20 3c 7a 2e 31 3d
       0.26846755 -0.04982145 0.00977676 0.043257214
000260 6f 2a fa bc 73 bd 36 3e a8 c2 35 be d6 6e fd 3e
       -0.030537812 0.17845707 -0.17750037 0.49498624
000270 ba 84 ff be ae 38 58 bd 6d 6f 8b bc 0d 59 60 be
       -0.4990595 -0.05278843 -0.017020905 -0.2190897
000280 e9 38 a8 3e 25 9e 08 be 20 86 49 3e 87 e4 80 3e
       0.3285592 -0.13341577 0.19680071 0.25174353
000290 47 68 36 be 68 3e 8e 3e 6e ec 28 bd 49 3b 7a bc
       -0.17813216 0.27781987 -0.041241102 -0.015272924
0002a0 01 90 34 3e 8e 34 ea bd ac f4 38 3e 8d 4e 94 bd
       0.17633058 -0.11435805 0.18062085 -0.07241545
0002b0 9c b0 a0 bd c5 de 4d 3e 11 7c 38 3e fb 49 8f 3d
       -0.078461856 0.20104511 0.18016078 0.069965325
0002c0 3c 6c 6b 3c 51 4e 51 be f1 e4 0a 3d 1b 42 01 be
       0.014369067 -0.20440032 0.03390974 -0.12622873
0002d0 3b 74 6d bd 11 e4 91 bd a2 61 9b 3d ec 39 04 bd
       -0.057972174 -0.07123578 0.07586981 -0.0322818
0002e0 0e a4 f6 3d cb 78 82 bd 39 e5 b8 bd 2a 43 82 3d
       0.1204301 -0.06370696 -0.09028096 0.06360467
0002f0 af 69 d5 3e ae 19 3f 3e cb df 2f be 9e d9 c4 3d
       0.41682193 0.1866214 -0.17175214 0.0961182
000300 fe fc 0a 3d 39 e8 6b 3d c6 2c a5 3e d4 75 90 3e
       0.03393268 0.05759451 0.32260722 0.28214896
000310 85 dd b5 3d a8 38 10 3e 78 aa 45 be cd 08 8f 3e
       0.08880142 0.14084113 -0.1930331 0.27936402
000320 d4 8e 28 be 9e 1f 2d be fb 63 49 3c 9a e2 7b be
       -0.16460735 -0.16906592 0.012291904 -0.2459816
000330 94 ea 51 3d ee ec 35 3e a0 b8 84 be 0e 62 15 3e
       0.0512491 0.17766163 -0.25922108 0.14588186
000340 7c 0f 60 be 34 12 4e be 55 84 6f 3d d5 79 eb bd
       -0.21880907 -0.20124131 0.05847581 -0.11497847
000350 05 fa 8b be d0 93 d3 3a 7a f9 31 bd 93 a9 5a 3d
       -0.27339187 0.0016142074 -0.04345081 0.053384375
000360 59 30 34 3d fb b7 9e bd 99 fd 93 3e 3a dc 65 be
       0.04399142 -0.07749935 0.28904417 -0.22447291
000370 13 de bd 3c 8a 19 0c be 3d 52 01 3e 1b 98 04 3d
       0.023177182 -0.13681617 0.12629028 0.03237162
000380 16 f8 33 3e a1 c0 82 be a1 b6 44 3e c6 57 85 3e
       0.17575106 -0.2553759 0.19210292 0.26043528
000390 15 6e ba bd 2d 09 c9 be 9e 96 05 3c 79 36 f2 3c
       -0.09103028 -0.39264813 0.008153586 0.02956699
0003a0 fe 7c 9c 3d 52 24 5c 3e 50 53 89 bd 86 b3 3d be
       0.07641028 0.2149823 -0.06705344 -0.18525514
0003b0 c8 42 c2 be 48 2a 8f bd fb c1 83 3e 10 f5 62 3e
       -0.37941575 -0.069904864 0.25733933 0.22163796
0003c0 f0 e5 75 3e 9d f9 9b ba 87 d6 62 be ea 4d 39 be
       0.24013495 -0.0011899952 -0.22152148 -0.18096128
0003d0 df 97 c4 be aa 62 51 be 50 4d 61 be 17 e2 01 bd
       -0.38397118 -0.20447794 -0.22002149 -0.031709757
0003e0 70 17 8b 3d 27 9f 88 be 95 6f 03 3e eb 1f 50 be
       0.0679158 -0.26683924 0.12835534 -0.20324676
0003f0 91 37 39 3d a6 a2 4c be e0 a4 2d 3e 6f c0 5a 3c
       0.045219008 -0.1998392 0.16957426 0.013351544

transformer.encoder.layers.0.self_attn.in_proj_bias f4 [96]
000000 1e 70 82 be e5 3d 81 3e 0e 95 2d be 2f 88 df 3e
       -0.25476164 0.25242534 -0.16951391 0.43658587
000010 35 d2 b4 be 77 37 fb 3d ba ea 1c be 34 47 c0 3d
       -0.35316625 0.122664385 -0.15323916 0.09388581
000020 08 ce 4a bc cb b5 17 bd 52 c1 99 3d e4 5c a8 3c
       -0.012378223 -0.037038606 0.07507576 0.020552106
000030 34 a8 11 bd 71 07 d3 bd 43 dc 1c 3e 04 e0 31 be
       -0.0355608 -0.10304154 0.15318398 -0.17370611
000040 5f 50 fd be cd 08 79 3d 13 e7 12 3f 91 b5 8b 3e
       -0.4947538 0.06079941 0.5738384 0.27286962
000050 98 3c 8a 3e d9 7b 59 3e bf 45 2d 3c 82 2b 80 be
       0.26999354 0.2123865 0.010575711 -0.25033194
000060 ad 1b a7 3e 02 16 8d 3e 35 ea f0 3d 0b 82 87 3c
       0.32638302 0.27555853 0.117634214 0.016541502
000070 fd ea b0 3c 4b b1 87 3e e1 dc b2 bd 4c db 95 be
       0.021596426 0.2650245 -0.087335356 -0.29268873
000080 c8 39 db bb 67 cb 0e 3a 79 78 42 39 63 dc 2a 3c
       -0.0066902377 0.00054471794 0.00018546161 0.010428521
000090 67 da fa bb f6 67 07 3c 4f 62 fe 3b ca 22 38 3b
       -0.00765543 0.008264532 0.007763184 0.0028096908
0000a0 07 64 ed ba 70 29 35 3b 86 94 25 3a 2d f5 4d bb
       -0.0018111476 0.0027643107 0.0006316382 -0.0031426654
0000b0 b0 33 45 3b 5b a2 8d 39 f7 52 fe 38 5c 51 49 bb
       0.0030090623 0.0002701458 0.00012127117 -0.003071866
0000c0 ec 78 95 bc ed e2 85 3c 15 a9 71 bc 2e 75 b8 3c
       -0.018246137 0.016343558 -0.014749785 0.022516813
0000d0 6b 0c 8d 3c a2 91 ea 3a be 9c 10 bc bd e3 82 bc
       0.017217835 0.0017896185 -0.008826433 -0.015977735
0000e0 cd 87 40 3a 18 5a 25 39 11 5e 4e bb 08 3d a5 3a
       0.00073444546 0.00015769189 -0.0031489173 0.001260669
0000f0 9b ed 68 39 0b a4 9b ba eb 44 9f 3b 39 fd d0 ba
       0.00022213759 -0.001187445 0.0048605106 -0.0015944607
000100 96 5a 5f 3e 1f 29 2f be 6b 55 bb bc e9 4b 59 3e
       0.218119 -0.1710553 -0.022867879 0.21220364
000110 99 82 0f 3e 8c 15 82 3c 47 16 c7 3d c3 44 a9 be
       0.14014663 0.015879415 0.09721046 -0.33060274
000120 1b 32 78 bd 33 44 8f 3d c5 2b 27 bd 03 45 27 bc
       -0.06059466 0.0699543 -0.040813226 -0.010209325
000130 81 16 81 bc 10 c2 24 be b5 d7 74 bc 97 62 a2 3d
       -0.015757801 -0.16089654 -0.014944007 0.07928961
000140 af d9 87 bd 3f 31 3e 3e 3e c7 74 bd 64 e5 6d be
       -0.06633317 0.18573473 -0.059760325 -0.23232037
000150 d3 dd 5a be fb d5 d6 bd f1 1c 1e bc c8 75 9b 3e
       -0.21373682 -0.10490032 -0.009650455 0.30363297
000160 c2 c9 7d bd ba 6e 70 be 1d c6 fe bd 24 b1 2b 3e
       -0.06195999 -0.23479739 -0.12440131 0.16766793
000170 99 57 98 3e d9 56 ea bd 21 5f 9a 3d b8 6e 86 3c
       0.29754332 -0.11442346 0.07537676 0.016410217

transformer.encoder.layers.0.self_attn.out_proj.weight f4 [32, 32]
000000 56 a4 97 3e 94 7e 0b 3d 53 11 2b 3d 15 0e 84 3e
       0.29617566 0.03405626 0.04176457 0.25791994
000010 76 31 6e be a8 72 2a 3e e3 b4 49 3d 46 87 5e 3e
       -0.23261055 0.166453 0.049244773 0.2173129
000020 38 6f b7 3d ce a1 bc bc 6e ef 92 be 9e 24 b3 bd
       0.0895676 -0.023026373 -0.28698295 -0.087472185
000030 33 f2 be 3d 94 09 59 3e fb c9 1d 3d dc e0 17 3e
       0.093235396 0.2119506 0.0385227 0.14831871
000040 0e ee 65 3e 04 66 b2 be 2a e2 43 3b 4b f0 3d be
       0.22454092 -0.34843457 0.0029889443 -0.18548696
000050 6f ef 15 3d 1a 2b 06 bd c0 18 40 3d e3 e4 5c be
       0.036605295 -0.03275595 0.046898603 -0.21571688
000060 c9 b6 c0 bd 39 f9 07 be 0d ed 41 3e 38 ec d2 3c
       -0.094098635 -0.13278665 0.18938084 0.025747404
000070 ad 8a a7 be 09 6b 39 3d 47 41 9a be 3b 97 f5 bd
       -0.3272299 0.045268092 -0.30127928 -0.119917355
000080 91 07 cc bd c9 fc f6 3d 04 32 b4 3d 2e 30 5b 3d
       -0.09962381 0.12059934 0.08798602 0.053512745
000090 80 f6 59 3e 39 f5 38 be c4 5e 24 be ce f7 b6 3e
       0.21285439 -0.18062295 -0.16051775 0.35735935
0000a0 ce 5d 4f 3d f2 9d 19 3d 52 59 b9 bc 50 02 0f be
       0.05062657 0.037504144 -0.022625599 -0.13965726
0000b0 78 e0 11 3c e3 37 83 be fb 04 2c 3e 64 f0 9a bd
       0.008903615 -0.25628576 0.16798775 -0.07565382
0000c0 91 68 4e bd 1e 09 50 3d de d8 0a 3d 7c d9 a7 3d
       -0.05039269 0.050789945 0.033898227 0.08195779
0000d0 21 db 70 be 04 8b ad 3e f2 69 0e bf b0 09 eb 3d
       -0.23521091 0.33895123 -0.5563041 0.11476457
0000e0 88 f1 dd bd c4 da c3 3d da e9 44 bd e9 2e 03 be
       -0.10837084 0.095632106 -0.04807458 -0.12810864
0000f0 52 df 67 3c bb 70 e1 bd b4 ca fe bd 77 4b 10 3e
       0.014152365 -0.1100783 -0.12441006 0.14091288
000100 e5 15 3d 3e b1 70 52 3e d5 5e 4c 3c 83 ee 64 3e
       0.18465383 0.20550801 0.012473782 0.2235661
000110 b7 82 74 3e ed 63 02 3d 11 4a 90 3e 95 aa 31 3e
       0.23877989 0.031833578 0.28181508 0.17350228
000120 db 97 12 bb 41 c1 c6 3d de 97 8d be 8c ad 06 3e
       -0.0022368345 0.09704829 -0.27654928 0.1315214
000130 d3 38 f0 3d fb c5 0a bc 30 f1 8f 3e 1f 09 9e bd
       0.11729588 -0.008470054 0.281137 -0.077165835
000140 08 b0 1e 3e 68 ba 71 be e2 7f 46 3e 39 c5 6f be
       0.15496838 -0.23606265 0.19384721 -0.23415078
000150 6d 48 55 be 83 d6 9c 3e 02 6d bc 3d 44 26 a6 3e
       -0.2082841 0.3063241 0.09200479 0.3245107
000160 1a ad 69 3d 3b c8 93 3c 0f 7b 81 be ff ec 4d be
       0.05704985 0.018039813 -0.252892 -0.20109938
000170 ca 8e 9d 3d 7f 7a 37 bd 6b e5 35 3e 16 7c 5f be
       0.076932505 -0.044794556 0.17763297 -0.21824679
000180 11 de ca be 0f d7 f3 3d 6a 63 b7 3e 6d e3 88 3d
       -0.39622548 0.119062535 0.35818034 0.06684003
000190 f5 bc 8f bd 48 02 23 be d3 e1 46 be 85 f6 4a be
       -0.070184626 -0.15918839 -0.19422083 -0.19820602
0001a0 7c 1e 71 3e bf 96 7e 3c 5c ff 5c 3e f5 33 53 bc
       0.23546785 0.01553887 0.21581787 -0.0128908055
0001b0 b3 8d 98 be df 70 da 3e 0a 24 4b 3d a1 42 09 3a
       -0.29795608 0.4266424 0.049594916 0.0005236064
0001c0 3f bc 28 3e 8f 95 83 be 91 0c ad be c3 f7 b4 be
       0.1647806 -0.25700042 -0.3379865 -0.35345277
0001d0 38 9e 2c be 46 31 06 bf 15 09 3d 3d d5 b9 0b 3e
       -0.1685723 -0.52418935 0.04615124 0.13645108
0001e0 86 f7 33 3e 03 75 c1 3e fd b4 ce bd 1a 3f e0 3d
       0.17574891 0.37784585 -0.100931145 0.10949536
0001f0 b3 57 33 3d 60 fc 3b 3e 83 29 16 be 44 b5 0f 3e
       0.04378481 0.18357992 -0.14664273 0.14033991
000200 8a c2 20 3e 77 74 d8 3d 37 d9 2a 3e 64 a2 76 be
       0.15699211 0.10569089 0.16684423 -0.24085385
000210 3d 6d 78 3d 72 40 ef 3d 5b 67 6c be 4f 44 a1 bd
       0.060651053 0.11682214 -0.23086302 -0.07874357
000220 0f 9c 27 3e 76 a8 98 bc 9e 74 55 3e ba 47 01 3d
       0.16368125 -0.018635016 0.20845267 0.031562544
000230 8d cb 10 bd 55 0b 18 3e c3 27 ea be df 35 93 3d
       -0.03535037 0.14848073 -0.4573346 0.071880095
000240 84 06 34 3e 30 29 6f be d2 0f 0b be 94 07 92 bd
       0.1758061 -0.23355556 -0.13580254 -0.07130352
000250 0f 14 32 3e 31 97 3d 3c 27 1e 74 3e c8 82 62 3c
       0.17390464 0.011571691 0.23839627 0.013825126
000260 2e 4a 9d 3e 90 59 a7 3e cc 96 5e be 58 64 57 3e
       0.30720657 0.32685518 -0.21737212 0.21034372
000270 04 a5 b3 be f3 8d 1c 3e ee 5f 91 3d 3d ab 01 3e
       -0.35086834 0.15288524 0.07098375 0.12662978
000280 2a b3 29 3e a0 d7 55 3d a8 38 67 3b 85 3e f4 bd
       0.16572252 0.05220759 0.0035281572 -0.11925987
000290 1f b1 6b bc a0 64 f0 bc 80 a7 c6 3d 35 a1 1e 3e
       -0.014385491 -0.029344857 0.09699917 0.15491183
0002a0 59 18 84 be 8d 18 7b bd 4b f7 69 bd 1b 9f b6 3e
       -0.25799826 -0.06130271 -0.057120603 0.35668263
0002b0 56 e3 04 3e 26 99 88 bd d3 c6 35 3d c4 e6 29 3e
       0.12977347 -0.06669836 0.044379067 0.16591936
0002c0 a9 ff 93 be d4 a1 ae 3d e5 30 bf 3e 7b 56 bf 3e
       -0.2890599 0.0852696 0.3734199 0.37370667
0002d0 77 03 6f be f4 9a 21 3e c1 92 a9 3c 64 9b 26 be
       -0.23341165 0.15781766 0.02069986 -0.16270214
0002e0 1e d6 16 3e b5 b5 57 bd df 27 14 bd c1 c2 86 3c
       0.14730117 -0.052663524 -0.036170837 0.016450288
0002f0 dd 39 46 3e a1 b6 a7 be 92 46 99 bd ee 56 ac 3e
       0.1935801 -0.32756522 -0.07484163 0.33660072
000300 98 2c 81 3d fa 12 4d 3e 88 50 4b be fb e3 f9 3d
       0.06307334 0.2002677 -0.19854939 0.12201687
000310 50 fd 2f 3e 03 52 80 3e ee 9b b6 bc d8 8e 34 be
       0.17186475 0.2506257 -0.02229115 -0.17632616
000320 07 5e 08 3e 87 32 dd 3d d9 d9 2e 3c 97 a7 b4 3d
       0.13317119 0.10800653 0.010672056 0.08821028
000330 7b 9d 9c bd 2e 20 3a be 2f 89 0f be f1 c0 ee 3d
       -0.076472245 -0.18176338 -0.14017175 0.116578944
000340 47 54 85 bd 7a fc 06 be 41 b5 40 bc 35 92 ee bd
       -0.06510215 -0.1318225 -0.011761964 -0.116489805
000350 ea fa 3f 3e f2 95 07 3e 32 f2 10 be 45 85 f6 3d
       0.1874806 0.13240793 -0.1415489 0.12037138
000360 5f 0b fb 3d c7 01 f1 bd a1 fb 20 be 23 6e 07 be
       0.12258028 -0.11767917 -0.15720989 -0.13225608
000370 c9 4b 08 3e e2 58 29 3d 4d 7f f7 bd 9e 5b 3f 3e
       0.1331016 0.04134453 -0.120848276 0.18687293
000380 59 62 18 3e 7a ab 1e 3c 38 50 c0 3e ba 2d 9d be
       0.14881267 0.009684438 0.37561202 -0.3069895
000390 23 b2 e2 bd f3 ac e7 3d d2 9c da bd 11 20 69 be
       -0.11069133 0.11312284 -0.10674442 -0.22766139
0003a0 93 d8 8d 3e 17 47 80 3e ad 25 2a be 2c a2 09 3e
       0.27704296 0.25054237 -0.16615935 0.1344077
0003b0 62 6e 21 3d 99 db bf 3e 5f 9b 0d 3b df b1 11 3d
       0.03941191 0.37472227 0.00216075 0.03557002
0003c0 78 c7 8b 3e 12 ec b8 3e 69 d9 cd be b2 af 62 3e
       0.2730062 0.36117607 -0.40204933 0.22137335
0003d0 89 df fc bd 13 43 81 be a4 d3 0b 3e 24 f9 c7 3c
       -0.123473234 -0.25246486 0.13654953 0.024410792
0003e0 85 64 2a 3d 3a 27 9d bd 7f 18 b5 3d be 2e 1e 3c
       0.04159977 -0.076734975 0.08842563 0.009654699
0003f0 3b 70 a4 3d 06 23 05 3d 6f b6 f2 3d 8d 8e 52 bb
       0.08029219 0.032504104 0.11851203 -0.0032128424

transformer.encoder.layers.0.self_attn.out_proj.bias f4 [32]
000000 71 1c c2 be 2e 7e 5e be 4a dd c6 3e 5e d8 42 3e
       -0.37912324 -0.21727821 0.38840705 0.1902785
000010 7e 2f b9 be 2e e0 44 3e 97 05 dc 3e 81 09 7d 3e
       -0.36169046 0.19226143 0.42973015 0.24710657
000020 cd 0c 40 3e 18 67 3f be 11 8d 5c be e0 d2 e4 bd
       0.18754883 -0.18691671 -0.21538188 -0.11173034
000030 3e cb 04 3e 68 3d f4 3d 5e f1 52 3e 5e 20 b2 3e
       0.12968156 0.11925775 0.20599887 0.3479032
000040 e5 d6 4b be 78 60 a0 be 79 a3 62 3d d0 5c c8 be
       -0.19906195 -0.313236 0.05533168 -0.3913331
000050 94 26 fb bd 75 06 55 be b5 b6 db bd 06 da 25 3e
       -0.122632176 -0.20803244 -0.10728208 0.1619645
000060 0b d3 0b 3e 1e 9a 94 be 7f 91 81 bd 73 68 59 3c
       0.13654725 -0.29023832 -0.06326579 0.013269532
000070 cd 93 8c 3e 04 97 ac 3e 22 81 ec bd 13 72 5b 3d
       0.27456513 0.33708966 -0.11548068 0.053575587

transformer.encoder.layers.0.linear1.weight f4 [128, 32]
000000 05 a9 0a 3e 28 16 6f 3e b2 4b fb 3d 22 fd 55 3d
       0.13541038 0.23348296 0.12270297 0.05224336
000010 87 a0 ad 3c bd bf 65 3b c0 b1 c8 3d e9 91 ea be
       0.02119471 0.0035056912 0.09799528 -0.45814446
000020 a1 2e 2d be e8 83 e4 bc fd 24 cb bd 81 34 41 3d
       -0.16912319 -0.027894929 -0.09919164 0.047169212
000030 45 76 d8 be d6 08 80 3e af 58 90 bd da 43 41 be
       -0.42277732 0.2500674 -0.07048165 -0.1887354
000040 23 06 79 3b a7 f8 c8 ba 22 51 b0 bc c7 0c ed 3d
       0.0037998043 -0.0015332893 -0.021523062 0.11574703
000050 50 fa 08 3e 09 b2 af bd 3c 3a 05 3e 10 e0 ff 3d
       0.13376737 -0.085788794 0.13010496 0.124939084
000060 ea d0 e9 bd 4e 77 99 3e 9f ee 4e be 49 04 47 3d
       -0.114168 0.29973835 -0.20208214 0.04858807
000070 de 97 1a bd 5c 80 e0 bc 50 f3 4d 3d 8e 55 91 3e
       -0.037742488 -0.027404957 0.05028087 0.28385586
000080 24 90 e0 3d 11 e5 d0 bd 7c 6d 09 3d 2a ed 56 3c
       0.10964993 -0.10199941 0.033551678 0.013118068
000090 53 2b c6 bb 2a b3 c1 be 80 07 1d 3e ef 01 72 bd
       -0.006047645 -0.37832004 0.15334892 -0.059083875
0000a0 e1 04 0c be 2b c1 9c 3d 41 97 89 be 6d 57 82 bc
       -0.13673736 0.07654031 -0.2687321 -0.015910828
0000b0 82 b6 59 be 60 9e 37 3e 56 79 f2 bc e6 92 ce bd
       -0.21261027 0.17931509 -0.029598873 -0.100866124
0000c0 2a ef fc 3b 7e 74 ad bd ad bf 54 be 0d 21 89 3d
       0.0077189403 -0.08469485 -0.20776244 0.06695757
0000d0 36 f7 4f 3e da fa 7b 3e cc 9a d3 bd 7f 4a cc bd
       0.20309147 0.24607411 -0.103322595 -0.099751465
0000e0 be 8c c5 bd 47 21 b1 3d 41 86 94 3c ff 3c 2f bc
       -0.09645985 0.08648925 0.018130424 -0.010695695
0000f0 e3 12 e6 3c db 7b 39 be 5d 63 09 3d 9c e9 ce 3c
       0.028085178 -0.18113653 0.033542026 0.025257878
000100 f8 1f f9 bd 2e 64 1a bd e4 95 36 3e 36 4b 0c be
       -0.12164301 -0.037693195 0.17830616 -0.13700566
000110 99 aa 09 3e 29 8c 37 3e 3d d2 40 bc 6c b1 c9 3d
       0.13443984 0.1792456 -0.011768875 0.09848294
000120 2d 4b fc bd bc c3 63 3d c1 ef 6e bc 5e 49 5e bd
       -0.12319026 0.05560659 -0.014583529 -0.054269187
000130 88 f7 43 3e a9 6e d5 3d aa 6b 36 bd 63 37 45 be
       0.19137394 0.104214974 -0.04453627 -0.1925941
000140 1c 0c 0d be 8b 05 0a 3e a1 90 d7 3c f7 25 2d be
       -0.1377415 0.13478677 0.026314082 -0.16909014
000150 8b 4c fb bd 63 e0 46 3e 26 cb 3b 3e 4c b6 f9 3b
       -0.12270459 0.19421534 0.18339214 0.0076206084
000160 29 24 25 3e f5 4f 9e bd b1 a4 94 3e fe 0e 34 be
       0.16127075 -0.07730094 0.290319 -0.17583844
000170 19 99 2b 3e de e0 56 3e 08 97 c4 bd 06 bd 66 3d
       0.16757621 0.20984218 -0.095991194 0.05633261
000180 46 0f 8f bc ba 6b 5d 3d 59 bb 1b 3e 21 35 b2 bd
       -0.017463338 0.054057814 0.15208186 -0.0870154
000190 11 1b 25 3e f6 da 5b bd 8c c7 13 3e e1 6d 7f be
       0.16123606 -0.053675614 0.1443159 -0.24944259
0001a0 61 58 5b 3e 65 38 2f be ae 5e 09 be 38 61 f1 3d
       0.21420433 -0.17111357 -0.13415024 0.11786121
0001b0 41 a0 64 ba 76 3e 8a bd 62 3e a9 bd 4b 18 6c be
       -0.00087213895 -0.06750195 -0.08263852 -0.23056142
0001c0 63 b7 3b bb 79 60 29 be 55 71 18 bc 58 dc 9e 3e
       -0.0028643243 -0.16540708 -0.009304364 0.31027484
0001d0 fb 04 85 3e bb 92 ac 3e d0 a2 d3 3d 64 f6 d4 bd
       0.25980362 0.33705696 0.103337884 -0.10398558
0001e0 6f a7 98 bd 9b 97 b0 3e 23 8c 1b 3e 90 a6 87 3d
       -0.074538104 0.34490666 0.15190177 0.06623566
0001f0 87 2d ab be a7 d8 fe bd 32 96 2a 3e fa 9d 25 bd
       -0.33433172 -0.12443667 0.16658857 -0.04043386
000200 7a d5 71 3e 93 ab 9c 3e 08 f9 25 be 99 aa 30 bd
       0.23616591 0.3059965 -0.16208279 -0.043131445
000210 0a 86 b2 3e 77 52 94 3d 66 da df ba d4 fe 01 be
       0.3486789 0.072422914 -0.0017078638 -0.12694865
000220 2d 08 e5 be f1 67 0e 3d 65 64 6f 3e 74 7c 28 3c
       -0.447328 0.034767095 0.23378141 0.010283578
000230 c1 19 86 bd ac 70 2e 3d 60 d7 9b bd 97 97 90 bd
       -0.06547881 0.04258792 -0.07609439 -0.070601635
000240 4d a7 b7 be 16 b6 f6 bd 47 1e 81 3c 64 4d d0 3d
       -0.35869828 -0.12046449 0.015761508 0.10171011
000250 0e e1 3b 3d df 62 82 be 5e f0 6e bd bb 7d 96 3d
       0.045868926 -0.25466058 -0.0583347 0.073482
000260 26 b2 0a 3e 5a 15 47 3e 3a 76 e7 bc ce d8 f7 bd
       0.1354452 0.19441739 -0.028254617 -0.12101899
000270 43 70 6f 3e 9b 95 06 3e f9 db ed bd 65 46 81 3d
       0.23382668 0.13143007 -0.11614222 0.06312255
000280 74 0d 0d 3d 5e 78 0b 3c 17 6e ad 3d eb db 4d bc
       0.034436658 0.0085125845 0.084682636 -0.01256464
000290 c3 78 73 be 61 ae 60 3d 77 b4 78 be 57 b3 54 3e
       -0.23776536 0.0548538 -0.24287592 0.20771538
0002a0 34 12 c1 be 37 f7 5b 3d fe 64 08 3e 94 dd 98 3e
       -0.377092 0.05370256 0.13319775 0.2985655
0002b0 b0 50 b5 bc 98 d4 82 3e 5b 36 72 3d de fd f5 3c
       -0.022133201 0.2555282 0.05913387 0.03002828
0002c0 cb 03 3a be f7 3f 3b be 37 82 1e 3e 67 0c 8a 3d
       -0.1816551 -0.1828612 0.1547936 0.06740647
0002d0 49 99 06 3c 83 a1 82 3c 99 34 11 3d 12 20 8a bc
       0.008215257 0.015946155 0.03545055 -0.016860995
0002e0 0c 60 77 be 00 7c 36 3c 76 7f af bd 11 4f 25 be
       -0.24157733 0.011137962 -0.08569233 -0.16143443
0002f0 17 84 5d bd 3f 25 94 3e b0 e6 46 3d 70 53 4c 3e
       -0.05408105 0.28934667 0.048559844 0.19953704
000300 25 4b b3 bd 84 0f 00 be 10 4c aa 3e 39 bc 50 3b
       -0.08754567 -0.12505919 0.33261156 0.003185047
000310 87 68 79 3e 19 47 3d 3e 58 4c 4e be 3a 9d 1e 3d
       0.2435628 0.18484153 -0.2014631 0.03872416
000320 74 4b 02 be 3a 16 38 3e 0a 97 38 3e 64 ab 29 bc
       -0.12724096 0.17977229 0.18026367 -0.010355804
000330 6a 05 5b be 2d 4b 43 be e3 c4 49 bd 55 68 48 be
       -0.21388784 -0.19071646 -0.04926003 -0.1957105
000340 b7 dc 18 be 20 1a a6 be ed 0d 16 3d d1 3f 74 3d
       -0.14927946 -0.32441807 0.036634374 0.059631173
000350 bd 89 25 be b1 19 ba 3d 13 85 68 3d be 01 48 3e
       -0.16165824 0.090869315 0.056767534 0.19531915
000360 b0 d8 46 3e 2e f1 ee 3c 8c 56 56 3e 9f fd a9 3d
       0.19418597 0.029167738 0.20931453 0.083003275
000370 93 04 1b bc a5 3a b3 bb 61 ff 16 3e 4d e7 57 bd
       -0.00946154 -0.0054696375 0.14745857 -0.05271082
000380 6e 06 64 be 34 05 cd bd 8e 3b dd bc d1 4f b1 be
       -0.22268078 -0.10010758 -0.027005937 -0.34631208
000390 5a 28 67 3e aa e7 a5 bd 42 40 a1 3c 6e c7 1e be
       0.22573987 -0.08100827 0.01968396 -0.15505764
0003a0 a9 cf f0 be 2b c1 24 3e 62 67 07 3e e7 f8 f0 3d
       -0.47033432 0.16089313 0.13223031 0.11766224
0003b0 a9 78 a1 bd 39 ec ea bd cd 20 7d 3e f4 ef 07 3e
       -0.07884342 -0.11470837 0.24719544 0.13275129
0003c0 5e 59 c2 bc 6f de 59 bd 71 ec 8b 3d 93 23 28 bb
       -0.023724254 -0.053190645 0.06832207 -0.002565597
0003d0 69 42 03 3e 43 4a 09 3e c9 0f d3 3d a0 b3 06 3e
       0.12818302 0.13407235 0.10305745 0.13154459
0003e0 55 ff a4 3c 46 6f b4 bc db 05 3a 3e 54 3f 21 bc
       0.020141283 -0.022025716 0.18166296 -0.009841759
0003f0 90 7f 5d be 5f 17 8b 3d c9 4d 8b 3d 78 7f c6 3e
       -0.21630692 0.06791567 0.06801946 0.38769126

transformer.encoder.layers.0.linear1.bias f4 [128]
000000 27 6c f8 3c 66 e9 fd bd d6 d7 a7 3d bb dc 7d bd
       0.030325009 -0.12398033 0.08195464 -0.061978083
000010 39 d8 a6 bd a6 b4 46 be 03 d6 4b bd 04 67 f1 3c
       -0.0814671 -0.1940485 -0.049764644 0.029468067
000020 da 97 f5 bd 0b d8 d7 3d 40 d8 bf 3d 48 d4 4f be
       -0.11991854 0.10539254 0.09367418 -0.20295823
000030 f2 70 9d 3d 0b f0 ea bd f6 a3 0e be 04 f7 30 3c
       0.07687558 -0.11471566 -0.13929734 0.010801081
000040 84 3d 63 bd 99 30 4a 3c 94 17 10 be 1d d2 cb bc
       -0.055478588 0.012340688 -0.14071494 -0.024880463
000050 ab 0e db bd df de 39 be e5 09 a3 be 8e 56 e9 bc
       -0.10696157 -0.18151425 -0.31843486 -0.028483655
000060 c9 d8 02 be b6 08 9e bd b7 10 04 be 3d 04 1e 3d
       -0.1277801 -0.07716505 -0.12897001 0.03857826
000070 56 a7 5e be 79 0c ac bd b1 26 5f be 79 b1 83 bd
       -0.21743521 -0.084008165 -0.21792103 -0.064303346
000080 bc af 54 bd f4 bb 4f be 58 b6 85 be 10 78 41 be
       -0.051925406 -0.20286542 -0.2611568 -0.18893456
000090 e1 ec 20 be c0 e5 53 be 30 b2 3a 3e a9 33 14 3d
       -0.15715362 -0.20693111 0.18232036 0.03618208
0000a0 4f 07 a8 bd 8e 7e 53 be c2 7c f0 bd f3 16 f7 3c
       -0.08204519 -0.20653746 -0.11742546 0.03016231
0000b0 9f b0 0a 3d 2e 9e 0e 3d a5 eb b5 bd 9e fe 3b bd
       0.033859845 0.03481882 -0.08882836 -0.04589712
0000c0 4c f7 65 be 28 8c 08 bc 19 92 a7 3d 2b 6f 50 bd
       -0.22457618 -0.008334197 0.08182163 -0.050887268
0000d0 36 6d 1c be 52 59 a9 bd e6 bc 38 bd 0f b2 3b be
       -0.15276036 -0.082689896 -0.045102023 -0.18329643
0000e0 5c 18 c1 bd ae 82 30 be e6 e8 53 be 34 17 c7 3c
       -0.09428474 -0.1723735 -0.20694312 0.024303056
0000f0 7b 4d ae bb ed 17 98 bd c4 a7 d8 bd 04 eb 85 be
       -0.005319295 -0.074264385 -0.10578874 -0.26155865
000100 9d 48 cb bd 13 d1 a9 bd 45 1d 04 3e 79 77 7a 3d
       -0.09925959 -0.08291831 0.1290179 0.061149094
000110 31 fb ad bd d2 3c 24 3d 1c f2 d7 bd 7b 3e 6e bd
       -0.084951766 0.040097065 -0.105442256 -0.058165055
000120 68 4a be bd bb ab ad 3d 61 62 0a 3e f4 a4 bd 3d
       -0.092915356 0.084800206 0.13514091 0.09259978
000130 62 dc 45 bd fc 9d 7a be 79 08 97 be 13 af 64 be
       -0.048305877 -0.24474329 -0.29498652 -0.2233241
000140 7c 64 dd bd fc 41 aa bd d1 75 83 bd 68 aa 64 3d
       -0.108101815 -0.08313367 -0.06418956 0.055826575
000150 49 83 05 3e 3d 2b d4 3c d4 70 0f 3e 94 c8 81 bd
       0.13038363 0.025899524 0.14007884 -0.06337085
000160 b8 0b 11 be 22 ac b8 bc a9 f5 94 be ce dc cc be
       -0.14164627 -0.022543017 -0.29093674 -0.4001221
000170 4e 82 c1 be 06 db 2c bd 10 71 07 be 63 f2 96 be
       -0.37794727 -0.042201065 -0.13226724 -0.294818
000180 d5 1d a7 bc b1 5b 5f be b7 1c 71 be 1d 6e a8 3d
       -0.020399967 -0.21812321 -0.2354611 0.082241274
000190 00 ff 10 be 0b 29 bc bd 7c 4f d8 bd 8f bf 59 be
       -0.14159775 -0.09187516 -0.105620354 -0.2126448
0001a0 0f 1a 7b be a4 86 b9 bd 41 37 4e be f2 3f 2b be
       -0.2452166 -0.09058884 -0.20138265 -0.16723612
0001b0 a5 d8 d4 3c 3b 1b 31 be ce ce 9a 3d 5f a3 47 be
       0.02598221 -0.17295544 0.07558976 -0.19495915
0001c0 4c 76 9d be d6 52 c8 bd 70 2b fe bd 98 55 65 be
       -0.30754316 -0.09781425 -0.12410629 -0.22395933
0001d0 0c 37 3c be 65 10 89 be f3 ae 8a bd 3d 64 15 3d
       -0.18380374 -0.2677032 -0.0677165 0.036472548
0001e0 fd 4a 5c be 3c 28 b2 bc b4 f1 6f be 89 e9 82 3d
       -0.21512981 -0.0217477 -0.23432046 0.063921995
0001f0 d2 45 06 3e 2a 33 2e be f3 79 98 ba 98 48 e6 39
       0.13112572 -0.17011705 -0.0011633023 0.00043923105

transformer.encoder.layers.0.linear2.weight f4 [32, 128]
000000 6f 49 df bc 9b 3d 41 3d 29 a5 24 bd 1c 9d da 3b
       -0.027256696 0.047177892 -0.04019657 0.006671561
000010 f3 06 06 3e c9 7b bf 39 14 9c 2d be 8e d2 1a 3d
       0.13088588 0.00036522586 -0.1695407 0.037798457
000020 55 0e 03 3e 69 f3 89 be 20 70 92 bd c3 d3 20 bc
       0.12798436 -0.2694352 -0.071502924 -0.009816113
000030 34 5c 2b 3e f6 81 9b 3c 01 3a 1d bd 30 a9 b8 3b
       0.16734391 0.018982869 -0.038385395 0.005635403
000040 7b ec 21 3e 39 06 01 3e 69 fb 87 be 9f 0a 07 3e
       0.15812866 0.1260003 -0.26558998 0.13187645
000050 65 2a 96 3e be e6 83 bd 3c 27 2f 3e 9a 6c c6 3a
       0.2932922 -0.06440495 0.1710481 0.0015138567
000060 0c 39 84 be 4f 28 17 3e dc 5a 38 bd 93 07 4e 3e
       -0.25824773 0.1476147 -0.045008525 0.20120077
000070 77 0e 78 3c ae d6 16 3d f6 f3 18 3e 8d 2c 1e 3e
       0.015140167 0.03682583 0.14936814 0.15446682
000080 5f 68 39 be 35 b6 80 bd ca d4 86 3e 02 7e 6d bd
       -0.1810622 -0.06284753 0.2633422 -0.0579815
000090 a2 ff 19 3e d7 38 88 be b1 90 b4 3d 21 12 05 ba
       0.15038922 -0.26605865 0.0881666 -0.0005076249
0000a0 a2 a9 d1 3d f8 a0 86 3d ce e2 18 bc be f4 78 3e
       0.10237433 0.06573671 -0.009331418 0.24312112
0000b0 8b 2b ba 3d 45 8f 14 3e 9e 9d 1f bd 9f 21 59 3d
       0.090903364 0.14507778 -0.038968675 0.05301058
0000c0 2d d6 65 be 38 f4 96 3c 42 4d c3 3d 7a 17 34 3e
       -0.22444983 0.018427 0.0953622 0.1758708
0000d0 12 d1 9e 3e f5 71 4c 3d 1c 55 ad bc ed a9 e0 bd
       0.31018883 0.049913365 -0.021158747 -0.10969911
0000e0 b6 77 03 be 4b 08 ba 3d e3 a0 0a bd 05 a3 ad 39
       -0.12838635 0.09083613 -0.03384484 0.0003311859
0000f0 fa 53 36 be d1 b1 8a 3e 07 0c ff 3c 16 ef 0b be
       -0.17805472 0.27088788 0.031133665 -0.13665423
000100 e4 d5 ec 3d de e9 af bc ca cb 27 3d 13 c6 2c 3e
       0.11564234 -0.021473821 0.040965833 0.16872434
000110 3a ff d9 3d 16 37 2d 3c c8 02 1a 3e 4e ef 59 3e
       0.10644384 0.010572216 0.15040123 0.21282694
000120 4c 47 21 3e 5d 8c d3 be d4 fb 30 be ca ec 90 3d
       0.15749854 -0.41318026 -0.17283565 0.07076414
000130 a7 08 e0 3d 27 05 47 be d4 b3 7b 3e f5 ec 70 be
       0.1093915 -0.19435559 0.24580318 -0.23527892
000140 dc e6 03 3e 59 c7 78 3d a7 3d cd 3e 14 61 28 3e
       0.12881035 0.060736988 0.400861 0.16443282
000150 b7 7f ce bd ed d9 7a be dd 6b 8f bd 93 88 64 3e
       -0.100829534 -0.24497195 -0.07002995 0.22317724
000160 60 0e 68 bb 73 b9 78 be 93 2a b2 3e f3 c1 d7 3d
       -0.0035408959 -0.24289493 0.34798107 0.1053504
000170 1f 60 01 3d 83 4f fd 3e 67 4d 27 3e 56 f3 aa 3e
       0.03158581 0.49474725 0.1633812 0.33388776
000180 e8 21 34 3e 60 8f ea bd f1 2a 08 be 46 fe 46 bd
       0.17591059 -0.11453128 -0.13297631 -0.048582338
000190 96 df be 3c 60 3c 4c 3e 21 bb 36 3e 43 1b a9 3e
       0.023299973 0.19944906 0.17844822 0.33028612
0001a0 b9 75 13 3d f0 b1 42 bd fa ff 90 3e 9d a3 c3 bd
       0.03600094 -0.047532976 0.28320295 -0.09552691
0001b0 e2 b2 6f 3e 5c 7a d5 bc 63 5e 0b 3e b1 dd 49 3e
       0.23408082 -0.026059322 0.13610224 0.19713475
0001c0 80 ff 1b bd 4f f3 5d be dc 41 b9 3c ca e3 fa 3d
       -0.03808546 -0.21674846 0.022614412 0.122504786
0001d0 2b 47 90 bd 51 66 de 3d b1 86 cf bc 0b 6c 42 3e
       -0.07044824 0.10859359 -0.02533278 0.18986528
0001e0 05 19 6b be cf e1 31 3d 0f 7b 38 3e d3 aa 89 3c
       -0.22958763 0.04342824 0.18015693 0.016805088
0001f0 c7 86 ad 3d a0 27 6d be b0 f9 04 bc c9 fb 73 be
       0.08472972 -0.23159647 -0.008116171 -0.23826517
000200 92 28 3f be da a9 38 3c 58 81 0f 3e 23 c2 11 3e
       -0.1866782 0.0112709645 0.14014184 0.14234214
000210 bb 58 fe 3d 10 9d 8c ba 59 f8 b8 bb 62 ea 65 be
       0.12419268 -0.0010727961 -0.0056448397 -0.22452691
000220 de 3e 2e bd fb 15 05 be 41 a0 90 bb 8e 7e 9f bd
       -0.042540424 -0.12996666 -0.004413635 -0.0778781
000230 86 f3 2b 3e 5f 61 9d 3d 4b 1d 75 bd 45 bc 3e 3e
       0.16792116 0.07684588 -0.05984239 0.18626507
000240 7e ae b4 3d bd 34 47 be 3a 7a 06 3d 9a 8e b4 3e
       0.08822344 -0.19453712 0.032831408 0.35265046
000250 a9 c4 86 3c 0c de 3d be d9 dc 1b 3e 5e e7 f6 3d
       0.016451197 -0.18541735 0.15220965 0.120558485
000260 11 cd d9 bd 28 19 0b be 0c 3d fa bd 5e da 14 3e
       -0.106348164 -0.13583815 -0.12218675 0.14536425
000270 98 14 1f be f2 4a 1d bd d1 d1 6a bd 2d 6e 99 3d
       -0.155352 -0.03840155 -0.057329003 0.074917175
000280 de 9c 24 be 44 54 f2 bd c5 13 a3 3e 27 eb 56 3d
       -0.16075465 -0.11832479 0.3185102 0.052470353
000290 53 57 58 bd 15 df 8b 3e 26 09 4c bc b2 af 08 bc
       -0.052817654 0.27318636 -0.012453353 -0.00834267
0002a0 74 b7 bd 3d 2e 14 2a be 60 95 a7 bd 1d a0 11 bd
       0.092635065 -0.1660926 -0.08182788 -0.035553087
0002b0 b8 0c 98 3e ca ad 06 be 76 6d ac bd 63 47 0c be
       0.29697204 -0.13152233 -0.084193155 -0.13699107
0002c0 f1 b3 e4 bc be 69 bc be a1 9e 35 be e4 17 06 be
       -0.027917834 -0.36799425 -0.17736293 -0.13095051
0002d0 70 53 50 3d 05 99 6f be 83 83 2f 3e e9 5f a2 3d
       0.050860822 -0.23398216 0.17140011 0.0792845
0002e0 d8 ed 12 be 80 d5 87 bd ad 8d 45 be 0d 59 8c bb
       -0.14348543 -0.06632519 -0.19292326 -0.0042830766
0002f0 63 45 10 3e 46 b3 cc bd b3 6c 62 be e0 2a 8a bd
       0.14088969 -0.09995131 -0.22111778 -0.06746459
000300 28 5a 67 3e a6 38 67 be 39 a1 a7 3c 6e d0 5d be
       0.22592986 -0.22580203 0.02046262 -0.21661541
000310 97 68 84 3d 08 93 86 bd 0c 83 12 3d 79 5f 1d 3b
       0.064652614 -0.06571013 0.035769507 0.0024013205
000320 42 ba 7e bc 56 2d f6 3c 63 dd 5d be b5 80 93 3d
       -0.015547337 0.030050915 -0.21666484 0.07202283
000330 3c 31 08 ba 47 de 2b 3c 6d 18 3b bd 14 0f b4 3d
       -0.0005195325 0.010490007 -0.04567759 0.087919384
000340 09 94 46 be 4e 77 0f be 38 ab d2 bd 2a 06 1d 3e
       -0.19392408 -0.14010355 -0.10286564 0.15334383
000350 d9 da 19 be 38 1d 1e 3e 9d d8 22 be fb 06 51 be
       -0.1502489 0.15440834 -0.15902944 -0.20412819
000360 35 dc 5c bd f2 8b 39 3e 5c 2c 81 be b6 9c 74 3e
       -0.053920943 0.18119791 -0.25229156 0.23887905
000370 22 fe c8 3d 77 8a a9 bd ac cc 68 bd 9f 2a 5f be
       0.09814097 -0.08278363 -0.056835815 -0.21793602
000380 2d c8 aa 3d 54 c6 d3 3c d9 a5 fc 3d 84 a8 12 3e
       0.08338962 0.025851406 0.123363204 0.14322096
000390 ec 26 4c be 3a cf d2 3b 0e dc 0d 3e 52 ab dd bd
       -0.19936723 0.0064333947 0.13853475 -0.108236924
0003a0 66 3f 3e bd fa 68 40 3e 41 e5 6c be 41 fc e6 bd
       -0.04644718 0.18790045 -0.23134328 -0.11278582
0003b0 45 1d d4 3d 43 d6 f4 3d 86 07 03 3e e8 5f 8b bd
       0.10357145 0.1195493 0.12795839 -0.06805402
0003c0 63 9c 7c 3e b0 fe 48 be f2 5f 6d be b7 f0 7a 3e
       0.24669032 -0.19628406 -0.23181131 0.24505888
0003d0 ec ba 48 3e 3a 4e 22 3e 50 40 18 be bb b4 ce bc
       0.19602555 0.15850154 -0.14868283 -0.025232663
0003e0 5b 07 13 3e 44 a5 6c 3d 3b 1c 93 3d 22 17 0c 3e
       0.14358275 0.057774797 0.07183119 0.136807
0003f0 21 2b 91 3e 21 3e 91 3d 7b a9 ee bd 7e 33 a9 3c
       0.28353217 0.07091928 -0.116534196 0.020654436

transformer.encoder.layers.0.linear2.bias f4 [32]
000000 61 6e 9b bc d8 05 09 3d 29 b1 de 3d b6 a6 86 3c
       -0.018973531 0.03345284 0.10873634 0.016436916
000010 e7 a9 0b be 85 9d 9e bd 07 dc 85 bc 3d f0 67 bb
       -0.13639031 -0.07744888 -0.016340269 -0.0035390996
000020 6d 69 34 bc 8e d3 c2 3d a0 61 0a bd 1b 45 18 bd
       -0.011011464 0.09513007 -0.03378451 -0.03717528
000030 12 99 1f bd 34 1c 53 bc 74 19 b8 3c 31 17 2d 3c
       -0.03896434 -0.012885142 0.022473074 0.010564611
000040 54 e8 60 bd b4 09 e1 bb 49 79 29 3d 5f eb bc 3a
       -0.054909065 -0.006867612 0.041375432 0.0014413408
000050 f5 89 d5 3a 8c b6 6a bd 6c 1a 71 3d 6d ce 1e 3d
       0.0016291725 -0.057302997 0.05886309 0.03877108
000060 3f 73 71 3b d4 c4 48 3c ac a3 a9 3d 64 fb 89 bd
       0.0036842374 0.012253959 0.08283171 -0.06737402
000070 1c 0a 82 3d d0 39 10 bd af f4 78 3d 3e 46 91 3d
       0.063495845 -0.035211384 0.060780223 0.07093476

transformer.encoder.layers.0.norm1.weight f4 [32]
000000 cd d7 5b 3f a4 e2 85 3f 1e 84 85 3f 26 0e 85 3f
       0.8587616 1.045979 1.0430944 1.0394943
000010 e6 66 80 3f ef 45 8f 3f 62 7d 88 3f 9e 2b 7c 3f
       1.0031402 1.1193217 1.0663264 0.98504055
000020 47 67 80 3f 9d ef 80 3f 8b 74 84 3f af d8 57 3f
       1.0031518 1.0073124 1.0348066 0.8431501
000030 68 ac 83 3f 15 c9 74 3f 9f bb 87 3f 86 5f 86 3f
       1.0286989 0.95619327 1.0604132 1.0497901
000040 6e da 65 3f 74 cb 6e 3f 1e 37 84 3f 01 50 7b 3f
       0.8978642 0.93279195 1.032932 0.9816895
000050 08 7d 74 3f 0c a7 8d 3f a2 59 92 3f 97 87 83 3f
       0.9550328 1.1066604 1.1433604 1.0275754
000060 1f 08 61 3f dd 6b 80 3f b5 0d 86 3f cd 34 73 3f
       0.87903017 1.0032917 1.0472933 0.9500244
000070 76 e8 90 3f 4f 5b 7e 3f 18 88 85 3f f3 72 82 3f
       1.1320941 0.99358076 1.0432158 1.019133

transformer.encoder.layers.0.norm1.bias f4 [32]
000000 97 90 15 3b fa 3b 94 3d 45 e2 19 bd df 44 5e bd
       0.0022821778 0.07238002 -0.037569303 -0.0542649
000010 56 74 df bd 4f 36 0c 3c 73 a5 c6 bc 1e ee 73 bd
       -0.10910861 0.00855787 -0.024248814 -0.059553258
000020 2d df 34 bc de a9 d6 bc 46 34 c1 bd 80 4d 1a be
       -0.011039537 -0.026204046 -0.094337985 -0.15068626
000030 4e 63 1e 3d 26 9f e0 3d e1 2b 80 bd c8 1b a1 3d
       0.038668923 0.10967855 -0.06258369 0.07866627
000040 2a d0 4d bd fb 30 39 ba c1 4f 09 be 51 2d 2f bd
       -0.05024735 -0.00070644886 -0.1340933 -0.042767826
000050 eb 31 42 bd 47 c3 a6 bd 72 19 f5 3c f4 5e bd bd
       -0.047410887 -0.08142715 0.02991936 -0.092466265
000060 f8 ea c3 3d 1c 22 39 3d 49 d8 8a 3c 25 59 89 3d
       0.09566301 0.045198545 0.016948836 0.06706456
000070 e5 48 0e 3e 14 f8 89 3e 01 78 07 bb 65 f5 49 bc
       0.13894995 0.2694708 -0.0020670893 -0.012326573

transformer.encoder.layers.0.norm2.weight f4 [32]
000000 2e 2b 5d 3f db 34 91 3f 9b cd 82 3f 3a 38 76 3f
       0.8639401 1.1344255 1.0218996 0.96179545
000010 31 39 82 3f 7c 1e 89 3f d5 dc 7e 3f fc 30 7d 3f
       1.0173703 1.0712428 0.9955571 0.9890287
000020 d9 b1 7b 3f 1b f0 60 3f 4b 24 8a 3f 51 d5 81 3f
       0.9831825 0.8786637 1.0792326 1.0143224
000030 06 66 93 3f f7 10 57 3f e0 b4 91 3f 02 fd 83 3f
       1.151551 0.8401026 1.1383324 1.0311587
000040 f8 54 62 3f 72 8f 50 3f 5e c1 8d 3f ca 69 85 3f
       0.884109 0.8146888 1.1074636 1.0422909
000050 1c 98 72 3f 5b c5 5e 3f 96 ff 93 3f 29 98 7b 3f
       0.9476335 0.8701989 1.1562374 0.9827905
000060 bd a7 7a 3f 36 7e 8c 3f 48 3c 7b 3f 59 4c 86 3f
       0.979122 1.0976017 0.98138857 1.049205
000070 70 00 85 3f 27 d0 6b 3f 1f d0 74 3f 8f cb 68 3f
       1.0390759 0.9211449 0.9563007 0.90935606

transformer.encoder.layers.0.norm2.bias f4 [32]
000000 fb 09 68 bd 74 f9 2c 3d 48 58 0e bd 9a 54 b4 bd
       -0.056650143 0.042230085 -0.03475216 -0.08805199
000010 5c b3 b9 bb fd 2b 6b 3d 16 a9 9c bd 2a 98 61 bd
       -0.0056671333 0.057414997 -0.07649438 -0.055076756
000020 9f 00 a1 bd 64 68 a4 bd 76 29 48 3c 55 d3 96 3b
       -0.078614466 -0.080277234 0.012216916 0.0046028295
000030 c3 29 0c bd b8 6c 32 bd 45 08 5c bd f3 e7 eb bc
       -0.034219515 -0.043560714 -0.053718824 -0.028797125
000040 fc fa 0a 3d 4f c1 01 3e 50 e0 f1 bb 66 41 9b bb
       0.033930764 0.12671398 -0.0073814765 -0.0047380207
000050 77 a2 05 3d ea 68 c4 3d eb 51 db 3c 67 86 e8 bc
       0.03262564 0.09590323 0.02677246 -0.0283844
000060 5b dc c5 3c ee a9 58 3d a6 e2 06 bd e1 7b fb 3b
       0.024152925 0.052896433 -0.032930993 0.0076746796
000070 d5 9e 55 3c 3b 74 95 ba 03 05 8d bc 48 f4 a4 3c
       0.013038357 -0.0011402437 -0.017214304 0.020136014
