期末项目/code/Transformer法/transformer_preprossing/models/best_model_20240613-155918.pth (torch, 530208 bytes, 129 tensors)

embedding.weight f4 [32, 15]
00000000: 364b 0bbf d375 fabb 1547 bb3d eadd a13e
00000010: 6838 2f3f abc8 38be 0c4c 053d 91f6 70be
00000020: c54c 1abe 9892 4ebe e9e2 543e 4655 9c3d
00000030: 9a0b a23d 32ab 3ebe 238c b0bd 4a03 c9bd
00000040: fbdd 81be 6446 923e 2200 90be 9a74 37bf
00000050: 430f aa3e decc d8bd 6240 833c f37a 9c3e
00000060: 75b9 403d 46a3 a93c fc3f 2b3e 0625 5fbe
00000070: 7a20 84be 7508 ebbd 782a 31bf c846 8ebd
00000080: b593 5a3e 2627 923d 3019 ad3e f067 283d
00000090: d2c2 a6bd fa50 b23e fe78 c8bd 8f8c 1fbe
000000a0: 07bd bf3d 2d38 f23d e691 463c 6533 813e
000000b0: 9328 e23d 506d d63e 467e edbd 8ddd 8b3d
000000c0: 3820 2c3b 2a0d 0dbc 17e1 bf3e bca3 7f3e
000000d0: 95e2 7cbe 7623 c7bd 69ae 78be f195 a1be
000000e0: 13a4 003e d946 7a3e f3aa 7e3e d7bd 0abe
000000f0: 50fe 823e 1b9a 563d 16a8 05be b2af 16bc
00000100: 4ba5 a6be c8de f93e b610 a5bb c22d ddbd
00000110: f50a 853d cf99 683e 2691 7b3e 0bac 56be
00000120: f0e9 893e c784 2fbe 5102 34be 2e8b 81be
00000130: fecb 5fbc ce6d 5fbe b643 0abe f925 333e
00000140: e1ac 5abf f987 75bd da51 1fbe 2d6c 033e
00000150: 9d7f a23a 5917 e03d 2b3d 363d f73e 2e3d
00000160: 9c3b c43c 08bd 803e 2bd2 a83e 82bb 08be
00000170: 679b 89bd 63bc 743e cf0f 0e3d 2f67 b73d
00000180: df31 3dbd 8afe 25bd a6c7 5f3e 2850 af3c
00000190: adea 2ebe 5355 cb3d b77c ddbd 8a6b 2fbe
000001a0: 783a ce3d 946a 043f b33a 7c3b 01ab a0be
000001b0: 11b4 a13b 9216 c9be 8d2c 0fbf c634 63be
000001c0: 7bdb a63b 0f21 06be 37cb 51be d2d3 973e
000001d0: 6fdd 40bd 305b 61bd 001c a1bd c84b 8d3e
000001e0: 6217 07be fe58 86bc bb26 793e 7942 6e3d
000001f0: acfc 373f c8b5 d53e 772f 9bbb 2e03 9bbe
00000200: 67be 01be e6a9 d53d bae8 b93e 2f2d a93d
00000210: 2922 07be 2732 85bc 3f44 00be f9a1 bc3e
00000220: 7f86 6d3e ef21 6f3e d41d cf3d 1741 9d3d
00000230: e38e 8ebd 266f da3d edd1 40be 4400 8fbe
00000240: c93d fdbd 8b9e 79be cfc2 10be 2d54 0b3e
00000250: 9c06 6dbe 98c7 0d3d aed0 f13d 9fb2 733d
00000260: 3a53 e13b 7de0 04be ca21 52bf 6da5 32bf
00000270: b822 8fbd 5ef6 253e f010 c7bd c18b 4b3d
00000280: bc3e 573e c138 843e 9b95 e7bb 4bc4 023b
00000290: 0105 963e 3232 12bf 3da6 aebd 93a6 b1be
000002a0: 5b56 40be 5bf7 53be 045b c8bd e43f 5e3e
000002b0: b329 03be bcee a0be 65f9 3bbe d016 02be
000002c0: 89c3 8b3e a242 8dbe 3c74 203e f2d2 40be
000002d0: 167c 23bf dca0 90bc c9cb 9abd 98b4 88bd
000002e0: 61ab 48bd 05d3 143f b0dd 70bd b70c 56bc
000002f0: 6e71 57be c4df ce3d 2b91 833d a0c5 cfbd
00000300: c0e8 6c3d 9442 54be 5c83 5dbe 3e14 9bbe
00000310: 1bbf 943e ad63 7f3d 8938 20be 4e37 c13d
00000320: 6024 613f 272e 13bd 097e 0a3e 0192 39bc
00000330: 7f74 163e a196 04be a251 833d 8bf0 843e
00000340: c16c 43bc 895f 4a3e 06f3 e6be 5858 2bbd
00000350: 2696 e03c f5b8 6a3e 7b07 8abf b6cd cabe
00000360: 2aaa b13e c530 0abe bc9d 78be b840 febd
00000370: dfd2 513d c324 593e 1c45 c83d 8484 3a3e
00000380: 20bd 303e 20c2 1abf 63e3 05be 34f4 a8be
00000390: cc40 073c 10fe 533e 927b 01bd adcc 643e
000003a0: 865d 6a3d 3973 49be e1dc 313e a77a 523d
000003b0: 09be 4e3e ebf0 093e 83b3 c43e eb74 9fbe
000003c0: 66d9 233f 7b3b 113e d20f 8cbe a2bf 8c3e
000003d0: 4992 53bd ec61 113f e7b2 e6bd acbb 813d
000003e0: 6712 30bd f21c 913d 873c af3e 9904 b2bd
000003f0: 3872 a0be 5e30 933e 297f 483e 64b2 3dbf
-0.5441164 -0.0076434403 0.09144417 0.3161462 0.68445444 -0.18045299 0.032543227 -0.23531558
-0.15068348 -0.20173109 0.20789684 0.07633452 0.07912369 -0.18619993 -0.08620479 -0.098150805
-0.2536467 0.2856933 -0.281251 -0.71662295 0.3321477 -0.1058595 0.016021911 0.30562553
0.047051866 0.020707738 0.16723627 -0.21791467 -0.25806028 -0.114762224 -0.6920543 -0.06947094
0.21345408 0.07136373 0.3380828 0.041114748 -0.08142628 0.34827405 -0.097887024 -0.15580963
0.09362226 0.11827121 0.012119746 0.25234523 0.11042895 0.41880274 -0.1159635 0.06829367
0.002626432 -0.008609096 0.37476417 0.24964803 -0.24695809 -0.097235605 -0.24285282 -0.3155971
0.1256259 0.24441089 0.248699 -0.1354898 0.2558465 0.05239306 -0.13052401 -0.009197162
-0.32547984 0.4880278 -0.0050373925 -0.10799743 0.064962305 0.22714923 0.24567088 -0.20964067
0.26936293 -0.17140494 -0.17579009 -0.25301498 -0.013659475 -0.21819231 -0.13502392 0.17494954
-0.8542004 -0.059944127 -0.15558568 0.12834235 0.0012397651 0.10941953 0.044491928 0.042540517
0.023954205 0.2514422 0.32972845 -0.13352779 -0.06719094 0.23899989 0.034683045 0.089552276
-0.04619014 -0.04052595 0.21853504 0.021400526 -0.17081709 0.09928384 -0.10814803 -0.17130867
0.10069746 0.51725125 0.0038487136 -0.31380466 0.0049347957 -0.39275032 -0.55927354 -0.221881
0.005092082 -0.13098548 -0.20487677 0.29653794 -0.047086176 -0.055018604 -0.07866669 0.2759688
-0.13192514 -0.016399857 0.24331181 0.058168862 0.7186992 0.4174025 -0.004735883 -0.30275863
-0.12670289 0.10432796 0.3631037 0.08260571 -0.13196625 -0.016259266 -0.12526034 0.36842325
0.23195837 0.23352788 0.10113111 0.076784305 -0.06960847 0.10665731 -0.1883008 -0.2792989
-0.123653 -0.24376886 -0.14136814 0.1360633 -0.23147053 0.034614176 0.118073806 0.05949652
0.0068763765 -0.1297626 -0.8208281 -0.6978367 -0.06989044 0.16207263 -0.097200274 0.049693827
0.21020025 0.2582455 -0.007067395 0.0019953426 0.29300693 -0.5710784 -0.08527801 -0.346974
-0.18782942 -0.20699827 -0.09782985 0.2170406 -0.12808876 -0.3143214 -0.18356855 -0.12704015
0.2729762 -0.275899 0.1566934 -0.18830469 -0.63861215 -0.017654829 -0.075584 -0.066750705
-0.048991565 0.5813449 -0.058805168 -0.013064555 -0.21039364 0.10101274 0.06424173 -0.10145116
0.057839155 -0.20728523 -0.21632141 -0.3028888 0.29052052 0.062350918 -0.15646566 0.09434377
0.8794613 -0.035932686 0.13524641 -0.011326314 0.14692877 -0.12948085 0.064120546 0.2596477
-0.011927784 0.19763006 -0.45107287 -0.041832298 0.027415346 0.22922118 -1.0783533 -0.3961007
0.34700137 -0.13495167 -0.24278921 -0.12414688 0.051226493 0.2120543 0.097788066 0.18214613
0.17259645 -0.6045246 -0.13075022 -0.32998812 0.008255195 0.20702386 -0.031611986 0.22343703
0.057218097 -0.1967286 0.17369415 0.0513865 0.2018968 0.13470809 0.38418207 -0.3114389
0.640036 0.14182846 -0.2735582 0.27489954 -0.05165318 0.5679004 -0.11264592 0.06334624
-0.0429863 0.07085599 0.34225866 -0.08692283 -0.31337142 0.2874784 0.19579758 -0.7410033

embedding.bias f4 [32]
00000000: 9be7 02bf fced f3be f2ed 7b3e 246f ed3d
00000010: 4e2d 0b3f a84f c83e 4565 49be f926 81be
00000020: 9b8d c83e 1f96 03bf 2494 ef3e 6faf 2ebe
00000030: 2b9a b93e 5390 e9bd b10c 19be 2554 f3bd
00000040: a985 463e eb1a 973e 831b c2b9 ee48 fdbe
00000050: cf74 c1be e5ca 04bf 2821 cf3e ad7d edbe
00000060: 2eb9 d23c 3a40 ab3e a34e 28bd b12d 9fbe
00000070: 94f1 253e 9e6d d53e 46b2 c9be 3dc5 b4be
-0.5113465 -0.47642505 0.24602488 0.11593464 0.54366004 0.39123273 -0.19667538 -0.25225046
0.39170536 -0.5140094 0.4679271 -0.1705911 0.36250433 -0.11404481 -0.14946248 -0.11881284
0.19386925 0.29512724 -0.0003702306 -0.49469703 -0.3778443 -0.5187209 0.40454984 -0.46384946
0.025723066 0.33447438 -0.04109062 -0.31089547 0.16205436 0.41685194 -0.39393824 -0.3530673

transformer.encoder.layers.0.self_attn.in_proj_weight f4 [96, 32]
00000000: 4812 60be 70f1 ed3d a5e5 bb3d 0ef1 6f3d
00000010: 556c 283d 5640 493d 6501 bdbd 1648 47bd
00000020: 252b 6dbe be3c 773e 00f2 ffbd 61d7 363e
00000030: 0a9c 5dbd 12f2 f5bc 847d 393e 66b8 493e
00000040: 010c c2bd 5dfd 94be 8c02 e9bc bb6e 563e
00000050: 4ebc 31bd 5a3d 08bd d7b7 8dbd 6d0a 933d
00000060: 7691 2d3c 2cb2 e0bd 4937 d9bb 2b35 bcbc
00000070: 9cf3 1cbe 4ce0 3fbe 561c 41bd c826 073d
00000080: 2c7d c7bd ee2e b1ba 7b04 d3bd 0516 0a3e
00000090: d9f4 55bd 3c87 6e3d 1598 223d c5b1 08be
000000a0: 6d72 59be 558c 4dbe 126e 87be cf3e 653e
000000b0: 4422 41be 4d23 2fbe eb74 083e ef8e 893e
000000c0: e5ea 94bd 2af2 ce3d b233 6abe 30db 18be
000000d0: 29b6 b73d a4f4 96be f38c 1d3e 7bc9 953d
000000e0: 618c ef3d 0a4c 283e aad4 8abd 075c a43e
000000f0: b6a4 2f3d 4071 98bd ad3c 24be fd64 52be
00000100: e866 933d 9b7a 7cbc f061 383b f4dc 93bc
00000110: d251 4a3e 979a 44bd aadf 243e fa62 ef3d
00000120: 3933 80be e84d b23c f4cd eebd 69b4 d2bc
00000130: ac1c 953e 07a6 42bc dbb2 8bbd acaf 053e
00000140: 820e fd3d 1c4a d438 64c8 fb3c 2267 13be
00000150: 9d9e 8c3e 1792 133e c9dd 14be e3e1 03bd
00000160: c318 453e f0e4 e03d 69a1 2f3e 0396 6c3e
00000170: 6642 633e a517 0bbe 66ed 5f3d da4a 8fbe
00000180: 574d f8bc e253 b2bd 1d47 f2bd d375 97bd
00000190: b933 fabd 1ec2 ffbd 7edb 12bc 5bd2 33be
000001a0: 5b06 c43e 275f 793d 0b7a f3bd b2b9 1cbc
000001b0: fd01 46be 9eda 9dbe 9cbf f33d 9220 80bd
000001c0: 0a25 383e 6ea7 983d 8341 1f3e 290b b83e
000001d0: 8b82 54be ab54 85be 0b2c fe3d 4cde 06be
000001e0: a90a 70bc 2e82 5cbe ba63 6abd bc4f 8bbd
000001f0: 3964 9ebe 17d4 1dbc 1a76 67be 42ae 633c
00000200: e93d 84be e8fa e3bd 131e 35bd eb41 7f3e
00000210: 3386 74bd 8985 d9bd c495 04be 4f43 ea3d
00000220: 9418 a8be 55a3 033e 8c67 d03d 3b74 6fbb
00000230: 4cf2 a6bd c809 2b3e 7b6e 06bd 3f2c 68bc
00000240: a616 19be e639 1e3d 9c38 b0bc 139b 17be
00000250: 983a 293e 07f0 b33d 8892 70bd 68ff 19bc
00000260: 221f 793d bbe2 fb3a e593 21be 61e1 123e
00000270: 42b5 0b3e 0de5 dbbd 469d 873e bad0 d8bd
00000280: 4ec4 0abe 54df 0ebe f2be 0a3e 142e b7bd
00000290: 1929 2abe 1aa7 0bbe 211b 8a3d 3a09 2dbe
000002a0: ecfc 0f3e be1c 7ebc 0520 e4bc 36b0 003d
000002b0: 73c6 813e c5db 79bd d532 aa3d 05e0 8fbe
000002c0: b151 dc3b 6d91 25be 0493 583e 8457 83be
000002d0: e3d0 a1be 345e f7be 0c1b 5c3e e4bb 9dbe
000002e0: dadb 60be 4c14 8c3d 44c7 1d3e 7dc0 71bd
000002f0: 88cf c93d 2031 213e 560d aebe adeb 853e
00000300: 16d0 6abe 84ae e4bd 051c 133e 2e41 313e
00000310: adfa 0cbe ea66 233c 8234 133d 9b1f 6cbd
00000320: 89d7 51be 089f 153e 57ff a83d aa7a 933e
00000330: ec82 6cbe f0e0 7b3c ada7 7b3e 35bc b9bd
00000340: 2d22 03bd 54d7 a9bc d09e 5b3e 5835 353d
00000350: 1e3e c63d 5907 433c dee4 1c3e 56f2 ec3d
00000360: 2641 1abe 6158 6bbc 1912 f63d f13c d73d
00000370: 55c1 ce3d 3cdf 5fbe 5b1a 1bbe b8df 0c3d
00000380: c247 2ebd 4262 c1bd 44b7 ad3e 6d24 e6bd
00000390: 0a2c 2f3d a459 9b3d a5d9 b2bd e70a cb3d
000003a0: 06ac 973e 50b5 82bd 28aa 5d3d 551f 053e
000003b0: 6aa2 e83c b393 943b d615 a4bd c45e 65be
000003c0: 36c2 9a3e 3109 fe3d 89e3 a63d 16ba 55bd
000003d0: 0752 8dbd b348 3ebd c5b9 69bc d182 e9bd
000003e0: 1b21 4e3d 2c74 1fbe ac36 853b f4cf 01be
000003f0: 6ba3 9ebc 4538 8e3c 412d 67be ed6d ee3d
-0.21881974 0.11618316 0.091746606 0.058579497 0.04111894 0.04913362 -0.092287816 -0.04865273
-0.2316099 0.24144265 -0.1249733 0.17855598 -0.05410389 -0.030022655 0.18114287 0.19699249
-0.09474946 -0.2909955 -0.028443597 0.20940678 -0.043392472 -0.033261634 -0.0691983 0.07179723
0.010593763 -0.109714836 -0.006628905 -0.022974571 -0.15327305 -0.18737906 -0.047146164 0.03299597
-0.097406715 -0.0013518014 -0.10303589 0.13484962 -0.052235458 0.05823444 0.039695818 -0.13349064
-0.21235056 -0.20073064 -0.26451164 0.22387241 -0.18860728 -0.1710331 0.1332585 0.26866862
-0.07271365 0.10104783 -0.22871283 -0.14927363 0.08970291 -0.2948352 0.15385799 0.0731382
0.11696697 0.16435257 -0.06778844 0.3210146 0.04288169 -0.07443476 -0.16038771 -0.20546336
0.07197362 -0.015410091 0.0028134547 -0.018049695 0.19757774 -0.04799899 0.16100946 0.116888
-0.2503908 0.021765664 -0.11660376 -0.025720792 0.29123437 -0.011880404 -0.06821223 0.13055295
0.12356283 0.00010122752 0.030735202 -0.14394811 0.27464762 0.14411198 -0.1453773 -0.032197844
0.19247727 0.10981166 0.17151417 0.231041 0.22193298 -0.13583238 0.05466976 -0.27986795
-0.030310316 -0.087074056 -0.1182997 -0.0739552 -0.122168966 -0.12488197 -0.008963464 -0.17560713
0.382861 0.06088176 -0.11888512 -0.009565758 -0.19336696 -0.30830854 0.11901781 -0.06256212
0.1798288 0.0745381 0.15552334 0.35946015 -0.20752923 -0.2604116 0.12410744 -0.13170737
-0.014650979 -0.21534035 -0.057224013 -0.068023175 -0.3093584 -0.009633086 -0.22603646 0.013896527
-0.25828484 -0.11131841 -0.044218134 0.2492749 -0.059698295 -0.10621173 -0.12947756 0.11438619
-0.32831252 0.12855275 0.10176 -0.0036537785 -0.08151683 0.1670295 -0.032820206 -0.014170705
-0.14950046 0.038629435 -0.021511368 -0.1480525 0.16526258 0.08786016 -0.058733493 -0.0093992725
0.060820706 0.0019217351 -0.15779074 0.14343788 0.13643363 -0.10737047 0.26487178 -0.105866864
-0.13551447 -0.1395238 0.13549402 -0.089443356 -0.1661724 -0.13637963 0.06743456 -0.16898051
0.14061326 -0.015509782 -0.0278473 0.031418048 0.25346717 -0.061000604 0.08310477 -0.281006
0.0067236056 -0.16168757 0.21149832 -0.25652707 -0.3160468 -0.4831406 0.21494693 -0.30807412
-0.21958867 0.06839809 0.15408045 -0.05902146 0.098540366 0.15741396 -0.3399455 0.2615637
-0.22930941 -0.11166099 0.14366157 0.1731002 -0.137675 0.009973267 0.035938747 -0.05764733
-0.20492376 0.14611447 0.08251827 0.28804523 -0.23096818 0.0153734535 0.24575682 -0.09069101
-0.032015014 -0.02073256 0.21447301 0.044240326 0.09679817 0.011903607 0.15321681 0.115696594
-0.15063915 -0.014364333 0.120151706 0.105096705 0.10095469 -0.21862501 -0.15146773 0.034393042
-0.042548902 -0.09442569 0.33928883 -0.112374164 0.04276661 0.07585457 -0.08732919 0.09914189
0.2962343 -0.06382239 0.05411735 0.13000233 0.028397758 0.0045342087 -0.080119774 -0.22399431
0.30226296 0.12404097 0.08148868 -0.05217942 -0.06900411 -0.04645605 -0.014265482 -0.114019044
0.05032454 -0.1557166 0.0040653553 -0.12676984 -0.019365033 0.017360816 -0.22575857 0.116420604

transformer.encoder.layers.0.self_attn.in_proj_bias f4 [96]
00000000: 72cb 3dbe 931c 02bd 33b9 b4bd 3e6e 113e
00000010: ae84 02be 6fb7 973e 7fa9 78be 2092 563e
00000020: 230e 2f3d 4ed8 22be 5811 dbbd 01d6 41bb
00000030: c083 283e 091d 2fbe 462d 933b 3ca9 10bd
00000040: 48c8 aebe 8ec2 90be d908 ea3e 4551 94be
00000050: 1110 96be 0541 d63d f2ef ce3e 84b8 f23e
00000060: 0315 97be ba67 c7be cab4 353e 8a80 9ebe
00000070: 6ddc 28be ecb8 a53d b4fa a63e 7b32 c0bd
00000080: 97bc fc3b b746 653b 6ef4 b2bb b375 8e3b
00000090: bb9e c2bb 04f8 d6bb 4d55 01bc 09bb afb9
000000a0: 835f 5abb 9fb7 1939 6dc1 783b fa3c 433b
000000b0: bbcc dcbb a784 6b3a d377 8eba 26bd 4a3b
000000c0: 99d5 aa3c 30be 113d add3 b93c 5c85 23bd
000000d0: a5be 23bc a6b2 82bc 2c28 8cbc 3844 18bd
000000e0: d967 413a c2d1 e23a e15a 8fba d73e 01b8
000000f0: a96b 0cbb 7038 5a39 b1b4 3a3b 3608 7e39
00000100: 8c4a 013d ca5d 103e 9d56 abbd b549 293b
00000110: ef86 06be a55d 64be 5abb 12bc f542 0dbd
00000120: 7125 303e 7252 5bbc d317 123d 1cec 773c
00000130: bb7a 903d ce75 9ebc bce0 993d 1aa0 15be
00000140: 6ea7 ec3e 008e f9bd a371 4dbe d7f3 efbc
00000150: a3eb b43d 5290 94be 4184 343e f773 583e
00000160: bc98 a83e 6d65 9c3d d0e1 b2be 6fc7 553e
00000170: c33a d1bc c2b6 803d 9078 59be 2410 f4bd
-0.1853464 -0.03176553 -0.088243864 0.1420221 -0.12745926 0.29632136 -0.24283408 0.2095418
0.04273809 -0.15902826 -0.106966674 -0.002957702 0.16456509 -0.1710092 0.004491481 -0.035317644
-0.34137177 -0.28273433 0.45709875 -0.28968254 -0.29309133 0.1046162 0.4041744 0.474064
-0.29508218 -0.38946325 0.17744747 -0.30957443 -0.16490336 0.08091912 0.32613146 -0.093846284
0.0077129113 0.0034984776 -0.005461267 0.004347527 -0.0059393323 -0.0065603275 -0.007893872 -0.00033517953
-0.003332109 0.00014659621 0.0037957088 0.0029790984 -0.006738273 0.00089843053 -0.0010869451 0.0030935495
0.020853804 0.035581768 0.022683943 -0.039922103 -0.009994184 -0.015954327 -0.017109 -0.037174433
0.000737784 0.0017304944 -0.0010937118 -3.081452e-05 -0.0021426475 0.00020811125 0.0028489048 0.00024226386
0.031565234 0.14098278 -0.083661295 0.0025831286 -0.1313741 -0.22301348 -0.008955801 -0.034487683
0.17201783 -0.013386356 0.03566725 0.015131976 0.07054659 -0.019343283 0.07513568 -0.14611855
0.4622149 -0.121852875 -0.2006288 -0.029291077 0.08834007 -0.29016358 0.17628576 0.21137987
0.32929027 0.07636533 -0.34937906 0.20876859 -0.025540715 0.06284858 -0.21237397 -0.11917141

transformer.encoder.layers.0.self_attn.out_proj.weight f4 [32, 32]
00000000: 3620 82bb 6d25 36be 639c 0bbe ab31 763e
00000010: a4de b5be 82b9 4d3e e261 a63d 0975 703d
00000020: 3765 86be cd51 edbd 2b2d 49be 9616 a83d
00000030: 7206 4e3d 6862 39be a185 033e 6557 fe3d
00000040: b737 02bf f23d ddbd f75b 08be 4133 52be
00000050: f7d1 54be 4898 a63e 58f5 593e c5a1 84be
00000060: 675a fd3d 43fe 37be ea46 6b3e cb3f 313e
00000070: 547b 14be 33fd 2c3e 9cf2 133d 1dc8 533e
00000080: faf9 d33d 436d 08be 0e85 7dbe 094f f33d
00000090: 3543 cbbd c264 59be d60c 093e a121 5e3e
000000a0: 8987 6a3e 26bd cbbe 80f4 debd 9c9a 91bd
000000b0: 5a8e 88be 44b5 46be 64be 903d 3c94 80be
000000c0: d165 05be ee13 a6be 91a4 0cbe f000 0a3d
000000d0: 9eed 3ebe fcd6 2c3d d2f7 f2be 4c57 2bbe
000000e0: cc57 94be a6a8 1dbd e5d4 a7bd 4940 943e
000000f0: 6694 da3b 0451 6bbe 40de c13c 00bc 85bd
00000100: d8cb 8fbd 114a a1bd b36d 1b3e a615 963e
00000110: 6d51 813d 921c d7bd f306 e4bd d71c 90be
00000120: 4f2e 8e3e 75a1 633d b2ed 3ebe f283 7bbe
00000130: e868 00be 7be1 64be 08db 23bd a811 843e
00000140: f3af 883c 3896 aa3e 4bd9 8fbe 2d43 89be
00000150: 9fd3 cb3d 0221 7d3e 7546 5ebd 9b6a 703d
00000160: 206d 213d 82d3 773e a446 3cbe a555 3bbe
00000170: 8120 8bbd 07b8 5c3e 0757 563e 79e2 a8bd
00000180: 40d2 983d 366e 4fbe d0ee 663d 3f0a 4bbe
00000190: 247c a1be 2d56 1c3d b454 fdbd dfb8 203a
000001a0: 5e88 a2be 155d 45be 6e0f 8ebe 6e77 233e
000001b0: 06d7 10bc 1084 88be c71d 9f3b 12e0 8f3e
000001c0: fd7a 85bd 1bf5 c6bd 5a48 f0be 26e4 363c
000001d0: 9099 063e a3d9 2e3e 10a6 dc3e 5405 71bd
000001e0: cd26 49bd 900a 0c3e 6cfc f6bd f047 813d
000001f0: 832c efbd a72b 9fbb 083c 77bc 6da1 8a3e
00000200: efca 12bd 890e 5e3b 5846 a6be 2e86 5cbe
00000210: 29cb 41bc 865c bcbd 3d0c 9abb ebe3 cc3d
00000220: 119f 60be 3ccc 80be d007 563e e6a6 2a3e
00000230: 9006 82bd 58d5 35be e4be abbd 7ac3 273e
00000240: 5ea3 f23e cdd6 64be 080a c3bd bc40 743d
00000250: cbc6 b2bd 3b5f 21be 2d70 123c 3ffc f43d
00000260: 1b39 113d 837a 4cbe 1301 3ebc aeef 493e
00000270: 3c1b af3d 57f2 5b3d abb5 8dbe dfdc 82bd
00000280: 7403 79be e12d 08bd 07e6 513d b84d 5f3e
00000290: 1265 20be b4c9 563e c6ca 39be 0a46 683e
000002a0: 4802 4c3e 66d4 23be a19d 533e b339 32be
000002b0: 8841 063e 2fa4 c03d 6781 9a3e 8b0c 823e
000002c0: da80 903e b91b 8abd f7fd d4bd 86dd 50be
000002d0: 9a64 a4bc 751e 453e d42d 023e ef45 a2bd
000002e0: 4b65 363c 71dd e93c a577 0dbe 9add 3fbe
000002f0: ea44 043e 46ac ce3b 8a8d 29be 2e67 123c
00000300: 4a59 a6bd 8ba6 44be 5fa7 01be 18da 3bbe
00000310: d55d 6bbe 92a8 2e3c 87f9 b3bd c2ab 543e
00000320: 8782 93be 7b01 98be 0fc8 68be c79a c7bd
00000330: 8ed8 943d ad6b 383e f938 33be ae08 a33e
00000340: fd6a 0cbe e9fa cf3e 4404 2bbe a7ef 843e
00000350: 9683 b6be 8078 babc 4882 e6bd 711c 84be
00000360: c1d6 1fbe 5bcd 74be a004 4a3e 9cfb a6be
00000370: e52a a23c 5578 56be 7f17 233e 0c29 ef3d
00000380: dd53 053e 8af0 953d 1d18 bf3d 6ff8 5a3d
00000390: d226 003e 5ef1 90bd baa7 13bc 4243 883e
000003a0: 5b4d debe ee36 9e3e 18bb 6fbd b0d3 5d3e
000003b0: 5e0e 6a3d d756 1bbe f365 4b3e 14a9 cfbd
000003c0: 0be4 173e 121f 55be 48df 80bd 887a 9abe
000003d0: 3c80 743e 1fed 103e 261c 0a3e 65e6 a93d
000003e0: 7ae6 0abe 26a7 203c c515 333e aa90 a03e
000003f0: e199 f13d 74ca f5bd 39f4 c33b 76e6 a83d
-0.003971125 -0.17787714 -0.13633876 0.24042384 -0.35521424 0.20090297 0.081241384 0.058705363
-0.26249096 -0.11587868 -0.19646136 0.08207433 0.050299115 -0.18103945 0.12843944 0.12419013
-0.50866264 -0.10802831 -0.13316332 -0.20527364 -0.2078322 0.32538056 0.21284997 -0.2590467
0.123707585 -0.17968087 0.2297627 0.17309491 -0.14500171 0.16893463 0.036120042 0.20681806
0.103504136 -0.1332293 -0.24757788 0.11880309 -0.09924928 -0.21229842 0.13383803 0.21692516
0.22903265 -0.39792746 -0.108864784 -0.071095675 -0.26671106 -0.19405085 0.07067564 -0.25113094
-0.13027121 -0.3243708 -0.13734652 0.0336923 -0.18645331 0.042197213 -0.47454697 -0.1673252
-0.28973234 -0.038490914 -0.08194903 0.28955296 0.0066705225 -0.22980124 0.023665547 -0.06529999
-0.07021302 -0.07875455 0.15178566 0.2931339 0.06314359 -0.10503496 -0.11134138 -0.28147003
0.27769706 0.0555739 -0.18645361 -0.24562052 -0.12540019 -0.22351639 -0.040003806 0.2579472
0.016685462 0.33317733 -0.2809547 -0.26809064 0.09952473 0.24719623 -0.05426641 0.058695417
0.03941071 0.24201778 -0.18386322 -0.1829439 -0.06793309 0.21554576 0.20931636 -0.08246321
0.07461977 -0.20256886 0.056380093 -0.19828127 -0.31540024 0.03816812 -0.123696715 0.00061310636
-0.31744665 -0.19273789 -0.27746147 0.15963528 -0.008840328 -0.26663256 0.0048558447 0.2810064
-0.06517599 -0.09714719 -0.469302 0.011162793 0.13144517 0.1707521 0.43095446 -0.058842972
-0.04910927 0.13675904 -0.120598644 0.06312549 -0.11678412 -0.0048574987 -0.015089996 0.27076283
-0.035838064 0.0033883175 -0.32475543 -0.2153556 -0.011828222 -0.09197335 -0.004701166 0.100044094
-0.21935679 -0.25155818 0.20901418 0.16665229 -0.06348908 -0.17757165 -0.08386019 0.16383162
0.47390264 -0.22347565 -0.09523398 0.059632048 -0.08729323 -0.15758984 0.008937878 0.119621746
0.03545485 -0.1996861 -0.011596936 0.19720337 0.085501164 0.05369791 -0.27677664 -0.06389784
-0.24317724 -0.03324688 0.05124476 0.21806991 -0.15663555 0.20975381 -0.18143758 0.22682968
0.19922745 -0.15998992 0.206656 -0.17404823 0.13110936 0.094063155 0.3017685 0.25400195
0.28223306 -0.06743569 -0.104000024 -0.20397004 -0.020067502 0.192499 0.12712795 -0.07923495
0.011132549 0.028547974 -0.13815172 -0.18736878 0.12916914 0.0063071577 -0.16557899 0.008935733
-0.08122499 -0.19204156 -0.12661503 -0.18344915 -0.22985013 0.0106603075 -0.08787828 0.20768645
-0.28810522 -0.2968863 -0.22732566 -0.09746318 0.07267867 0.18009825 -0.17502202 0.3184256
-0.13712688 0.40621117 -0.16700846 0.2596409 -0.35647267 -0.022762537 -0.11255318 -0.2580295
-0.15609266 -0.23906462 0.19728327 -0.32613838 0.019795844 -0.2094434 0.15926932 0.11677751
0.13020273 0.0732127 0.09330771 0.05345958 0.12514809 -0.07077287 -0.009012157 0.26613814
-0.43418393 0.30901283 -0.058528036 0.21662784 0.057142608 -0.15169846 0.1986311 -0.10139671
0.14833085 -0.20812634 -0.062925875 -0.3017161 0.23877043 0.14152955 0.134873 0.082958974
-0.13564482 0.009805476 0.17488773 0.3136037 0.11796928 -0.120015055 0.0059800413 0.08247082

transformer.encoder.layers.0.self_attn.out_proj.bias f4 [32]
00000000: afd3 a8be a915 24be 5b6a ebbd 13e3 2a3e
00000010: cc06 af3e 29fc 8d3e 2f43 56be 7678 643d
00000020: 64ba 6f3e a314 51be 15e2 673e 9ab9 2dbd
00000030: f6b6 cb3d edc7 8ebe cd91 61bd 442e 88be
00000040: b7b5 f53d a59d 383e 5ea2 a43e 08dd 06be
00000050: 517b 7a3e d792 6cbe 83a2 a13d 6b94 3dbe
00000060: 077d bb3c 7e70 6d3e 6249 3fbe 6043 14be
00000070: b895 543e f38a b03e 24ed fabd e26a a6bd
-0.32974002 -0.16023888 -0.11494895 0.16688184 0.34184873 0.27731445 -0.20924066 0.055778943
0.23410946 -0.20418029 0.22644837 -0.04241333 0.099470064 -0.27886906 -0.055070687 -0.26597798
0.1199755 0.18028887 0.32155126 -0.13170254 0.24461104 -0.2310289 0.07892325 -0.18513648
0.022886766 0.23187444 -0.18680337 -0.14478827 0.20760238 0.3448101 -0.12252262 -0.08125855

transformer.encoder.layers.0.linear1.weight f4 [128, 32]
00000000: 5ea4 363d 0b8e 4b3e 47f6 443e af79 f83d
00000010: 8dd5 c13d e277 17be ce2b c5bc b8ac a5be
00000020: 42a7 c33d d801 743d b224 8dbd d72b b7bd
00000030: b337 c0bd 6118 c03c 22d8 01bc aeff e7bd
00000040: 8a21 01be 25b2 69bd c29b 153e db89 873e
00000050: e7ae 0f3e 5d43 c73c eeed 0e3e 4979 8cbd
00000060: 3374 19be 8533 493e 5b55 9bbe 3c36 3ebe
00000070: 774f 5d3e 3b7c 89be cb82 c4bc b4d7 533e
00000080: 4d33 ab3e 08e1 dcbc 48a3 7b3d f283 983c
00000090: 54c3 08be f506 95bd 64be dbbd f782 64be
000000a0: 26a4 80bd 0d53 11bd be3b 5f3c 0784 9c3d
000000b0: 5dec 3ebd 644a 3e3e d035 863e 898b bebd
000000c0: 1f05 75be b635 7bbd cdda ab3c 64c5 07bc
000000d0: cc2c 3a3d 3f07 2d3d d168 61be 63b1 a63d
000000e0: d2bd c03c e737 a23d b23b 033d e6c3 16bd
000000f0: 79bb 70bd 2968 ffbd 2c92 4d3d 331f 1abe
00000100: 213a 513d 5637 c73c 3bdd 6bbd e2d8 16be
00000110: fcb7 203e 88c7 18be 008e 39be bfc8 063e
00000120: c0ed 173e 7358 163e 9564 e0bd 8391 53bd
00000130: c377 78bd 4fda c6bd c7d6 3abe b8ba 8e3c
00000140: a431 f13c 5023 8dbd b43d 813e 2473 443d
00000150: c9c3 c9bd af1b 11be 5e19 52bd 5884 eb3d
00000160: 479f 263c adf9 cb3d f44d 3c3c 4afe a4bd
00000170: 5b17 2cbe a41b 48be 6718 2dbe 3fe6 9c3e
00000180: 77ed 3bbe b0f8 7bbd 6306 5a3e 6b6a 623e
00000190: e6e1 34be 1100 cf3c b692 113e f1d0 1bbe
000001a0: 286f 6cbe 1ae9 b13d 0177 743e 2f2b 8b3d
000001b0: 7c44 91bc e559 953e df25 cc3d 3b47 b73d
000001c0: 1bca d7be 16a2 283e 2874 a4ba b9d0 9a3d
000001d0: 79e2 89bc 0cec 893e a2f3 8c3e 8475 3b3d
000001e0: e98d bdbd 988f 013b f44b 74b9 8c45 9cbc
000001f0: 4dbd e73d ec84 183c 8b3c 903d 5e1b 84be
00000200: 430d 8f3e 7374 d13c e60d e7bd a151 e83d
00000210: 503d bcbe a930 2b3e deec a23e 7e8f 333c
00000220: 0345 0cbe 1d9b 163e 08ba d53d d0f9 cf3d
00000230: 7183 2b3e 1a8f 013e 5f32 9f3d 9f32 34bd
00000240: 7945 513d db57 39be 9dac 20be fa55 fc3c
00000250: ca9f 0a3e a7c4 ec3d 32b6 bfbd 14fc 763e
00000260: b96e 903d b118 0ebe 97d6 393d 811c d2bd
00000270: 6c0c 533d fe92 5fbe 25b9 aebb 6846 4f3e
00000280: 22b4 16bd d38f 4bbe 6094 abbe 2755 e23c
00000290: ecb1 843d 154d 22be 62e1 103e 5293 cc3d
000002a0: 0202 40bd 3fcb 893e a12f 33be fb0a cd3d
000002b0: 65aa 70bc aa20 28be 5c26 bdbd c028 e3bd
000002c0: 57dc 5bbd 0c17 143d b338 433e ca96 b4bd
000002d0: ca96 4ebe c438 243e e36a 3d3d 80ac ee3c
000002e0: 50fd 48be 97ea bb3c 00cf 9a3d 8170 253e
000002f0: 3bdd c9bc f106 183e a2a8 233e c000 01be
00000300: 8d8f 933c e8b4 b13d 8b47 303d 1eb6 8bbe
00000310: 2b1e 7e3d c778 2cbe ed03 c3bd 3398 aebe
00000320: 390d 293e 0c72 aa3d d5e2 e2bd 5b37 903e
00000330: b204 733d c4c3 ebbd 32a2 533d caed 323e
00000340: d04d d5be 9264 983d 3568 54be 54ad 34be
00000350: 772f 32be 1dc0 323e 13fc f73c 262c 553e
00000360: e9f8 23be cdbc f73d 72dc 73bd 8274 a73d
00000370: b723 4ebe 59ea 15bd 2a42 8d3d edfb ebbd
00000380: c694 403e 700e a83c efe8 26be f391 673e
00000390: 5708 85be 44ed 88be 44a7 6c3d a1d1 183e
000003a0: 0297 babe 1d75 eb3d cb08 72bd a0c7 f03d
000003b0: bc7f 0d3e 472a c8bd ef1f 8abd ddfe 8dbd
000003c0: 463e 16be 163d 4b3d bd15 b4be a950 bebd
000003d0: f127 123e 7447 ba3d dccb 5bbd 43bc 4f3e
000003e0: 6c04 413e 0cd7 a9ba 153f 9e3a e426 53be
000003f0: 04fb 073e ed8d 92be 9230 313e 2972 cdbd
0.044590347 0.19878404 0.19234572 0.12132584 0.0946456 -0.14791825 -0.02406874 -0.32358336
0.09553386 0.05957207 -0.06891765 -0.08943909 -0.09385624 0.023449125 -0.007925065 -0.11328064
-0.1261045 -0.057054657 0.14610198 0.26472363 0.14031564 0.024324114 0.1395795 -0.06859071
-0.14985733 0.1964856 -0.3033856 -0.18575376 0.21612345 -0.26852593 -0.023988148 0.20687753
0.33437577 -0.026962772 0.061435014 0.018617604 -0.13355762 -0.072767176 -0.107296735 -0.22315584
-0.06281309 -0.035479594 0.0136250835 0.0764237 -0.046612132 0.18583065 0.2621293 -0.09303958
-0.23927735 -0.06133052 0.020978356 -0.008286808 0.045452878 0.04224324 -0.2201264 0.081393026
0.023528013 0.07920819 0.03203935 -0.036807917 -0.058772538 -0.12471039 0.05018823 -0.15050964
0.051080827 0.024318378 -0.05758403 -0.14731172 0.15695184 -0.14919865 -0.18120575 0.13162516
0.14836788 0.14682178 -0.109566845 -0.051652443 -0.06066109 -0.09709608 -0.18245994 0.017423019
0.029442616 -0.06891501 0.25242388 0.04796137 -0.09851796 -0.14170717 -0.051293723 0.11499852
0.010169811 0.09959731 0.011493195 -0.08056314 -0.16805784 -0.19541794 -0.1690384 0.30644414
-0.18352304 -0.061516464 0.21291499 0.22110908 -0.17664298 0.025268586 0.14216122 -0.15216424
-0.23089278 0.08687039 0.23873521 0.06795346 -0.017732851 0.29170147 0.09968161 0.08949133
-0.42146382 0.16468081 -0.0012546824 0.07559342 -0.016831623 0.26937902 0.27529627 0.04576637
-0.09255583 0.0019769426 -0.00023297948 -0.019076131 0.11315403 0.009309035 0.07042798 -0.2580213
0.27939805 0.025568223 -0.11281948 0.113436945 -0.36765528 0.16717781 0.3182134 0.010959504
-0.13698201 0.14707609 0.10435873 0.1015507 0.1674936 0.12652245 0.077732794 -0.04399359
0.051091645 -0.1809992 -0.15690847 0.030802716 0.13537517 0.11560946 -0.09360923 0.24119598
0.07052369 -0.13876607 0.045370664 -0.10259343 0.05152552 -0.21833417 -0.0053321295 0.20241702
-0.03679288 -0.19879083 -0.3351164 0.027628494 0.064792484 -0.15849717 0.14148477 0.099890366
-0.046876915 0.26912877 -0.17498638 0.1001186 -0.014689063 -0.1641871 -0.09235832 -0.11091757
-0.05367693 0.03615479 0.19064598 -0.08817823 -0.20174709 0.1603728 0.046244513 0.029134989
-0.19627881 0.02293901 0.07559013 0.16156198 -0.024641624 0.14846398 0.15982297 -0.12597942
0.018012786 0.08677083 0.04303698 -0.27287382 0.06204049 -0.16842948 -0.09522233 -0.34100494
0.1650895 0.08322534 -0.11078421 0.28167233 0.05933065 -0.11511949 0.051668353 0.17473522
-0.4166093 0.07441057 -0.20742877 -0.17644244 -0.17400919 0.17456098 0.030271566 0.20817623
-0.1601292 0.12096558 -0.059536405 0.08176519 -0.20130812 -0.036600444 0.068973854 -0.115226604
0.18806753 0.020514697 -0.16299795 0.22614269 -0.25982925 -0.2674352 0.057776704 0.14923717
-0.36443335 0.11496947 -0.059090417 0.117568254 0.13818258 -0.09773689 -0.06744372 -0.06933377
-0.14672193 0.049618803 -0.35172835 -0.092927285 0.14273049 0.0909566 -0.053661212 0.2028666
0.18849343 -0.0012957766 0.0012073243 -0.20620304 0.13279349 -0.28623906 0.17303684 -0.1003154

transformer.encoder.layers.0.linear1.bias f4 [128]
00000000: faf1 b93c e806 5cbe 9539 543c 0844 38bd
00000010: 8b7a 51be be22 943d f2ab b9bd 11b3 33be
00000020: 960b 10be 18bc 78be 3b04 24be 3c3f 7bbe
00000030: 24ca b03d 58be a6be aca4 52be 8c99 03be
00000040: 535d 96be 7540 48bd db46 a8bc eb5e 5bbe
00000050: c594 933c 55e4 3fbe 09bf 8b3b de08 92bd
00000060: 8677 e93b b930 a6bd f9c0 0ebe 51ef 83bc
00000070: 5e7b 60be e09e 93be 4a74 dfbc 594b 05be
00000080: 015e 5a3d cf2d 6dbe 824a b4bd 3a1a 41be
00000090: c047 953d 7489 66be 77bd cdbc 5629 83be
000000a0: ccf2 29be 991e b23d d59c 9cbe f912 c23d
000000b0: 3a7e 3e3c d4ad 1abe bcf0 bfbd 0746 47bc
000000c0: 2436 87be 38f8 f2bc e008 a7bd eaaa 17bd
000000d0: 48f7 6bbe 3ed1 c7bd 913a 62bd 83ed b43d
000000e0: 1e23 68be 137b c33c c2ca 88be ecea 5abe
000000f0: 5a54 34be 1493 eebc 7aea 1b3c 1587 233d
00000100: f281 5ebe c538 a6bd d639 89be f5f6 f5bc
00000110: 09c8 683d 5d74 103d 6b6b 15be 54d4 3dbe
00000120: 03aa 4cbe 5630 b1bd 2c4a 553c a230 38be
00000130: 0334 60be 2b3a 4bbe 400e 16be 6321 8ebd
00000140: 7fb4 81be 1dc9 9ebc 74ff 0ebe 05e2 1cbe
00000150: 45ae 57be f834 e9bd 9ca0 13be c2fc 9bbe
00000160: 3ccf 503d 5531 41bd ea32 40bc ce66 aabd
00000170: b504 8a3d 3a49 5a3c 4c1a db3d ded1 71be
00000180: 55e5 dcbd a751 87be b475 ccbd 331f 5ebe
00000190: 9b69 7dbe dd5c 73be b367 f73c 7645 8c3d
000001a0: 4f4c c0bd e5f1 7ebe 4e20 2d3d fd32 61be
000001b0: 0124 e6bd d3e7 f63c a34c b9bd 7035 f2bb
000001c0: 3995 ffbd 7fe0 12be efba 8c3d 8743 1dbe
000001d0: 5202 193d 3f7f 72be 4f71 85be 74c6 093d
000001e0: 588b f5bd 4c8c 1dbd 177b 15be 3543 a9ba
000001f0: 8274 b43d 17e8 9cbd 2a20 1cbe 0a69 1dbc
0.022698391 -0.2148701 0.012953182 -0.044986755 -0.20456903 0.07233189 -0.09065999 -0.17548777
-0.1406692 -0.24290502 -0.16017239 -0.24535841 0.08632305 -0.32567096 -0.2057063 -0.12851542
-0.29368076 -0.048889596 -0.020541599 -0.21422927 0.018015275 -0.18739446 0.0042647165 -0.071305975
0.007124844 -0.08114762 -0.139408 -0.016105326 -0.21922061 -0.2883215 -0.02727713 -0.13017024
0.053312305 -0.23162006 -0.08803274 -0.18857661 0.07289076 -0.22513372 -0.025114758 -0.25617474
-0.16596526 0.08697242 -0.30588403 0.09476275 0.011626774 -0.15105373 -0.09372088 -0.012162692
-0.26408494 -0.029659376 -0.0815599 -0.03702823 -0.23043549 -0.09756707 -0.055231635 0.08834364
-0.22669646 0.023862397 -0.26717192 -0.21378678 -0.17610303 -0.029122867 0.009516353 0.039923746
-0.21729258 -0.08116297 -0.26801938 -0.030024985 0.056831393 0.035267223 -0.14591758 -0.18538028
-0.1998673 -0.086517975 0.013018172 -0.17987302 -0.21894841 -0.19846408 -0.14653873 -0.06939962
-0.2533302 -0.019383008 -0.13964635 -0.15320595 -0.21062572 -0.11387056 -0.14416736 -0.30466276
0.050978884 -0.047166187 -0.011730889 -0.0832039 0.06739179 0.013323123 0.10698375 -0.23615214
-0.10785929 -0.26429483 -0.099833876 -0.21691589 -0.24747317 -0.23765893 0.030200815 0.06849186
-0.09389555 -0.24896963 0.042267136 -0.21992107 -0.11237336 0.03013984 -0.090478204 -0.007391624
-0.12479634 -0.14343451 0.06871592 -0.15357791 0.03735573 -0.23681353 -0.2606301 0.033636525
-0.11989468 -0.038463876 -0.14597736 -0.0012913706 0.088112846 -0.07661455 -0.15246645 -0.009607563

transformer.encoder.layers.0.linear2.weight f4 [32, 128]
00000000: fad5 143d 7e6c e73d 21be 39be 5e27 a53c
00000010: fd02 233e 7838 dc3c 85aa 8f3a 7d94 8a3e
00000020: 9861 9a3c dbe7 273e 2232 02be f18a 503d
00000030: cac7 4dbd ef4f e03c fff6 e6bb 21c1 03bd
00000040: 7e16 533e fe1b e13c cb99 b43d 6cf6 1dbe
00000050: 3cf0 72be 447a 94bb 83e1 02be 1593 063e
00000060: 2f28 563e 915f 333d 0879 51be c8e3 8fbd
00000070: 2cf2 93be 8e01 2e3e 6903 06bd c392 1f3e
00000080: 81ad f7bd f8e5 a13e b5a6 76be 3407 043e
00000090: 9f89 9bbd 29a5 0f3e 6f70 c7bc eda2 113e
000000a0: 16ab 45be 9b11 53be 55ea 313e 7047 5e3e
000000b0: f086 0b3d 8107 a63c 5e10 803e 0f62 06bd
000000c0: 5bd7 0a3d ef2e 9d3d a115 b33d 0ab1 29be
000000d0: c9c5 6dbd 72f5 2c3e 3393 02bc 7b67 7cbc
000000e0: ca27 2dbe 4cac 7dbd d32f c93d fd23 853d
000000f0: 0a93 d6bd 6fae 8bbe 061e 2e3e 058b 183d
00000100: 2382 92be a996 f9bd 628e 463e 2821 863d
00000110: 2785 1dbe d87e e73a 57b6 a2bd 128e b3bd
00000120: 25d2 19bd 3fbf 9b3d 1927 97bd bc02 24bc
00000130: 6c41 47be f88d 63bc 5e02 033e e1e2 083e
00000140: 11c4 473e c6a8 bd3d 6a5a f6bd 510c 5ebe
00000150: 22ae 32be b733 2bbe 5af8 d9bc f000 053e
00000160: be58 aebd 123f 0a3e edc5 083d 0cc5 28be
00000170: 6ec9 23be d657 113e 757d 9abc cb9d 1b3e
00000180: 77d0 8cbd 966c 4f3d 05c5 393e 47c9 333d
00000190: 2c5a 953b 1dc3 363e ad14 00bb 319e f73d
000001a0: e392 42bd 2b5f 4b3d ab3b 333d 6a38 253d
000001b0: 31e3 163e 556c 813e 30c5 94bd 7b99 123d
000001c0: 2c98 b7be 555a 2b3e 5ef7 763e 45c0 e93d
000001d0: db56 3bbe fe4a 063e 3b40 77be 4ea9 5bbe
000001e0: 881e 653e 184b 77bd e1b2 dabc cb9d 603d
000001f0: a4f0 943d fd81 27bd 556e 573d e581 05bd
00000200: bc33 3abe 3b0d 9ebd 8a1a 813c 9401 0abd
00000210: 27d5 833e 7909 92bd c667 543e b1e7 eb3c
00000220: c6a9 ab3b 7696 9cbd 1c5e 233e 0284 ed3c
00000230: f32d e43d 106a f73d e6d1 203c 1513 fa3d
00000240: 217c 0c3e 6b6c e03d d891 833b e7af 02be
00000250: 565d 163e a73d 1abe 6017 943e 3570 353e
00000260: 9d3d 613e 402b 343e 9298 dabc 2d0e 01be
00000270: b678 e13d e145 cc3d 42e3 7dbc 11b9 013d
00000280: dd17 c03d e551 7bbe e2db a73d b9a4 89bc
00000290: 5b2a a1be bc0d df3d 86f4 163d 2324 833c
000002a0: 6890 dabd 1335 d1bd 6c1e 25be 4cbb b33c
000002b0: af0c 4fbe cdc4 613e 5b3e 223e a150 a6bd
000002c0: 4ad2 06be 6b1e 1ebb 23c5 bdbd 1b57 06be
000002d0: 7d8d a03e a5b9 113e a98a 7ebe cc21 01be
000002e0: 5b5c 5bbe f9e3 0bbd f233 ba3d 833a 37be
000002f0: ff08 ccbc 93b2 34bd 3bbf 703e e13d 2c3c
00000300: a95e 613e e3da 613d 8b2d c1bd 7045 ba3d
00000310: a80f 8fba b1e1 f2bd d03b ca3d 7af7 60bc
00000320: 963a 833d b248 a0be 8dfc bbbd 2779 983e
00000330: a759 c0bd 9470 2ebe b114 7cbe a854 09bd
00000340: 74c0 a23d debd 073e bb1a 84bd efef d63c
00000350: da97 503e 1485 143e d67d 073e eb9e 06bc
00000360: 07b1 243e f1aa 97bd 1e31 53bd e9f5 403d
00000370: ba85 9e3d d08a 72bd 8b3c 233e 1a6a 6f3e
00000380: f8ee aebd e552 32be f18e 6fbd d3a5 8a3e
00000390: 78a4 533d 52ca 223e 50d4 65be c8bc f3bd
000003a0: c609 46bd 2539 4e3e f27d 75be d29e 3c3e
000003b0: 1400 0a3e 7ba2 1dbe a09d f63d f54a ec3d
000003c0: 9d26 5a3e 1c05 76be f93f aebe 81a4 8f3d
000003d0: 90b8 25bc e895 46be d851 91be 4a6f 4dbc
000003e0: ffd2 14be a9e7 8f3d c6b8 a0bd 043d ed3d
000003f0: 49ce 0c3e 57e9 5c3e cfbb c13c de6e 243d
0.036336876 0.1129999 -0.18138935 0.020160373 0.15919109 0.026882395 0.0010960853 0.27066413
0.018845364 0.1639704 -0.12714437 0.050913755 -0.05023936 0.027381865 -0.007048487 -0.032166604
0.20614049 0.027479168 0.08818396 -0.15426034 -0.23724455 -0.0045311768 -0.12781338 0.13142045
0.20913766 0.04379231 -0.20456326 -0.07025868 -0.288957 0.1699278 -0.032718096 0.15583329
-0.1209364 0.31620765 -0.24087031 0.12893373 -0.075946085 0.14027847 -0.024345605 0.14222308
-0.19303545 -0.20612185 0.17374547 0.21706939 0.034064233 0.02026725 0.25012487 -0.03280836
0.033896785 0.076749675 0.0874436 -0.16571441 -0.05804995 0.16890505 -0.007969665 -0.015405531
-0.1690971 -0.061931893 0.09823575 0.06501005 -0.10477264 -0.2728152 0.1700364 0.037241954
-0.2861491 -0.12186939 0.19390252 0.06549293 -0.15382825 0.0017661704 -0.07944935 -0.08767332
-0.037553925 0.07604837 -0.07380504 -0.010010418 -0.1945855 -0.013888828 0.12793872 0.13367797
0.19508387 0.092607066 -0.12028964 -0.21684386 -0.17449239 -0.16718946 -0.026607681 0.12988639
-0.0851302 0.13500622 0.03339188 -0.16481417 -0.15994808 0.14193663 -0.01885865 0.15196912
-0.06875699 0.050640665 0.18141563 0.043893125 0.0045578685 0.17847867 -0.0019543574 0.120907195
-0.047503363 0.049651306 0.043758076 0.040337004 0.14735104 0.25277963 -0.07264173 0.0357909
-0.35858285 0.16733678 0.241178 0.11413626 -0.18294851 0.13114545 -0.24145596 -0.21451303
0.22374928 -0.06037435 -0.026696624 0.054837983 0.07272461 -0.04089545 0.052595455 -0.03259458
-0.18183798 -0.07717367 0.015759725 -0.03369291 0.2574856 -0.07130713 0.20742711 0.028797003
0.0052387444 -0.07645886 0.15953869 0.02899361 0.111415766 0.12080777 0.009815669 0.12210671
0.13719226 0.10958179 0.0040151887 -0.12762414 0.14684042 -0.15062581 0.28924084 0.17718585
0.2199616 0.17594624 -0.02668408 -0.12603064 0.11009352 0.09974266 -0.015496077 0.031670634
0.093795516 -0.24542959 0.08196236 -0.016802179 -0.31477627 0.108912915 0.03685429 0.016008442
-0.106720746 -0.10215201 -0.16124886 0.021939896 -0.20219682 0.2204773 0.15844099 -0.081208475
-0.13166156 -0.0024127017 -0.092661165 -0.13119166 0.31357947 0.14230974 -0.24857582 -0.12610549
-0.2142195 -0.03415296 0.09091939 -0.17893414 -0.024906633 -0.044115614 0.23510449 0.0105128
0.22008766 0.055140387 -0.09432515 0.090952754 -0.00109147 -0.118594535 0.098746896 -0.013730878
0.06407659 -0.31305462 -0.091790296 0.29779932 -0.093921 -0.17035133 -0.24617268 -0.033528
0.07946864 0.13256022 -0.06450411 0.026237456 0.20370427 0.1450389 0.13231596 -0.0082166
0.16083156 -0.07405651 -0.051560514 0.04710952 0.0774035 -0.059214413 0.15941064 0.23380318
-0.085416734 -0.17414434 -0.05848593 0.2707964 0.05167052 0.15897492 -0.22444272 -0.119012415
-0.048349164 0.20138986 -0.23973826 0.1841996 0.13476592 -0.15394013 0.12041783 0.115377344
0.21303792 -0.24025387 -0.34033182 0.070137985 -0.010114804 -0.19393122 -0.28382754 -0.01253874
-0.14533614 0.070266075 -0.07847743 0.115839034 0.13750567 0.21573387 0.023649124 0.040144794

transformer.encoder.layers.0.linear2.bias f4 [32]
00000000: 0e7b 3ebd 2d19 8bbd 518d 85bd 1b2c 1f3d
00000010: 18e0 74bd dce2 1cbe 0722 93bb 7971 cd3d
00000020: 0086 62bd 3b4e c3bd 629d 843d 814a 73bd
00000030: fd95 75bd 68f6 973b f66b 393c c4b2 563d
00000040: aa58 7f3d af7d b3bc befe 5c3d b8c6 a43d
00000050: 41a9 8e3c 7bd2 a5bd 83c7 22bc f6e6 90bc
00000060: 137f c43c 36fb 3b3c 0cfa fd3c 175e 8e3d
00000070: cc21 e2bd 41a5 6c3d e28a 413b cb6b 95bc
-0.046504073 -0.06791911 -0.065210946 0.03886042 -0.059784025 -0.15320915 -0.0044901404 0.10031409
-0.055303574 -0.09536406 0.06475331 -0.059397224 -0.059957493 0.004637528 0.011317244 0.052416578
0.062340416 -0.021910517 0.05395388 0.08045715 0.01741469 -0.080967866 -0.009935263 -0.017688256
0.023986375 0.011473468 0.03100302 0.0695154 -0.110416025 0.057774786 0.0029532243 -0.018239876

transformer.encoder.layers.0.norm1.weight f4 [32]
00000000: 457e 853f 4546 893f 053d 7f3f de05 843f
00000010: 979c 863f 6e9c 403f 0155 763f f6aa 6d3f
00000020: 3541 7b3f ad24 763f 7fd2 853f 4025 863f
00000030: 6246 803f 4e0e 743f 7d24 8d3f c18b 6c3f
00000040: 3fad 903f 3454 7d3f c4c9 863f 25d9 863f
00000050: 3793 823f 36bc 813f fa61 703f 29ef 853f
00000060: 6c5b 843f 1f3a 733f 4cf2 783f 3cf4 8f3f
00000070: bcb4 813f 9d27 913f c709 753f 58a5 883f
1.0429159 1.072457 0.99702483 1.031429 1.0516537 0.7523869 0.96223456 0.9283899
0.98146373 0.9614971 1.0454863 1.0480118 1.0021479 0.9533433 1.102676 0.9240075
1.130287 0.9895661 1.0530324 1.0535017 1.0201176 1.0135562 0.938995 1.0463611
1.03404 0.9501056 0.97244716 1.124641 1.0133281 1.1340214 0.95718044 1.0675459

transformer.encoder.layers.0.norm1.bias f4 [32]
00000000: 8fd0 39bd f3fa 9b3d 74c6 253d 27ae 8abd
00000010: 73db 953c 682e 9abc 1c4f 4dbd 27f9 d4bc
00000020: 99fc 303c 9a3b 17bd fd24 8f3c 5c11 863d
00000030: be94 cbbc 768a ee3c e316 1cbb 2e23 303d
00000040: 2681 d43c a4f5 083e 83c0 35bd 9bb9 263d
00000050: ee1d 003d 111f 1b3d 6aeb 313d 2511 9cbd
00000060: 2b48 113e ad50 02bd 639a 083e 7602 01bd
00000070: 736e aebd 16bb 243d f0de e03d d0b4 0bbe
-0.045364913 0.07616224 0.040472463 -0.06771498 0.018293118 -0.018820956 -0.050124273 -0.025997711
0.0108024115 -0.036922075 0.017473692 0.0654628 -0.0248512 0.029118758 -0.0023817352 0.0430023
0.025940489 0.13374954 -0.044373047 0.04070435 0.031278543 0.037871424 0.0434374 -0.076204576
0.14187686 -0.03181522 0.13340144 -0.031496488 -0.0851716 0.04021748 0.10980022 -0.13643193

transformer.encoder.layers.0.norm2.weight f4 [32]
00000000: a245 7f3f 1095 843f 48e4 603f 3140 883f
00000010: a4e7 7d3f d1ca 5f3f 8490 813f 8fa5 6a3f
00000020: d520 733f f279 6c3f e213 723f 9b1d 743f
00000030: cd0b 6f3f 4190 7d3f eee6 913f c08e 863f
00000040: 0df9 573f 67cb 8d3f 47d2 723f a7de 8d3f
00000050: 0979 903f 1b25 883f e3d8 6f3f 401b 973f
00000060: 0f6a 743f 8627 5d3f 6c65 553f 74d7 773f
00000070: d9bb 833f b25d 903f 950a 793f 1007 813f
0.99715626 1.035799 0.8784833 1.064459 0.9918158 0.8741885 1.0122228 0.9165887
0.9497197 0.92373574 0.9456159 0.95357674 0.9337738 0.9904824 1.1398599 1.0512314
0.84364396 1.1077698 0.9485211 1.1083573 1.1286937 1.0636324 0.9369032 1.1805191
0.9547433 0.8638843 0.8335788 0.9681313 1.0291702 1.1278594 0.9728177 1.008028

transformer.encoder.layers.0.norm2.bias f4 [32]
00000000: 6191 903c 2a73 a13d 320b 083d f687 8fbd
00000010: fa5b cfbd fe3c 1ebe ce9a 7d3d ec42 4abd
00000020: 8d18 c53c 22d1 293d 5f57 67bc 421d 4c3a
00000030: 8187 0abd 4aac 9e3d e6f2 a03b ab65 f13c
00000040: daea c8bd 208e a43b a44f 723c 079f 313d
00000050: 0805 51bd 6759 9a3d 063f 083d 58a8 ebbc
00000060: fb94 f63c 2dae ccbc 21f8 d33b e73e ec3c
00000070: de6c 08bd 39c8 66bd f303 d33d 5797 a23c
0.017647447 0.07883294 0.0332138 -0.07008354 -0.10124965 -0.15452954 0.06191521 -0.049380228
0.024059558 0.04145921 -0.014119952 0.0007786342 -0.033820633 0.07747705 0.0049117683 0.029467424
-0.098104194 0.0050218254 0.014789496 0.04336455 -0.05103019 0.075365834 0.03326323 -0.028766796
0.030100336 -0.024985397 0.0064687883 0.028838588 -0.03330695 -0.05634329 0.10303488 0.019847555

transformer.encoder.layers.1.self_attn.in_proj_weight f4 [96, 32]
00000000: 00cc ac3d a3df de3d 6cf0 38be 0986 3a3e
00000010: 1ca1 9abc 608d 8f3e 5e49 be3e 8c63 e13d
00000020: f3c0 f13d 248a a93e c15b a9bc 410c 93be
00000030: ef18 2dbe 6a1e f73d 70fa 443c b3eb 293e
00000040: 7889 733d 9464 83be 8106 39be c922 e6bd
00000050: 22d8 1dbe 005f d4bb a2ad 23be 3889 a1bc
00000060: 3963 15be 6b3e fbbd cb43 5dbd 104a e43d
00000070: 315f 2c3d 600b a53d 0380 7cbd 9ed3 fc3d
00000080: b103 debd 2d27 acbd 48de 0b3d fb0e 5b3d
00000090: c30c f2bb 17bc a33e 5077 093e 396d 843e
000000a0: a722 e1bb b160 8dbe 70f8 503e 2e90 573e
000000b0: aed6 2a3e 03ef 49be 449e 8dbd 8cd9 00be
000000c0: a372 d6be 20d2 b4bd 76c4 b73d f803 f5bd
000000d0: fbeb 573e b646 c1be 902b 6fbe 4c9f 2dbd
000000e0: 19fe cf3d 032f 2c3e 4ad9 71be 60e5 1cbe
000000f0: a1be c63e c4e7 fb3d d37d 90bb 782e 653e
00000100: 4adb 043e 209a 69bc 762c ccbd e02c b33d
00000110: 0e44 09bd f841 093e 9a01 18be d8f1 d1bd
00000120: 1e83 f23d e940 1dbe 6ec4 053e 19a9 cd3e
00000130: 4fb6 d33d 1c8a 393d 5e3c b5be 620f 0cbe
00000140: 5126 b3be fc70 b53d 6a75 b0bd eb99 0e3d
00000150: 30fd 8bbb fe4d febb d8ac f2bc 1949 c73c
00000160: 5e05 a13c 2a5f 49bd 6654 cc3d 3bb7 8fbe
00000170: 05f4 68bd 687e 3d3e 2124 2bbc bced 543e
00000180: f6e6 183e 7b6f 313e f497 473e 6303 73be
00000190: 31d1 03be 55a4 21be 3263 98be 7ce8 41bd
000001a0: 6808 83bd 9bc5 5b3e 7112 b7be 0921 1ebd
000001b0: ae75 e03c eda0 df3d 32c1 853e 7cee 4d3e
000001c0: 3b53 dcbc 5072 803e 1ca1 90be 852a 733e
000001d0: 2777 b3bd 53d2 f03d 3766 753d 7e5a 81bd
000001e0: 627c bdbd 14b0 d93c 4f09 e43d 6986 223e
000001f0: 5593 ccba ac48 f9bd 8562 5b3d ff33 163e
00000200: 622a 9cbd 8be4 093e f041 953e c38b a2be
00000210: e12e 7bbe 8a68 b6be 2cbd f3bd c2f9 cebc
00000220: dc1a 8a3d 78d8 a0be f2b1 1d3e 510d b83c
00000230: 6f83 a13d ffd3 6e3d 6530 8b3e aeee 193e
00000240: a599 463e 8236 7c3e 01aa b0bc f378 6c3e
00000250: 55cd 82be e0a0 d73b afae 8f3e 130d 31be
00000260: 9d6e 8f3e a624 a4bd a08c bbbd 4731 8abe
00000270: 3f30 e23d ec48 bd3d 83bc 073d bc77 09be
00000280: 80c3 7cbd a1dc a13d 06cf 003e a4a3 a43d
00000290: 717d aebe 55ec 6a3e dac2 c43e f4f9 853d
000002a0: 98dc d73c e76e 613e 4ea9 803d b610 31be
000002b0: a8d9 43be 817b 22be 397c d23d ce6d 37be
000002c0: ecde 3d3d c683 14be 6db1 093e 8e22 f0bd
000002d0: 96ef 49be 27dd 753e aec4 21be 4c63 803e
000002e0: 9a91 55be b4df b7be 1a6f 753d d44f d13e
000002f0: 4b91 b03e 3b1d 81bd cbf2 22be 4ca5 7a3e
00000300: c3bd 95bc 88af d03d 77fa 743d 9df8 6cbd
00000310: 220a 0fbd 47cc 803c 5294 1dbe c476 9e3d
00000320: 575f 0e3e 34b1 643d 9ee3 06be cc6f acbe
00000330: 05a6 193e b525 b83b e1e0 dc3d 0187 7d3e
00000340: dd1d 723e 8c41 bebc e78e ff3c dcec 393d
00000350: fade 35be 2551 9a3e 26f1 893e 2182 b9be
00000360: a4af 803e af9f 10be fa7c 2abe 1688 3abd
00000370: 75f5 fdbd 1480 3abd ba58 dc3e cc02 3abc
00000380: d37c 1fbd ec5d a53d dc33 8f3e 8242 67be
00000390: f7d3 c0be 59eb bebd ec22 393e c8a9 74bd
000003a0: a6a9 123c dfa9 b03b 615c 553d b2f0 3a3e
000003b0: cf22 d63d 9c73 953d 8824 30be 6ae2 4c3d
000003c0: a83b 14be 2ffa 70bd c66f 60be f289 d43d
000003d0: 312a aabd ab1b 8ebe f962 df3d 9e66 043e
000003e0: eca4 0abd 662c 9bbc 4cae 5fbe af55 203e
000003f0: e08c b93e 9f0a 67be fd37 4abe a63b db3e
0.084373474 0.10882499 -0.18060464 0.18215193 -0.018875651 0.28037548 0.3716535 0.11005315
0.1180438 0.33113205 -0.020673634 -0.28720286 -0.16904043 0.12066348 0.0120226 0.16593818
0.059457272 -0.25662673 -0.18068887 -0.112371035 -0.1541448 -0.0064810514 -0.15984204 -0.019718751
-0.14588632 -0.12267765 -0.05401973 0.11146939 0.04208297 0.0805881 -0.06164552 0.1234505
-0.10840548 -0.0840591 0.03414753 0.053481083 -0.007386775 0.3197944 0.1342442 0.2586458
-0.006870586 -0.27612832 0.20407271 0.21051094 0.16683456 -0.19720082 -0.069149524 -0.12582988
-0.41884336 -0.08829141 0.08973019 -0.119636476 0.21086113 -0.3774926 -0.23356462 -0.042388245
0.10155887 0.16814809 -0.23618045 -0.15321875 0.38817313 0.12300065 -0.0044095307 0.22381008
0.12974277 -0.014257938 -0.09969418 0.087487936 -0.033512168 0.13404071 -0.14844361 -0.10251206
0.11841415 -0.15356793 0.13063213 0.40168074 0.10337507 0.045297727 -0.3539762 -0.13677743
-0.3499017 0.08859441 -0.08616145 0.034814756 -0.0042721257 -0.0077607622 -0.029623434 0.024326848
0.01965588 -0.04916302 0.09977035 -0.2806948 -0.05687334 0.18505251 -0.0104456255 0.20793813
0.14931855 0.17327683 0.1949156 -0.2373176 -0.12872769 -0.15785344 -0.2976318 -0.047340855
-0.06398088 0.21462099 -0.35756257 -0.038605724 0.027399864 0.10919366 0.2612396 0.20110506
-0.026895156 0.25087214 -0.28247917 0.23746689 -0.08762961 0.11758866 0.059911933 -0.06316088
-0.0925224 0.026573218 0.11134588 0.15871586 -0.0015607873 -0.12172064 0.053560752 0.14668272
-0.076252714 0.13466088 0.2915187 -0.31747255 -0.24529602 -0.35626632 -0.11901316 -0.025265578
0.06743404 -0.31415153 0.15399912 0.022467287 0.07886397 0.058307644 0.2718536 0.15032455
0.19394548 0.24630168 -0.02156544 0.23093013 -0.2554728 0.006580457 0.2806296 -0.17290144
0.2801408 -0.08014803 -0.091576815 -0.2699072 0.110443585 0.09242424 0.033138763 -0.13424581
-0.06170988 0.0790341 0.12578973 0.080390245 -0.3408008 0.22941716 0.3842991 0.065418154
0.026350304 0.22014962 0.06282292 -0.17291531 -0.19125998 -0.15867426 0.102776 -0.17912981
0.046355173 -0.14503393 0.13446589 -0.11725341 -0.19720301 0.24010144 -0.15797684 0.25075758
-0.20856324 -0.3591286 0.059920408 0.40881217 0.3448585 -0.063044034 -0.1591293 0.24477118
-0.018278962 0.1018973 0.059809174 -0.057854284 -0.034921773 0.015722407 -0.15388611 0.077374965
0.13903557 0.055833057 -0.13172767 -0.33679044 0.15004738 0.0056197294 0.1078508 0.24758531
0.23644204 -0.023224615 0.03119607 0.045391902 -0.1776084 0.30140033 0.26941794 -0.36232093
0.25134003 -0.14123414 -0.16649237 -0.045539938 -0.12400333 -0.0455323 0.43036443 -0.011353206
-0.0389374 0.08074555 0.27969253 -0.22583964 -0.37661716 -0.09322233 0.18079728 -0.05973223
0.00895158 0.005391344 0.052090053 0.1825588 0.10455858 0.07297441 -0.17201436 0.050020613
-0.14475882 -0.058832344 -0.21917638 0.103778735 -0.083088286 -0.27755484 0.109075494 0.1292977
-0.033848688 -0.01894207 -0.21843833 0.15657686 0.36240292 -0.22562645 -0.1974792 0.42818946
