期末项目/code/Transformer法/transformer_preprossing/models/best_model_20240613-154310.pth (torch, 133666 bytes, 99 tensors)

embedding.weight f4 [16, 15]
000000 88 44 2e 3f d4 bb 59 3e e7 d6 98 3d 14 f4 30 3e
       0.6807332 0.21263057 0.07462864 0.17280608
000010 03 f1 8d bb 99 8a 9c be 37 f2 00 3d 43 7b 4c 3c
       -0.0043317094 -0.30574492 0.031480994 0.01248056
000020 c2 57 aa 3e f1 9b d0 3d 18 ba 3f 3e c7 a9 c5 be
       0.3327008 0.101859935 0.18723333 -0.38606092
000030 12 c4 9a be fb e1 84 be 63 11 90 3d ff 31 c2 be
       -0.30227715 -0.2595366 0.07034566 -0.3792877
000040 78 3c 8a be 23 49 9e be fd 59 c6 3e 33 b0 8b 3e
       -0.2699926 -0.30915174 0.3874053 0.27282867
000050 f5 91 74 3e f6 76 b2 be 5c af c7 3d c4 44 2e bc
       0.23883803 -0.34856385 0.09750244 -0.010636512
000060 6f 27 a6 3e 39 af 4c bd 0d b1 1e bd ae b0 a6 be
       0.3245196 -0.049971793 -0.038743068 -0.3255667
000070 7e a1 c1 bd 45 15 96 be 94 20 e7 3e 15 a7 6d be
       -0.0945463 -0.29313102 0.45142043 -0.23208268
000080 96 1b 5d bc 45 02 de 3d 97 d4 3f 3e 8f 6c d2 3d
       -0.0134953465 0.10840277 0.1873344 0.10274612
000090 d8 85 46 be 63 41 b0 be 3a 9d 90 be 4d 96 9d 3e
       -0.19386995 -0.34424886 -0.28244954 0.30778733
0000a0 61 75 96 3e 7c 06 71 be e1 7b 1f 3e 57 4c 4b be
       0.29386428 -0.2353763 0.155746 -0.1985334
0000b0 f8 61 30 be a4 c2 02 bf 61 a6 07 be d0 ac 98 be
       -0.17224872 -0.5107825 -0.13247062 -0.29819345
0000c0 a6 ea 82 3c 45 ee af 3e 6f 53 58 3e 78 81 38 3e
       0.01598103 0.34361473 0.21125577 0.18018138
0000d0 12 e0 0a be de 13 60 bd e6 d5 22 bd f6 15 3a 3d
       -0.13562039 -0.054706447 -0.03975477 0.0454311
0000e0 0d f7 a5 be 06 36 3d be a5 29 f7 bd a6 ce 04 3e
       -0.32415047 -0.1847764 -0.1206849 0.12969455
0000f0 2e d0 b4 be ce 24 aa be 81 00 84 3e f5 40 06 3e
       -0.35315078 -0.33231205 0.25781634 0.13110717
000100 a5 9f aa 3e e3 2a 84 3d e3 ba cd 3c 01 1f a2 be
       0.33324924 0.064534925 0.025113529 -0.3166428
000110 5d 5d cb 3d ea 7e 7b 3e 06 02 0c bd a8 22 9f 3e
       0.09929917 0.24560133 -0.034181617 0.31081128
000120 c4 b6 8e be 9a a1 af 3e 48 9d 0c be 0a 3b c6 bd
       -0.27873814 0.3430298 -0.13731873 -0.096792296
000130 f3 78 dd bd 30 db df be 55 13 fd 3b c4 ba 88 bd
       -0.10814085 -0.43721914 0.007723252 -0.06676248
000140 2a b9 a6 3e 9c bd ac 3e c2 58 22 3e 37 35 6d be
       0.32563144 0.3373841 0.15854171 -0.23164831
000150 0c 67 bd bd 81 a9 c4 3d 4a f1 b5 bd 51 cb e9 3d
       -0.0924817 0.09602643 -0.08883913 0.11415733
000160 1d 99 17 3d 61 01 c1 3e 6f 0c ab 3e f2 0c 8e be
       0.037011255 0.37696365 0.33407924 -0.2774425
000170 33 83 83 3d 60 a4 3c be 7c 8a aa 3e f0 0e 90 3d
       0.06421509 -0.18422079 0.3330878 0.07034099
000180 86 11 d1 be a1 76 8d 3e 0e 6e b1 3d b1 97 1f 3d
       -0.40833682 0.2762957 0.086635694 0.038963024
000190 6a 1e 6b be e9 54 8e 3d c2 c4 9c 3e 7f 36 ce 3e
       -0.22960821 0.06949789 0.30618864 0.40275952
0001a0 e3 15 90 be f3 8f c8 3e b6 ce 3f 3d 77 69 01 be
       -0.28141698 0.39172325 0.046827994 -0.12637888
0001b0 00 15 d1 3e 03 6c 43 bd 64 e4 8d bd 82 b1 40 3e
       0.40836334 -0.04771043 -0.06928328 0.18817714
0001c0 42 27 b3 be 47 10 85 bd 4e 1b 8b be 95 59 c9 be
       -0.3499089 -0.06497245 -0.2716927 -0.39326158
0001d0 73 fa 9c 3e 83 8c 95 be 34 c0 ae 3c e7 27 4c be
       0.30659828 -0.29208764 0.021331884 -0.19937097
0001e0 4c dd 98 3d 24 19 2e 3e a6 6d 17 3e 43 66 d3 be
       0.07464084 0.17001778 0.14787921 -0.41288957
0001f0 41 46 c1 be 8a c6 bf 3b 2e 36 cd 3e 5b 75 bc 3e
       -0.37748912 0.005852525 0.40080398 0.36808285
000200 ce 3f 06 be 6e 99 37 3d 6b 92 23 be c8 eb c9 3e
       -0.13110277 0.044824056 -0.15973823 0.394377
000210 1f fb 9b 3d 90 cb 93 bd 6f df 35 be 71 1c af be
       0.07616257 -0.07216561 -0.17761014 -0.34201387
000220 54 90 d3 3d 49 a3 8a 3e 5f 62 a2 be e0 40 0a 3e
       0.10330263 0.27077702 -0.31715676 0.1350131
000230 4c 9f 45 be d2 40 33 be ba 63 3f bd 52 c2 c9 3d
       -0.19299048 -0.17505196 -0.046725966 0.09851517
000240 eb 65 f9 3d 1f 57 23 3e a8 78 92 be ee 07 8b 3e
       0.121776424 0.15951203 -0.28607678 0.27154487
000250 0b 66 ca be 3a 80 e3 3c 5a 9f 0c 3f 08 0d 63 be
       -0.39530978 0.027771104 0.5493065 -0.2217294
000260 62 b6 22 3d 81 88 4a be 4c 7a 15 be cd 9d 82 3e
       0.039724715 -0.19778635 -0.14597434 0.25511017
000270 d6 9a 59 3e 80 93 e6 3d f0 fc af 3d 1b e2 41 bc
       0.21250471 0.11258602 0.08593166 -0.011833693
000280 86 a1 33 be d3 41 65 bb ed 04 93 bd fe d1 e9 3c
       -0.17542085 -0.0034981861 -0.07178674 0.028542515
000290 23 d2 5d 3d 09 1b 0a 3d 82 f0 c2 3e 95 08 5d be
       0.05415548 0.03371719 0.38074118 -0.21585305
0002a0 6c e1 ff 3e d4 0e 10 3e 8e ba 73 3e 68 7f 76 be
       0.4997667 0.14068156 0.23801634 -0.24072039
0002b0 7d b6 27 bd 60 d9 1d be 0b 27 b6 3e df 98 6e be
       -0.04094552 -0.15414953 0.35576662 -0.23300503
0002c0 bf 36 54 3d 2d 8a a0 3e 09 3c 94 be 7e 8a e4 bc
       0.051810022 0.3135542 -0.28952053 -0.02789807
0002d0 24 a4 b8 be f8 c3 ea be 7e bb eb bd 69 73 69 3e
       -0.3606273 -0.45852637 -0.11510371 0.22797932
0002e0 ce 14 02 be 89 a5 86 3e 1a 25 88 be 57 50 8c be
       -0.12703249 0.26298168 -0.26590806 -0.27405044
0002f0 6a f3 93 3d 66 ef c3 3d c3 e4 2a 3e 1b ba 04 3d
       0.07224162 0.09567146 0.16688828 0.032404047
000300 c0 bd a5 3d 55 a8 5a bd 49 bf ab 3d 19 8f d4 3e
       0.080928326 -0.05338319 0.08386094 0.41515425
000310 28 7f 75 3e 2d 52 79 3e 2f a4 d3 3e 17 43 9b 3e
       0.23974288 0.24347754 0.413362 0.30324623
000320 83 9e a8 3d ff f2 9b 3d 95 74 b4 bd e7 51 b5 3e
       0.08233359 0.07614707 -0.08811299 0.3541405
000330 36 75 86 be 93 0c c0 3e 8b c4 84 3d b2 2a 9d 3d
       -0.262613 0.37509593 0.064828 0.07674159
000340 6c 41 27 be be ec e3 3e 06 e1 0e 3f 1e 01 34 3e
       -0.1633355 0.44516557 0.5581211 0.17578551
000350 c0 15 cd bc 51 85 8b be d7 14 32 bd 91 6c 55 be
       -0.025034785 -0.2725015 -0.043476906 -0.20842196
000360 fb 71 6e bc 09 7c b3 3c 9c 0b c8 bc 38 03 af 3e
       -0.014553542 0.02190973 -0.024419598 0.34182143
000370 f4 7d 62 be a2 c3 c3 3d 43 cd a9 3e 4a 57 0e 3e
       -0.2211836 0.095587984 0.33164415 0.13900486
000380 74 34 79 be 91 db a5 be 73 e4 32 3e bc 20 2c 3b
       -0.24336416 -0.32394078 0.17469959 0.0026264628
000390 d4 d1 28 be 10 62 dc be 08 32 29 3e d7 3e 83 3e
       -0.16486293 -0.43043566 0.16522992 0.2563388
0003a0 79 54 af be 2b 3e 8f 3e fb bf 60 3e bd 25 b7 be
       -0.34244135 0.27977118 0.21948235 -0.3577098
0003b0 7d 8b d2 be 3a 9d 78 3e 21 af 16 3e 2e 67 b3 be
       -0.41122046 0.24278727 0.14715244 -0.35039657

embedding.bias f4 [16]
000000 a8 cc 54 3e 40 05 89 3c 90 b7 7a 3e ca 93 b5 bd
       0.20781195 0.016726136 0.24484086 -0.08866079
000010 40 76 4a 3e f8 75 e7 3d 11 37 3b 3e c4 83 9c 3e
       0.19771671 0.11301798 0.18282725 0.3056928
000020 80 d4 2b 3d 17 4f a2 be c7 18 2d be 93 b1 27 3d
       0.041950703 -0.31700966 -0.16903983 0.040940832
000030 87 9b dc bd 7e 49 7e be cf d3 8f bd 7c a3 7d be
       -0.10771852 -0.24832723 -0.07022821 -0.24769396

transformer.encoder.layers.0.self_attn.in_proj_weight f4 [48, 16]
000000 3c 81 63 3c b4 81 78 3e 32 56 9e be d5 5d b4 3e
       0.013885792 0.24268228 -0.30925137 0.35227838
000010 d0 83 9e bd e9 db c2 bd 25 c6 d2 be 9f 26 4a be
       -0.07739985 -0.09514601 -0.41166797 -0.19741295
000020 07 0d 96 3e db f0 20 3e ed 56 85 3b dd b7 d9 3c
       0.29306814 0.15716879 0.0040692003 0.02657693
000030 eb 7c c0 3d 65 80 73 bd d5 ea 06 3e 1b ca 31 3e
       0.09398826 -0.05944862 0.13175519 0.17362253
000040 ef ec 0c be ab 4c cb bd 38 c4 36 be d7 69 d4 3d
       -0.13762258 -0.09926733 -0.17848289 0.1037175
000050 3a 1c 7b 3e cd 63 5b 3e f4 0d 75 3d 4c b8 c2 3d
       0.24522486 0.2142479 0.05982776 0.09507808
000060 68 4c 93 3d bc a4 5d bd 12 fb a2 3e c6 64 0e be
       0.07192308 -0.05411218 0.31832176 -0.1390563
000070 31 4b ae bd 5a 1b 9b 3c 4b c8 85 3e 83 49 82 be
       -0.085104354 0.01893394 0.26129374 -0.2544671
000080 cc 3d d3 bd c5 4d aa 3c eb 7f ed bd 5b e3 5a be
       -0.10314521 0.020789037 -0.11596664 -0.21375792
000090 3e bf 52 3e cb 7a 42 be e3 7f bc bd ad cc e0 3e
       0.20580766 -0.18992154 -0.0920408 0.43906155
0000a0 29 bc fc 3d f1 7f 27 3e 8c 8d 9a bd 74 9a 5d be
       0.12340576 0.163574 -0.07546529 -0.2164095
0000b0 9f 4f 03 be ca 59 86 be 56 b0 9c 3b 7d 26 cd bd
       -0.12823342 -0.2624038 0.004781763 -0.10017107
0000c0 a9 90 84 be 9f 20 1b be b6 57 8a 3e 68 b3 48 be
       -0.25891617 -0.15149163 0.27020043 -0.19599688
0000d0 a3 1a 24 3e 01 e3 25 bd e6 fe fe bd 82 d8 31 be
       0.16025786 -0.04049969 -0.12450962 -0.17367747
0000e0 72 c6 89 3d f6 4e 3c be 07 1b 0b 3e a5 bb 28 3d
       0.067273036 -0.18389496 0.13584529 0.041194577
0000f0 26 7b e9 3d 1e 9f 15 be 7d cf ce bc a1 cf 9a bd
       0.11400442 -0.1461148 -0.025245422 -0.07559133
000100 59 74 8c 3e 39 a8 7c 3e 28 05 a8 bd c1 4a 86 be
       0.27432516 0.24673547 -0.082041085 -0.26228908
000110 2a d9 9d 3d 93 2d 1a be 33 77 4d be 13 69 08 3d
       0.077074364 -0.15056448 -0.20065002 0.03330333
000120 69 e8 30 be 78 43 1d 3e 65 93 b3 be ff 2e 38 3d
       -0.17276157 0.15357769 -0.3507339 0.044966694
000130 05 56 ad bc 4f 31 77 be 87 b5 e4 3d 56 dc 1f be
       -0.021159181 -0.24139903 0.11167436 -0.15611395
000140 68 76 6b bb 63 92 0c be 3a b9 87 3e 3a 7a 65 be
       -0.003592873 -0.13727717 0.26508504 -0.22409907
000150 56 2c 63 be e2 04 3c 3e 83 ad 2a be fa 2c fe bc
       -0.22184882 0.18361238 -0.16667752 -0.031027306
000160 79 5c da bd 93 aa 9e be 24 a3 3e be e5 7e 61 3d
       -0.10662169 -0.30989513 -0.1861692 0.055052657
000170 95 76 8a 3e dd bd 20 be af 9f 2b be 38 6c 9a be
       0.27043596 -0.15697427 -0.16760133 -0.3016069
000180 a8 6a 88 be d5 5f f8 bc 3d 77 11 bd e8 ec 47 3e
       -0.26643872 -0.030319134 -0.035514105 0.19523966
000190 54 34 80 3c 08 0a 61 bd 86 95 8d 3e e1 22 58 be
       0.015649952 -0.054941207 0.2765314 -0.21107055
0001a0 a8 66 69 3e ff 79 7a be b7 d6 e3 3d f1 cb bd 3d
       0.22793067 -0.244606 0.11124938 0.09267414
0001b0 df 48 f5 bd 00 c1 49 bc c6 e2 15 be 0e be 92 3d
       -0.1197679 -0.012314081 -0.14637288 0.07165156
0001c0 64 77 5b be 83 e8 aa bb 14 a3 44 be 9d 70 3f bd
       -0.21432263 -0.005215706 -0.19202834 -0.046738256
0001d0 fd 30 ae bd 5a f7 19 3e 72 20 29 bd 8b 99 dc bd
       -0.085054375 0.15035763 -0.041290708 -0.107714735
0001e0 ed aa 89 be 51 e7 86 3e c3 3a 2d 3e 83 7a e1 bd
       -0.2688822 0.26348355 0.16916947 -0.110096954
0001f0 14 7d b5 bc ae da 0d 3e fa 37 68 be 85 80 18 3d
       -0.022154368 0.13852951 -0.22677603 0.03723194
000200 f1 ba 9d 3d a6 d9 8e be 47 61 83 3e f1 2f 58 3e
       0.07701672 -0.27900428 0.25660154 0.21112038
000210 64 7d bd bd b5 f2 29 be 17 0a 10 be e2 29 09 3e
       -0.09252432 -0.16596492 -0.14066349 0.13394883
000220 aa 6c 94 be 0d 0a 75 3e a3 5d 14 3c b8 7b 35 be
       -0.28989154 0.23929615 0.009055528 -0.17722976
000230 3a b3 94 3c 91 5a 62 bc 4f a0 3e 3e 14 fb 1d 3d
       0.018151868 -0.013815538 0.1861584 0.038569525
000240 3f f9 13 bd 36 97 8d be 98 15 a3 3d a8 7e a4 be
       -0.03612637 -0.27654427 0.07963103 -0.3212788
000250 f0 b7 6c 3e 23 fe a9 3e 81 48 6c 3d 76 45 d4 bc
       0.23117042 0.33201703 0.057686333 -0.025912028
000260 99 98 83 bd fc b1 01 3e fb df 5d bd b0 b3 76 3e
       -0.0642559 0.12665552 -0.054168683 0.24091983
000270 50 60 8b be 2e 08 2d 3e b2 7d e1 3d d5 7e 20 3e
       -0.27221918 0.16897652 0.110103026 0.15673383
000280 46 97 16 bd af bb 35 3e 4e 2a 90 3d 00 c4 0e 3e
       -0.03676536 0.17747377 0.07039319 0.13941956
000290 be 7e 3f bd 6d e1 a3 3e 1e 91 9c 3d f1 a4 8e be
       -0.04675173 0.32007924 0.076448664 -0.27860215
0002a0 04 8f c2 3d 99 ff cf 3d 8b e6 bb 3b 83 3e 26 be
       0.09499934 0.10156173 0.00573427 -0.16234784
0002b0 a6 9f 6b 3e e1 70 4e 3d e5 78 10 3e 68 28 ed 3d
       0.2301012 0.05040062 0.14108618 0.115799725
0002c0 6d 21 2d 3e b0 2b 53 3e 34 86 1e 3e ae 45 45 3e
       0.16907282 0.20622134 0.15480882 0.19264862
0002d0 a1 4c 3e be 7c a4 6b 3e 84 a3 89 be 4c 08 08 be
       -0.18583919 0.23011965 -0.26882565 -0.13284415
0002e0 e8 ca 1b 3e fc 63 e4 3d 06 e2 04 be 17 9e ae bd
       0.15214121 0.11151883 -0.12976846 -0.08526247
0002f0 f2 ca 6e 3e 75 05 94 3e 9d 63 8f bb ab 89 8f be
       0.23319605 0.28910413 -0.0043758885 -0.2803472
000300 73 1a 32 3d 85 26 a4 3e 2d 5c 5c be d9 55 88 3d
       0.043482255 0.32060638 -0.21519537 0.06656999
000310 a7 a3 7b 3e d4 c2 c5 bd 21 38 e9 bd 8a e7 1b 3e
       0.24574147 -0.09656301 -0.11387659 0.15225044
000320 af 46 89 be 11 ef c6 bd 2b 65 7d be 28 a7 d0 3d
       -0.2681174 -0.09713567 -0.24745624 0.101881325
000330 1a 0a a3 bc 13 ee 5f 3e 52 4f 5b be 32 95 95 be
       -0.019902278 0.21868162 -0.21416977 -0.2921539
000340 78 d7 18 be 2a 03 98 be c1 d8 34 3e 6d 2a 8a bd
       -0.14925945 -0.29689914 0.1766081 -0.06746373
000350 6b 45 9b bd d8 ed 08 3e 0a 93 b2 bd 8c f1 4e be
       -0.075816 0.1337198 -0.08719452 -0.2020933
000360 16 93 44 3e 24 02 f1 bc 38 6d b9 bd 71 83 92 3d
       0.19196734 -0.029419966 -0.09054035 0.07153977
000370 04 46 5b bd 66 5f ed bd 32 da 3b 3d e8 a0 ad 3e
       -0.05353357 -0.115904614 0.045862384 0.33911824
000380 66 f8 8e 3e 6f b6 59 be 96 13 de 3c 33 03 2f be
       0.27923888 -0.21260999 0.027108949 -0.17091064
000390 24 2c 43 3e fc 44 23 be ef b6 52 be cb 78 31 bd
       0.19059807 -0.15944284 -0.20577596 -0.043328088
0003a0 11 b8 dc 3d 6c da aa 3d 3a e9 38 3e 9f 42 55 bc
       0.107772954 0.08342442 0.18057719 -0.013016372
0003b0 69 e7 0c be 41 a9 60 3e f0 5e c5 3e 2c 6e 70 3e
       -0.13760151 0.21939565 0.38548994 0.23479527
0003c0 b8 f4 42 3e 60 3a be 3d 82 99 70 3e 57 a6 99 3e
       0.19038665 0.09288478 0.23496059 0.3000972
0003d0 68 bb db 3d 96 77 59 3e a2 8e 8a 3d 15 8f a1 3a
       0.10729104 0.21237025 0.06765486 0.0012325967
0003e0 18 1c 00 3e 3a 2a bf bd 40 d7 95 be 21 75 d1 3d
       0.12510717 -0.09334226 -0.29265785 0.10227419
0003f0 5b 55 60 3e b8 0f fe bd bb 72 cf bc 66 c4 43 3e
       0.2190756 -0.12405342 -0.025323262 0.19117889

transformer.encoder.layers.0.self_attn.in_proj_bias f4 [48]
000000 e9 16 bf 3c 67 ac 5e 3c 3f e6 b1 3d 30 af 66 bd
       0.023326354 0.013590909 0.08686494 -0.056319416
000010 c5 10 81 3d ce 79 c5 3d 3e 47 ec 3b 6a 9e ca bd
       0.06302027 0.09642373 0.007210641 -0.09893496
000020 73 e9 f1 3d 06 d2 3d 3e d0 34 f9 3d 9c 83 d6 3d
       0.11812105 0.18537149 0.12168276 0.10474321
000030 3a 9c 95 3c f7 3a 02 bd 9d 42 dd 3b 03 a8 62 bd
       0.018262971 -0.031794515 0.0067523257 -0.05533601
000040 e9 ee 35 3b 2b b6 04 39 b2 af 45 3b 67 3d 07 3b
       0.002776081 0.00012656364 0.0030164537 0.0020635964
000050 30 ac f3 bb 9a 86 ca 3b 65 29 99 3b e5 84 ea 3b
       -0.007436298 0.0061805965 0.004674124 0.0071569555
000060 1b 8d c6 bb 9a 62 26 ba 3e 0f a8 bb 86 b8 db bb
       -0.0060593016 -0.000634709 -0.00512877 -0.0067053465
000070 2b de 44 3b 44 e9 16 bb 5d 79 fd bb 49 02 9d ba
       0.003003965 -0.002302722 -0.007735415 -0.001197883
000080 2b d3 9a ba ba 0a 31 3c 9d 24 39 bd 73 c3 ba 3d
       -0.00118122 0.01080578 -0.045200933 0.0911931
000090 11 fe a4 3d d9 a6 2d 3d ef f5 cc 3d 54 f6 fb bb
       0.08056272 0.042395446 0.100078456 -0.0076892767
0000a0 d9 bf bc bc cd bb 9c bc e7 65 c2 3d 61 7a 47 bd
       -0.023040699 -0.01913252 0.094920926 -0.048700694
0000b0 db 4b 43 3c dc e9 5d bd 4e 38 52 3d 88 55 46 3d
       0.011919941 -0.054178104 0.051323228 0.048421413

transformer.encoder.layers.0.self_attn.out_proj.weight f4 [16, 16]
000000 6b fa 8b be 11 4d 92 3d e7 51 91 3e 65 b5 74 be
       -0.2733949 0.071436055 0.283828 -0.23897322
000010 d4 7b 91 3e 01 36 94 3e 39 85 e6 bc 0c 77 02 be
       0.28414786 0.28947452 -0.028139697 -0.12740725
000020 b1 f6 68 be 48 d6 8b be 55 e6 46 3e 0c a8 dd be
       -0.22750355 -0.2731192 0.19423802 -0.43292272
000030 75 32 c6 3e 38 31 16 3e 6a 24 c6 3e 21 e1 ec 3e
       0.3871037 0.14667213 0.38699657 0.4626551
000040 67 70 4d be f4 09 10 bc 61 d0 d0 3e 26 b0 d8 be
       -0.2006241 -0.0087914355 0.4078398 -0.4232189
000050 03 3b 94 be 8a e0 c6 3d 7c 17 ad be a4 a2 0b bd
       -0.28951272 0.09710796 -0.3380698 -0.034090653
000060 e7 01 2b 3e c6 10 cc be bb c3 21 3e 07 5f 3d 3e
       0.16699944 -0.39856547 0.15797321 0.18493281
000070 15 d7 94 be 07 47 65 be 71 bc 5f be 4f d3 bc bd
       -0.29070345 -0.22390376 -0.21849228 -0.092199914
000080 6b 0d 9b 3e f1 97 ac 3e c1 0f d5 3d 94 ab dc 3d
       0.30283675 0.33709672 0.104033954 0.107749134
000090 63 77 85 3e 6c 39 15 bd e1 c8 92 3c 4a 9c f9 3c
       0.26067647 -0.036431715 0.017918052 0.030470032
0000a0 cb 45 9f 3e b7 a4 da bd 1a 56 cf 3e 5c 0b 57 3d
       0.31107935 -0.10675948 0.40495378 0.052501068
0000b0 36 a8 1f be 99 51 db be 5d ee e5 3d 92 2c 89 3e
       -0.15591511 -0.42835692 0.11227105 0.26791817
0000c0 57 bc ca 3e 08 2e 92 bd 80 91 91 be 95 26 ff bd
       0.39596817 -0.07137686 -0.2843132 -0.12458531
0000d0 10 e5 11 3e 43 20 e1 be de 1f bf be 44 47 b7 3e
       0.14247537 -0.43969926 -0.37329 0.3579656
0000e0 74 34 7f 3e c7 4f 89 be af 78 eb 3c 8a 74 94 3d
       0.24922353 -0.26818678 0.02874407 0.072487906
0000f0 a1 44 64 be 52 12 82 be 4d 8f cb 3e 2d ce 82 be
       -0.22291805 -0.25404602 0.39757767 -0.25547925
000100 b7 be 09 3f 5e 18 6b 3d c4 11 45 be e9 5b 9e be
       0.5380663 0.057396285 -0.19245058 -0.30929497
000110 7c df 80 3e d6 7b be 3e 58 ce 9f 3e 24 7d 1c 3e
       0.25170505 0.37203854 0.31212115 0.15282112
000120 e8 f3 18 be 66 df 75 3e d7 84 84 3e 89 d3 4a be
       -0.14936793 0.24011001 0.258826 -0.19807257
000130 6e ad a2 be e5 86 8b 3e 1f f9 e3 3d 18 e3 8a 3e
       -0.3177294 0.27251354 0.111315005 0.27126384
000140 35 32 14 3e 48 f0 aa be d9 3d 30 be 5d 43 c3 be
       0.14472277 -0.33386445 -0.17211093 -0.38137332
000150 7d 4d a9 be 37 7a 93 3e 0d 50 02 bd 59 e8 98 be
       -0.3306693 0.2880418 -0.031814624 -0.29864767
000160 38 a3 68 be ac b7 8e be 00 92 a2 3d 3c 09 ca 3d
       -0.22718513 -0.27874506 0.079380035 0.098650426
000170 63 47 46 3d 67 aa c4 be fb 85 3e be 76 d0 a8 3e
       0.048407923 -0.38411257 -0.18605797 0.32971543
000180 cb 66 96 be 16 78 76 be 5f d2 b1 be 51 dc 9b 3e
       -0.293753 -0.24069247 -0.34730813 0.30441526
000190 16 60 a4 3e cd d5 ce 3e a4 b1 d2 3e d0 1f 91 3e
       0.32104558 0.40397492 0.41151154 0.28344584
0001a0 e4 13 d8 be 1d af 18 be 8e 51 85 be 50 4f 2f 3e
       -0.42202675 -0.1491055 -0.26038784 0.17120099
0001b0 9a 48 d8 be a4 27 d0 be db 95 00 3e 42 bf 49 be
       -0.4224289 -0.40655243 0.12557165 -0.19701865
0001c0 1a 1b bc 3d c5 cc 97 3e 2b fb 97 3e f0 10 19 3e
       0.09184857 0.29648414 0.29683813 0.14947867
0001d0 a2 c3 65 3d 46 2b a1 3b 11 17 05 3e 16 3e 13 3e
       0.056094773 0.0049184887 0.1299708 0.14379153
0001e0 c5 05 ab be 4a ff a1 bd a9 5d 91 3e d4 11 dd 3d
       -0.3340284 -0.07910021 0.2839177 0.10794416
0001f0 7e 78 c2 3e 07 b8 64 3c cf 35 cc 3d 9d 32 4e be
       0.37982553 0.013959891 0.09971201 -0.20136495
000200 0f 48 14 3e 03 1b a9 3e 98 df c0 bb 49 d6 7b be
       0.14480613 0.3302842 -0.0058860295 -0.24593462
000210 86 77 b5 3d 50 5f a2 be 33 4b 12 3e f1 02 40 3e
       0.08860688 -0.31713343 0.14286499 0.18751122
000220 52 44 a9 be 96 18 da be 89 f6 ca bd c4 d7 b5 3e
       -0.33059937 -0.42596883 -0.09910304 0.3551618
000230 64 f3 09 bd fb 3c d3 bd 8d 07 c3 be 9f ee 98 3d
       -0.03367938 -0.103143655 -0.38091698 0.07467388
000240 63 29 b9 be d1 ab b8 3e bd d9 99 be 81 93 81 3e
       -0.36164388 0.36068586 -0.30048934 0.2530785
000250 c6 69 b9 be a4 12 f1 be 9c 2d 17 3d 07 8c 6f 3e
       -0.3621351 -0.47084534 0.03690873 0.2339326
000260 fd c4 cc 3e 72 5d 79 3e 35 21 52 be 51 55 f6 3d
       0.3999404 0.24352053 -0.2052048 0.120279916
000270 80 e5 19 3e 01 7d af be 2e 96 a7 3d d1 2a ea be
       0.15028954 -0.34275058 0.081829414 -0.4573579
000280 71 ad 98 bd 32 e0 23 3e 13 a9 12 bd e6 eb ec 3e
       -0.07454956 0.16003492 -0.035805773 0.46273726
000290 e7 65 4d bd f0 30 89 3d a5 d7 33 bd 84 fa 1d be
       -0.05014601 0.06698787 -0.043906827 -0.15427595
0002a0 32 bf 94 be d9 14 08 be 37 9d bf 3e 66 0b c5 be
       -0.2905212 -0.13289203 0.37424633 -0.3848526
0002b0 02 cf 04 be c6 2d aa bd 45 88 1c 3d a0 f0 da 3e
       -0.12969592 -0.08309512 0.038215894 0.42761707
0002c0 f3 2d bd 3e e4 78 e0 3d 16 6c 0f 3e c4 c9 88 be
       0.3694912 0.10960558 0.14006075 -0.26716435
0002d0 99 eb 3c 3e 7a fa 03 be 42 a3 bc be 15 ad b6 3d
       0.18449248 -0.12888518 -0.36843306 0.089197315
0002e0 bc b6 9c be 32 f9 9b be fd 4f 00 bf de 1e a4 3e
       -0.30608165 -0.30463558 -0.5012205 0.320548
0002f0 ae 09 2b be 40 e1 2a 3d fa 0b f7 3c 1c 1a 9b 3d
       -0.16702911 0.04171872 0.030157078 0.07573339
000300 2d d5 48 3e 23 b0 f9 3c 8f 97 e9 bd d5 ea b3 bc
       0.1961257 0.030479496 -0.11405861 -0.021962563
000310 b3 1f 79 3e 69 c4 24 be e1 61 01 be d4 0b 69 3e
       0.24328499 -0.1609055 -0.12634994 0.22758418
000320 6c 50 35 3d 08 2b 4b 3d dc a6 ed 3d a0 3f 84 be
       0.04426615 0.049601585 0.116040915 -0.25829792
000330 cd 82 22 be 4d 3e e9 be 13 8b 55 3e 5c bd b2 3e
       -0.15870209 -0.45555344 0.20853834 0.34910095
000340 0c 8c fe 3d 6e 07 9e be 8d 24 85 3e 76 5c bb be
       0.124290556 -0.30865043 0.2600445 -0.3659398
000350 c1 d6 1e bd 0e 45 08 3e a4 8f 83 be 75 db bd bd
       -0.038779024 0.13307592 -0.25695527 -0.09270374
000360 ff de 43 be 5e 03 50 be fc 43 be bc bc 82 67 be
       -0.19128035 -0.20313784 -0.023225777 -0.22608465
000370 82 ac 2c be 27 14 48 bb a7 57 05 3d fc 28 db bd
       -0.16862682 -0.003052959 0.032554295 -0.107011765
000380 b3 e8 e7 bd 50 19 19 bd 38 2b ce be e8 2a c8 be
       -0.11323681 -0.037377656 -0.40267348 -0.39095235
000390 e2 9b 74 3e 9e db 56 bd e7 14 52 3e 86 57 21 be
       0.2388759 -0.052455537 0.20515786 -0.15756044
0003a0 7c 24 de bd b9 c7 a5 3e 21 40 c5 3e 1f 6e 3f 3d
       -0.108468026 0.3237894 0.3852549 0.04673588
0003b0 3b f8 2b 3d bd 5d fe bd 49 f4 46 bc a4 aa 39 be
       0.041984778 -0.12420223 -0.012143203 -0.181315
0003c0 ac 66 98 3e 8c b5 68 be be 74 8b be e1 33 c1 3e
       0.29765832 -0.22725505 -0.27237505 0.37734893
0003d0 97 a1 57 3e 18 09 ce 3c f5 49 64 be 9b 81 dd 3d
       0.21057735 0.02515082 -0.22293837 0.10815736
0003e0 2f 42 1c 3e 64 7f 92 3e 9f 55 9b bd df 48 85 bd
       0.15259622 0.28612816 -0.0758469 -0.0650804
0003f0 2d 41 e9 3d 91 6b a1 be 1b b0 94 bc 99 e3 2d 3e
       0.113893844 -0.3152738 -0.01815038 0.16981353

transformer.encoder.layers.0.self_attn.out_proj.bias f4 [16]
000000 cf 24 28 3d 52 52 6a bd b2 5f d5 3d 44 21 00 3d
       0.04105073 -0.057207413 0.10418643 0.031281725
000010 a8 7b 13 bd 23 7c 2d 3d c6 5f d6 3d ce 8d a4 3d
       -0.0360066 0.042354714 0.10467486 0.080348596
000020 91 19 79 bd 79 11 a9 bd 3e 33 7e 3d 03 f1 42 be
       -0.060815398 -0.08255286 0.062060587 -0.19037251
000030 c2 e7 02 39 a4 88 3e be 68 78 65 3d ac a5 99 bc
       0.00012484103 -0.18606812 0.05602303 -0.018755756

transformer.encoder.layers.0.linear1.weight f4 [64, 16]
000000 84 4e 53 3e 14 ad 19 3e 30 7c e4 3c 33 91 01 3e
       0.2063542 0.1500743 0.027891248 0.12653045
000010 da 47 1e be a1 5d 44 be 62 df c2 3e 72 6c 06 be
       -0.15457097 -0.19176342 0.38061053 -0.13127306
000020 32 91 2f be 25 9a bb bd eb 58 06 3e da 6b af bc
       -0.17145231 -0.0916026 0.13119857 -0.021413732
000030 ff 84 2f bd aa 48 4a be 4c 89 5a 3e 2d bb 2e be
       -0.042851444 -0.19754282 0.21341437 -0.1706359
000040 a6 60 58 3e 1a e4 31 bd 32 b3 31 3e 5e ba 53 bd
       0.21130618 -0.043430425 0.17353514 -0.051691405
000050 24 5b 92 3d b5 18 7d be ef 61 b8 3c b6 ee 5e be
       0.0714629 -0.24716456 0.022507636 -0.21770748
000060 27 07 42 be 92 fc 00 bd b0 d0 46 be ac f6 8b 3e
       -0.18948041 -0.03149087 -0.19415545 0.27336633
000070 da 2c 1d 3e 01 5d 99 3d 52 c5 c7 3d 11 89 36 bd
       0.15349141 0.07488442 0.09754433 -0.04456431
000080 3c 59 5c 3e a7 58 35 bd c1 21 ed bc a5 28 f2 3c
       0.21518415 -0.044274 -0.02894676 0.029560396
000090 73 d2 84 bb 23 13 5f 3e 60 df 51 3e 9f 5f 24 be
       -0.004053408 0.21784644 0.20495367 -0.16052102
0000a0 f7 a2 95 bb 2e 33 c3 bd 4c 5b 14 bc 98 df 52 3e
       -0.004566546 -0.09531246 -0.00905497 0.20593107
0000b0 d0 ac 8b bd 4f a3 82 3e 2f e9 0d be 87 dd 88 be
       -0.06820071 0.2551522 -0.13858484 -0.26731512
0000c0 86 d8 4f 3c 8a ad b3 be 2e 2b 91 3e 69 4d 19 be
       0.012685901 -0.35093337 0.28353256 -0.14970936
0000d0 95 34 ae bc 9e 53 d3 bc 19 50 2a 3e 4c 49 8a 3d
       -0.021265307 -0.025796708 0.16632117 0.067522615
0000e0 a5 47 0e 3e 8e a8 93 be ac 7d 1f bd 35 e3 3e be
       0.13894518 -0.28839535 -0.03893821 -0.1864136
0000f0 35 a8 a0 bc d4 7e c0 3d 34 0f 5b 3e 37 20 17 be
       -0.019611457 0.093991905 0.21392518 -0.14758383
000100 59 57 8c bd 4f 4b 33 bd eb 02 95 be 1b b4 d9 3d
       -0.06852598 -0.04377299 -0.2910379 0.106300555
000110 19 0e 20 3e 5f 51 96 3e 24 fd 4b 3e 61 dd d3 bd
       0.15630378 0.29358956 0.19920784 -0.10344959
000120 13 7b 67 3e 67 35 e0 3c fb 4b 87 3e 3f 72 12 3c
       0.22605543 0.027369214 0.26425156 0.008938371
000130 25 4b 7b bc 0b f6 cf bd cf c8 83 bd 6c 88 f4 bd
       -0.01533774 -0.10154351 -0.064347856 -0.11940083
000140 e6 57 48 bd 4a 63 57 3e 0b e5 13 3e b0 96 21 3d
       -0.04891195 0.2103397 0.14442842 0.039450347
000150 31 68 b9 bd 78 6f 51 3e 1d bc f1 3d 86 af 29 3a
       -0.09053076 0.20452678 0.11803458 0.00064729934
000160 44 79 98 3b cf 76 ea 3d 47 de 6e 3e 73 5a e8 3d
       0.004653128 0.11448442 0.2332698 0.11345377
000170 76 18 23 3e ed fe a6 bd a8 0d 4a 3e 8d e3 04 be
       0.159273 -0.08154092 0.19731772 -0.12977429
000180 00 0b b5 bb aa 8e bc bd e6 68 6b bc de ef 2b 3d
       -0.005524993 -0.092068985 -0.014368271 0.041976802
000190 e6 10 88 3e 80 e9 42 bd f2 e3 9c bd 49 c5 97 bd
       0.26575392 -0.047585964 -0.076606646 -0.07410676
0001a0 dd 0c 08 be ae 8f 22 3e 6d 58 46 be 7a 55 8c 3d
       -0.13286157 0.15875122 -0.1936967 0.06852241
0001b0 16 16 fa 3d 07 5c d9 bd 18 7b 2f bc 37 74 d4 bd
       0.12211244 -0.10613256 -0.0107105 -0.10373729
0001c0 87 05 34 be 37 a9 1a 3d 9a 73 ac 3d 63 be 39 bc
       -0.17580234 0.037759032 0.08420487 -0.011336896
0001d0 50 26 90 bc 29 5d c6 bd fa c4 20 3e 25 89 19 be
       -0.017596394 -0.09685738 0.1570014 -0.14993723
0001e0 2d 82 e2 3d 6b 91 07 bb fa 4f d2 3c ad 05 0c be
       0.11059985 -0.002068604 0.025672901 -0.1367404
0001f0 c6 b3 7a 3e d2 fd d2 bc 87 44 5b 3d ee 0d 20 3e
       0.2448264 -0.025755797 0.05353215 0.15630314
000200 92 79 49 be fc 06 d6 bc e1 02 4f 3e 0a 64 e3 3d
       -0.19675282 -0.026126377 0.20215942 0.11103065
000210 e9 cc 13 be 5d 83 d8 3e 2d 32 fb bc e8 c6 6d 3e
       -0.14433636 0.42287722 -0.030663574 0.23220408
000220 6e 64 8a bd 55 bc 18 be e1 6a 0e be 5f a3 ec 3d
       -0.06757437 -0.14915593 -0.13907959 0.11554598
000230 f5 e8 09 be 4d 76 64 be 6a ef c5 3c 39 56 b2 ba
       -0.13467772 -0.22310753 0.024162013 -0.0013606019
000240 0b 63 1f 3e 81 75 5d be 96 fa 4c bd 2c 73 8b be
       0.15565126 -0.21626855 -0.050043665 -0.27236307
000250 38 27 84 3e f2 ce 37 3e 44 c0 fd bd a3 c3 eb bd
       0.25811172 0.17950037 -0.123901874 -0.11511924
000260 cd ea 65 bd f9 52 be 3e 7f 7d 93 be ca 66 49 3e
       -0.056132127 0.37172678 -0.28806683 0.19668117
000270 94 03 4d be 6c 36 23 3e 44 f7 c4 3c a3 85 69 bd
       -0.20020896 0.15938729 0.024043687 -0.05701221
000280 6d 79 8f bc 7b 56 9b 3e 32 1d ac bd e3 ea e4 bb
       -0.017513955 0.30339417 -0.08404006 -0.0069860085
000290 39 bb 7b bd d9 99 92 be bb 12 51 be 06 0b 09 3e
       -0.061457846 -0.28633 -0.20417301 0.13383111
0002a0 82 11 ae 3d 5e 69 0e 3e 0c fb 91 be 75 a0 d9 3d
       0.08499433 0.13907382 -0.28511846 0.10626308
0002b0 cc 0d e8 bd b4 8d 5a 3e cb a3 a7 3d 64 c7 0e 3e
       -0.113307565 0.21343118 0.08185538 0.13943249
0002c0 1c 84 2e 3e 36 a9 95 be 6b 30 69 3d e6 32 9a bd
       0.17042583 -0.2923066 0.05693094 -0.07529239
0002d0 51 0e a4 bd b3 fa 82 3d da b6 37 be e8 5f 05 bd
       -0.08010543 0.06395473 -0.17940846 -0.032562166
0002e0 35 10 a0 3e a2 07 39 be 13 e6 fc 3d 9b 76 de bd
       0.31262365 -0.18069318 0.12348571 -0.10862466
0002f0 13 34 b0 bc 58 5f 70 bd c7 25 c1 3d 44 ad b8 3d
       -0.021509206 -0.058684677 0.094310336 0.09017423
000300 25 06 19 3e 2f 12 34 be 01 57 66 be 3b 08 8a be
       0.1494375 -0.17585061 -0.22494127 -0.26959404
000310 be f5 d5 bd 1f 07 40 be 45 db d8 3d 14 d7 3e 3e
       -0.10447262 -0.18752716 0.10588697 0.18636733
000320 9d 91 42 3c ca aa 8d be 74 b5 30 3e 24 18 3b 3e
       0.011875537 -0.27669364 0.17256719 0.18270928
000330 d3 6a 54 be 92 69 85 3e 3b f1 54 3d 17 89 3e be
       -0.20743875 0.26057106 0.051987868 -0.18606983
000340 b5 56 a6 3e 96 8d 61 3d b3 17 6b 3e ed f0 ab 3d
       0.32488027 0.055066667 0.2295826 0.08395562
000350 d8 f1 1f 3c 96 22 1b 3e 05 21 f0 bc bd fc af 3c
       0.00976225 0.15149912 -0.02931262 0.02148282
000360 f8 3b 9a be 67 e1 99 be 8d b5 4b be 93 41 1e be
       -0.30123878 -0.3005478 -0.19893475 -0.15454702
000370 4c b1 7b 3d 9a c4 c6 3a 9a 8a 4c be 8a b0 03 3e
       0.06144838 0.0015164793 -0.19974747 0.12860313
000380 3a dc 58 bc e0 10 3b be af 2c 42 be 04 5f 33 be
       -0.0132361 -0.18268156 -0.18962358 -0.17516714
000390 6b 6f e0 bb 86 86 da bd 29 f4 72 be 71 72 6a be
       -0.0068492196 -0.106701896 -0.23725952 -0.22895218
0003a0 b2 50 c6 bc 8a ec 82 3d 7a 45 8d 3e b9 c5 86 bd
       -0.0242084 0.063927725 0.2759207 -0.06580681
0003b0 24 26 42 3e 86 5d 04 3e 24 47 a2 3e 40 36 99 3d
       0.18959862 0.12926301 0.316949 0.074810505
0003c0 17 24 e3 bd fe ae 83 3e b6 b3 82 be 41 76 1c 3e
       -0.11090868 0.25719446 -0.25527734 0.15279485
0003d0 eb b8 5e 3d 6f 85 50 3c 7a f1 d9 bd 25 32 2b 3e
       0.05437557 0.012727126 -0.10641761 0.16718347
0003e0 81 c8 85 3d d0 3e 36 3e 86 97 5a be fe 73 57 be
       0.06532384 0.17797399 -0.21346864 -0.21040341
0003f0 28 a2 53 3e a7 4c b6 bc c8 24 fa bd 31 fa d0 bc
       0.20667326 -0.022253348 -0.12214047 -0.025509926

transformer.encoder.layers.0.linear1.bias f4 [64]
000000 6c 55 87 3d 3d 0c 7f bd 95 7a d5 3d 8d d9 51 be
       0.0660809 -0.06226753 0.10423771 -0.20493145
000010 71 15 bc 3d 68 38 25 be fb 2f 21 3e 00 0b 60 be
       0.09183777 -0.16134799 0.1574096 -0.21879196
000020 6e 6b 4e be 1d 10 d2 bd 4c 8a cb 3c 07 79 07 3d
       -0.20158169 -0.102569796 0.024846219 0.033074405
000030 c2 f8 1b be cd 67 6b bd 93 c0 05 bd d6 fe a2 3d
       -0.15231612 -0.05747204 -0.032654356 0.07958762
000040 18 08 0a bc 30 90 6d bd 13 8e 14 3e 46 89 ab bb
       -0.008424781 -0.057998836 0.14507322 -0.00523487
000050 1a 28 3b bc dc 26 a2 3d 53 7e 35 3e fc 86 9e bd
       -0.011423135 0.07917568 0.1772397 -0.0774059
000060 38 c2 ef 3d 7c dc 62 3d 01 2f 22 be 33 41 a9 3d
       0.11706966 0.05538605 -0.15838243 0.08264389
000070 ac a1 5d 3e 20 0a 5c be b3 9b 4a be 01 cf 8c be
       0.21643704 -0.21488237 -0.19785957 -0.2750168
000080 ad 5d 07 3e 90 5c 80 3e d6 b9 bf bd 0a e6 3c bd
       0.13219328 0.2507062 -0.09361617 -0.04611782
000090 3f 53 4e 3e f1 7e 81 bb f7 be b8 bd b2 db 76 3e
       0.20148943 -0.0039519 -0.09020799 0.24107245
0000a0 57 34 59 3e a2 3a 03 3c b2 33 38 be c6 05 1e 3e
       0.21211372 0.008009585 -0.1798847 0.1543189
0000b0 3f a5 61 be 6e 1a 9d be 33 51 7f be 96 c1 14 3e
       -0.22035693 -0.30684227 -0.24933319 0.14526972
0000c0 14 1c 20 3e b2 35 13 3e 42 0b 4d bd 1c 8c f1 bb
       0.15635711 0.14375952 -0.050059564 -0.0073714387
0000d0 bf 64 6c be fe 7e ef 3c 6e 24 08 be 47 15 9b 3a
       -0.23085307 0.02923536 -0.13295147 0.0011831903
0000e0 a3 f5 37 be 81 df 32 3e 63 c3 27 3e 22 ce 87 3d
       -0.17964797 0.17468072 0.16383128 0.066311136
0000f0 24 0c 4d be 6a eb 42 be db ca 0c 3e f8 3f 91 be
       -0.20024163 -0.19035116 0.13749258 -0.28369117

transformer.encoder.layers.0.linear2.weight f4 [16, 64]
000000 5e 74 4b be 67 4f 77 be 91 22 f5 3d 4f 3f 67 3e
       -0.1986861 -0.24151383 0.11969484 0.22582744
000010 6b 8c 5f be 72 fd 6f be 61 55 07 be 3b 68 42 be
       -0.21830909 -0.23436525 -0.13216163 -0.18985073
000020 26 da a5 be b7 37 2b be 6c ad b7 bd c9 1b 54 3e
       -0.32392997 -0.16720472 -0.089686245 0.20713724
000030 7c e6 f1 3b a4 93 81 be cc 33 88 be 87 a2 cd bc
       0.007382212 -0.25307953 -0.26602018 -0.025101913
000040 48 93 3e be 1d 72 2e be 06 a1 43 bd f3 cc e5 bd
       -0.18610871 -0.17035718 -0.047760986 -0.112207316
000050 c0 1a 26 3e 78 b8 55 be 31 4e 8c 3d 5d 12 13 be
       0.16221142 -0.2087115 0.06850851 -0.14362474
000060 7a 98 51 be ee 24 0a 3e d0 f9 0e 3e 60 e5 43 bd
       -0.20468321 0.1349065 0.13962483 -0.04782617
000070 87 c5 6f bd 90 50 4e be 88 19 16 3e 87 85 bb 3c
       -0.058537986 -0.2014792 0.14658177 0.02289082
000080 bf ce 45 be 4b 5a 58 be 4f f3 87 bd 25 2b 18 3c
       -0.19317149 -0.21128194 -0.06638204 0.00928763
000090 82 dc 09 3e d0 dc ea 3d 5b 9c 4a 3e c5 7b 82 3e
       0.13463023 0.11467898 0.19786207 0.25485054
0000a0 70 04 88 3d 7f 01 31 bd 7a 6d 3d 3e 2d 75 a2 3d
       0.066414714 -0.043214317 0.18498793 0.07932506
0000b0 af 35 64 3e 0f 09 25 be 62 42 7b bc 09 b1 05 bc
       0.22286104 -0.16116737 -0.015335651 -0.008159884
0000c0 b5 d5 d1 3d 6c 28 91 be 53 f3 69 be c7 44 44 be
       0.102458395 -0.28351152 -0.22846727 -0.19166861
0000d0 56 82 86 be c1 06 4b 3e f8 ce 58 3e 56 be 63 be
       -0.26271313 0.19826795 0.21172702 -0.22240576
0000e0 74 d8 a1 be c4 3a 97 3d f9 f6 4d be 72 d6 a3 3b
       -0.31610453 0.073842555 -0.20113744 0.004999929
0000f0 7b d9 9b 3d 85 b1 95 be 74 be 9f be b4 c5 1e be
       0.076098405 -0.29237 -0.31199992 -0.15505105
000100 55 4c 4c be 04 da 75 bd b5 81 1e be b0 5b 17 3d
       -0.19950993 -0.06002237 -0.15479167 0.036952674
000110 a6 d4 a2 bd 94 ce c2 bd 92 d9 76 be a9 39 07 3e
       -0.07950716 -0.09512058 -0.24106434 0.1320559
000120 d1 cf cf bd 84 a4 58 3e fa d5 89 bd 55 d9 07 be
       -0.1014706 0.21156508 -0.06730266 -0.132665
000130 30 15 6d be f7 92 09 be 7a d6 04 bd cb 61 4e bc
       -0.23152614 -0.13434969 -0.032431103 -0.012596558
000140 02 92 a3 bd 9e b9 51 3c 00 06 74 be 7c eb fc 3d
       -0.07986833 0.012800602 -0.23830414 0.123496026
000150 4f 67 55 3e 51 a0 fb 3c b2 b4 00 3d 1e 27 80 3e
       0.2084019 0.030716093 0.031422324 0.25029844
000160 df fe 0e bb 4f ad 63 be a9 a5 50 be ea f6 5c 3c
       -0.0021819395 -0.2223408 -0.20375694 0.013486603
000170 a5 8b 07 3e ef 30 43 3d 9d 17 0e 3e eb 64 69 be
       0.13236864 0.04765409 0.13876195 -0.22792403
000180 74 ef 5f be da 81 22 be 4f 26 5c bd 53 0c 11 be
       -0.21868688 -0.15869847 -0.05374747 -0.14164858
000190 2b af a1 3e 5f d3 cd 3c dd 54 dd bd 72 3e c4 3c
       0.31578955 0.025125204 -0.10807202 0.023955557
0001a0 84 b0 49 be 6c 49 10 bd d2 29 f3 bc aa 9d 4f bd
       -0.19696242 -0.03522627 -0.029683027 -0.05068747
0001b0 a3 72 2e be 85 1d 66 bd 9e 2c f7 bd 9b 4f 48 bd
       -0.17035918 -0.056180496 -0.12069057 -0.048904043
0001c0 a5 fa 4d be 51 61 5e 3e d3 e0 0d bd 05 17 99 be
       -0.20115145 0.21716811 -0.034638237 -0.29900375
0001d0 42 ca 17 3e 77 77 15 3e e3 f4 38 be 99 8b 59 be
       0.14823249 0.14596353 -0.18062167 -0.21244659
0001e0 89 31 af 3c 88 ca 83 3e 98 30 88 be 62 4f 9e be
       0.021385925 0.25740457 -0.26599574 -0.3091994
0001f0 47 08 72 be 89 44 81 3d c5 f0 0c 3e 53 2a 5a be
       -0.2363597 0.063119 0.13763721 -0.21305208
000200 bc f7 2f bd 28 3e 67 3d 27 3c 8f bb dd ed e8 bd
       -0.042960867 0.05645576 -0.0043711844 -0.11373494
000210 04 b5 2a be 89 93 17 3e 60 ed 4d 3e 67 7b 9b 3e
       -0.16670614 0.14802374 0.20110083 0.30367586
000220 a5 0c 36 3e a0 3b 24 3e 2a ed 29 bc 04 ce 99 bd
       0.17778261 0.1603837 -0.010371486 -0.075099975
000230 12 42 42 3e b9 4d 5f 3e 1b 9a 00 be ca e8 5d 3e
       0.18970516 0.21806993 -0.12558787 0.21670833
000240 22 84 a6 bd 8f ce 2c 3e 59 be 38 bd 6c b9 b6 bb
       -0.08130671 0.16875671 -0.045103405 -0.005576303
000250 c4 77 a4 3e aa e2 31 3c 95 43 3e 3e 8e ac dd 3d
       0.32122624 0.010857264 0.18580468 0.10823928
000260 8e 45 86 3e 2b eb 2a 3e 3b f7 74 be 8f d3 b1 3b
       0.2622494 0.16691272 -0.23922436 0.005426831
000270 5c 41 65 be f1 17 e9 bd 76 d6 c9 3c 39 71 41 3d
       -0.22388214 -0.113815196 0.024638396 0.04722712
000280 8f af e9 3c 2e cc 50 3c 3b a8 56 3e 4f 6e 91 3e
       0.028526096 0.012743993 0.20962612 0.2840447
000290 56 e5 0a 3c 93 3f 32 be b7 42 86 3e 09 97 1f be
       0.0084775295 -0.17407064 0.26222774 -0.15584959
0002a0 7e 4e 37 be ae b3 cc 3d 11 6f e0 3b 87 f0 24 3d
       -0.17901036 0.09995209 0.0068491776 0.040268447
0002b0 c8 93 24 bd 90 92 fc 3b 42 d7 7b 3e 5d e1 a5 bc
       -0.040179998 0.0077079013 0.24593833 -0.020249063
0002c0 48 e4 d4 3d 6e cf 6d be 82 00 e7 3c e7 0d 1a 3e
       0.10395104 -0.2322366 0.028198484 0.15044366
0002d0 ea b0 5d be 7a 5c 74 3e 1f f4 96 bc 53 d6 df 3b
       -0.21649519 0.23863402 -0.018426953 0.0068309694
0002e0 70 9e ab 3e bd 31 c7 bd 12 26 3e be 34 cf 18 3d
       0.33519316 -0.09726284 -0.1856921 0.03730698
0002f0 85 d4 0e bd 7d cb 76 3d ce b8 3a be 30 39 ce 3c
       -0.034870643 0.060252655 -0.1823456 0.025173753
000300 de 12 04 bd 26 45 6a 3e 56 fd 5d be e9 e3 7c bc
       -0.032244556 0.2287794 -0.21678671 -0.015435197
000310 dc 9b e8 bd 77 98 dc bd a1 70 41 3e 45 f0 5b be
       -0.11357853 -0.10771268 0.18890621 -0.21478374
000320 c8 d8 49 3b ef f1 49 bc 40 62 3c be 04 54 07 3d
       0.0030799378 -0.012325748 -0.18396854 0.033039108
000330 9c a1 b0 bd b8 08 09 be 46 aa 0a be ba 88 01 3e
       -0.086245745 -0.13382232 -0.13541517 0.12649813
000340 e0 47 30 3d 4a 7e 3d 3e 34 e2 20 bd 69 85 0c bd
       0.043037295 0.18505207 -0.039278224 -0.034306917
000350 cc 4d 3b 3e 04 ee 69 be ea 22 6e 3e c8 a2 80 3e
       0.18291396 -0.22844702 0.23255506 0.25124192
000360 3b f2 1a be 01 dd 9e 3d 79 6d 85 3e e1 f9 17 be
       -0.15131466 0.07756997 0.26060084 -0.14841415
000370 da 30 0c 3e 2a 86 00 3e ff 3c 11 3d 01 3a a1 bd
       0.1369051 0.1255118 0.03545856 -0.078723915
000380 db 7b d4 3d 7e 51 f2 3d 70 a0 4e bc c1 49 22 bd
       0.10375186 0.1183195 -0.0126114935 -0.03962112
000390 f1 b6 03 3e 52 f1 4c be 70 1b 4c be d2 f0 89 bc
       0.12862755 -0.20013931 -0.19932342 -0.016838465
0003a0 38 68 54 be bb 5e c4 bc 8a 78 1c 3e aa 36 5c 3e
       -0.20742881 -0.023970952 0.15280357 0.21505228
0003b0 37 b3 65 be c6 1f 19 be 41 e6 2e 3e 86 17 d2 3c
       -0.22431646 -0.14953527 0.17080022 0.025645982
0003c0 25 ba 2c 3e 4f 3e 19 3c 61 26 c6 bd 08 82 03 3e
       0.16867884 0.009353234 -0.09675289 0.12842572
0003d0 c1 a7 30 3e 04 f3 91 bd 12 1a 12 bd 1b 15 79 3e
       0.17251493 -0.0712643 -0.035669394 0.24324457
0003e0 46 12 14 be 7d 80 97 3e ee f0 8a be 53 20 0a 3e
       -0.14460096 0.29590216 -0.2713694 0.13488893
0003f0 79 76 12 be d6 86 70 3e 25 1b f3 3d e4 aa 02 3e
       -0.14303006 0.23488936 0.11870412 0.12760502

transformer.encoder.layers.0.linear2.bias f4 [16]
000000 ae e0 d9 bd ac 64 ba bd 91 86 e8 bc a8 cc f0 3d
       -0.106385574 -0.09101233 -0.028384479 0.11757785
000010 e1 07 27 bd 20 f9 8a bd 97 8f 29 3e de 1f ea 3d
       -0.040779 -0.06785798 0.16558681 0.114318594
000020 cd 74 34 bd 23 29 2b bd 8a 6c b2 3d 0e 2d fe bc
       -0.044056702 -0.041787278 0.087121084 -0.031027343
000030 7f 10 80 bd 93 9f ce bc 79 5f 6a 3c cf 86 23 3e
       -0.062531464 -0.025222575 0.014304989 0.15969394

transformer.encoder.layers.0.norm1.weight f4 [16]
000000 a2 dd 80 3f e3 8f 82 3f c1 4a 86 3f 8e 90 85 3f
       1.0067637 1.0200161 1.0491563 1.043474
000010 ac 31 6b 3f 48 73 67 3f 90 83 8c 3f 8a f1 6b 3f
       0.9187267 0.9041028 1.097765 0.92165434
000020 0e d4 76 3f aa fd 8a 3f e0 25 8f 3f 05 5d 68 3f
       0.9641732 1.0858662 1.1183434 0.90766937
000030 f5 a9 56 3f 34 e6 7a 3f e7 af 61 3f 9f 1a 7a 3f
       0.83853084 0.9800751 0.8815903 0.9769687

transformer.encoder.layers.0.norm1.bias f4 [16]
000000 97 05 87 3a d8 f2 c5 bc e2 7b 2d 3d 25 c9 b0 3c
       0.0010301349 -0.024163648 0.042354472 0.021580288
000010 86 ac 0e bc b6 2e ef 3b 87 6f 86 3d 53 ac fc 3a
       -0.008708125 0.0072992695 0.06564241 0.0019277431
000020 34 97 b3 bc 1f ac f5 bc 88 f0 fb 3c a5 d6 95 bd
       -0.021922685 -0.0299893 0.030754343 -0.07316331
000030 2e a2 f8 bc f9 09 7c bd c2 fd 46 3d d6 a8 89 3b
       -0.03035077 -0.06153295 0.048581846 0.004201035

transformer.encoder.layers.0.norm2.weight f4 [16]
000000 7d 34 7f 3f e4 d7 89 3f 63 90 7e 3f ed df 84 3f
       0.99689466 1.076901 0.99439067 1.0380837
000010 27 c8 66 3f b6 c8 71 3f 4a d5 83 3f 9c 76 62 3f
       0.9014916 0.94446886 1.0299466 0.88462234
000020 a7 f6 69 3f 60 62 83 3f 99 36 8d 3f fe 85 86 3f
       0.91391987 1.0264397 1.1032287 1.0509641
000030 3d c7 6e 3f 8d 93 77 3f 9e aa 64 3f 7c c3 79 3f
       0.93272763 0.9670952 0.8932284 0.9756391

transformer.encoder.layers.0.norm2.bias f4 [16]
000000 6d da 94 3a 05 05 a4 bc 4e 11 e2 3c a1 b7 0a 3d
       0.00113566 -0.020021925 0.027596142 0.03386653
000010 96 b7 4a ba 30 45 f9 3a 4d 7d 00 3d 04 37 d9 3b
       -0.0007733045 0.0019017812 0.031369496 0.006628873
000020 a9 9b bf 3c 75 14 09 3c b7 0f 5c 3c 30 6f 03 bd
       0.023389654 0.008366694 0.013431481 -0.03208846
000030 87 bb 51 bd 46 34 60 bd f5 38 5d 3d 66 06 4e 3d
       -0.05120423 -0.05473735 0.054009397 0.05029907

transformer.encoder.layers.1.self_attn.in_proj_weight f4 [48, 16]
000000 05 3a 78 be de 3b c6 3c bc 7d 37 3e 45 1e a6 3d
       -0.24240883 0.024198469 0.17919058 0.08111242
000010 bb d7 6c bd 1c 4a 02 be 5c 3b 8a 3e cf 31 21 be
       -0.057822924 -0.12723583 0.26998413 -0.15741657
000020 d0 b7 d2 bd 64 92 20 be 37 ac 78 be fc af 85 bc
       -0.10288966 -0.15680844 -0.24284445 -0.016319267
000030 db dc 9e 3e 84 c5 fa bd f4 02 05 3e 3c fd 89 be
       0.31027874 -0.12244704 0.12989408 -0.26951015
000040 5e e9 68 3e bd 88 58 be b8 8b 9f 3d 17 0e 82 3e
       0.22745273 -0.21145912 0.07790321 0.25401375
000050 ef 9f 13 3e 47 93 a4 3e ce 80 1a 3d f8 45 88 3e
       0.14416479 0.32143614 0.037720494 0.26615882
000060 86 6a 9a 3c dc 78 b4 bd 31 e9 1a be 99 b6 6f be
       0.018849622 -0.088121146 -0.15128018 -0.23409499
000070 28 4a d5 bd bc 3e 82 be 31 54 73 3e 77 a1 30 be
       -0.10414535 -0.25438488 0.23762585 -0.17249094
000080 c2 63 5c 3e 52 67 65 bd 46 bd 9e be e7 c0 8e be
       0.2152243 -0.056006737 -0.3100378 -0.27881548
000090 1d 4b f6 bd b3 fc 82 bc 61 1a 25 3d af e1 28 3e
       -0.120260455 -0.015989637 0.04030836 0.16492341
0000a0 c3 a9 26 be e2 33 4a bd a0 5e 18 3d cd e6 00 be
       -0.16275696 -0.049365886 0.037199616 -0.12588044
0000b0 e7 1b 29 3e 4c d8 55 3e 3e d3 a1 3d 98 15 f9 bd
       0.1651455 0.20883292 0.079016194 -0.12162322
0000c0 44 da 2c be d5 e7 d8 3d d8 f6 70 bd a1 e4 85 be
       -0.16880137 0.105910935 -0.05882916 -0.26150993
0000d0 3c 00 93 bc db a2 72 3c 0b 6e cb bd 5b 6a 9b 3c
       -0.017944448 0.014809336 -0.099330984 0.018971613
0000e0 f9 aa 1a be c3 94 2d 3e 79 9f c9 bc 14 2f c0 3e
       -0.15104283 0.1695128 -0.024612175 0.37535918
0000f0 3e 14 6d be 0f fb 75 3e 36 7d 9a bd 06 b2 f9 bd
       -0.23152253 0.24021553 -0.07543413 -0.121921584
000100 be 9d 8d 3d 15 0d 03 3e 18 9b d5 3d 33 bd 13 be
       0.069148526 0.12797959 0.104299724 -0.14427643
000110 e8 e4 e9 3d 3b 1b 2b bc 62 0f c1 3e 93 a8 5a 3d
       0.114206135 -0.010443504 0.3770705 0.05338342
000120 78 98 33 be c8 fc 10 bd 64 79 0c 3e 97 ba 99 be
       -0.17538631 -0.03539732 0.13718182 -0.3002517
000130 32 5c c3 3d 28 29 8b 3d 01 c8 77 3d 39 d2 ca 3d
       0.09539069 0.06794959 0.060493473 0.09903378
000140 f2 7c 10 be 4f 28 62 3e 88 ba 93 3e 78 d0 b4 bd
       -0.14110163 0.22085689 0.2885325 -0.08828825
000150 81 bb 87 3e 2d e4 50 3d 55 92 4a be 08 cd 1b 3c
       0.26510242 0.050998855 -0.19782384 0.0095093325
000160 75 f4 4c be 24 ae 33 3e 92 1b 51 be d4 1c 4d 3e
       -0.20015128 0.17546898 -0.20420673 0.20030528
000170 67 cc 3e 3d 49 0d 9b 3e 5f 9c 73 3e 26 29 e2 bd
       0.046581652 0.30283573 0.2379012 -0.11043005
000180 57 d0 8d 3d c5 ae 4c 3e f9 83 74 be 02 85 31 3e
       0.06924503 0.19988544 -0.23878469 0.17335895
000190 32 b0 af 3d 3a 9c a9 3e 3c 34 05 3e 18 48 8f 3d
       0.085785285 0.33127004 0.13008207 0.06996173
0001a0 b2 47 20 be a8 43 88 3e 3c 0e 14 3e a8 10 83 be
       -0.1565235 0.26614118 0.14458555 -0.25598645
0001b0 af d0 5c be 58 b7 55 be 6e 75 f6 3d 86 c3 4a 3d
       -0.21563981 -0.20870721 0.12034117 0.049502872
0001c0 37 5c b9 be 2c 71 83 3d f3 11 48 bd af 7b b2 3e
       -0.36203167 0.0641807 -0.048845243 0.34859988
0001d0 9a fc 01 bd 02 0f e5 3d 0b 9e 5c bd b0 c9 2b be
       -0.03173504 0.11184503 -0.05386166 -0.16776156
0001e0 b4 06 d9 bd 0b 27 90 3e 01 ce 9a 3c db 8d 43 be
       -0.10596982 0.28154787 0.018897058 -0.19097082
0001f0 d5 d6 85 be 65 ec 06 be 9a c4 9a be 81 ad 98 bd
       -0.26140466 -0.13176115 -0.3022812 -0.07454968
000200 b4 d6 27 bd 90 6f 86 3b 70 54 d2 3b ca f6 93 bd
       -0.04097624 0.0041026548 0.006418757 -0.07224806
000210 ec 33 ac 3d df 2e 83 be 24 37 c0 3e 3c cf 08 be
       0.08408341 -0.25621697 0.3754207 -0.13360304
000220 c5 fa 51 be 9f bc 51 be 0b 28 88 3c 40 d2 a8 3e
       -0.20505817 -0.2048211 0.016620656 0.32972908
000230 62 47 1a be e1 db 9d 3e 16 34 89 be 91 ae 96 be
       -0.15066293 0.30831817 -0.2679755 -0.2943006
000240 01 90 3f be c5 24 03 be 1f 20 bc 3d 39 63 24 3e
       -0.18707277 -0.12806995 0.09185814 0.16053475
000250 b3 12 e2 bd e8 52 ab 3e 13 8f a3 3e c2 1d 99 be
       -0.11038723 0.3346169 0.31945094 -0.29905516
000260 62 d3 9d be 2a 6f 08 3e aa 99 3a 3e 3c 15 70 bd
       -0.30825335 0.13323656 0.1822268 -0.058614
000270 31 16 f9 3d 56 4f ab 3d 44 e3 10 3e b3 7d 17 bd
       0.12162436 0.083647415 0.14149195 -0.03698511
000280 1c 9c 2b be c6 56 38 3d 3f 5c 98 bc c9 6e 52 3e
       -0.1675877 0.04500463 -0.018598674 0.20550074
000290 a8 7a 39 be 05 20 de bc 61 35 ee 3c cd d7 4d be
       -0.18113196 -0.027114877 0.029078187 -0.20101853
0002a0 c7 a1 21 bc c8 a0 23 be 40 eb cc 3d d2 43 37 3e
       -0.009865231 -0.15979302 0.10005808 0.17896965
0002b0 65 42 44 3e 87 d3 41 3d be 5a 73 be 68 8b 35 be
       0.19165953 0.04732087 -0.23765084 -0.1772896
0002c0 cf c1 68 be fd e3 4c be d7 9f c5 bb f2 81 b7 bd
       -0.22730182 -0.20008846 -0.0060310173 -0.08960332
0002d0 5d e0 53 be 0e 87 7a be 73 5b 0d 3d 90 55 d5 bd
       -0.20691057 -0.24465582 0.03451104 -0.104167104
0002e0 e5 ca 53 be ea 72 cc bd 35 26 79 be aa db 92 3d
       -0.20682867 -0.099828556 -0.24330981 0.07170804
0002f0 02 d5 7d 3e eb fa 4d 3e a1 90 f3 3d 41 9e 0a 3c
       0.24788287 0.20115249 0.1189282 0.008460582
000300 78 27 81 bd f5 80 34 be be de 83 bd f8 10 20 be
       -0.06306356 -0.17627318 -0.06438969 -0.15631473
000310 7b 74 87 3e 76 47 13 bd 4c 8c 8a bd 77 1b 2e 3e
       0.26456055 -0.035956822 -0.06765041 0.17002665
000320 76 0a 34 be 7a 42 2b be 7c 30 15 3e 67 93 a9 3e
       -0.17582116 -0.16724578 0.14569277 0.33120272
000330 93 04 8d 3d 76 01 79 3e f8 09 35 bd 3c a9 b1 bc
       0.06885638 0.24316964 -0.04419896 -0.021687143
000340 1d 24 f2 bd 2a 4f a4 be 48 59 5e bc 7b d9 51 3c
       -0.11823294 -0.32091647 -0.013571091 0.012808199
000350 c1 4b 64 3e 28 b5 58 3d e1 b6 41 bc ad 6c 91 be
       0.22294523 0.05290714 -0.011823387 -0.28403226
000360 4c 5f 6b be 67 d8 ac be 0b 2e 96 3e 0b 8c 7c 3d
       -0.22985572 -0.33758852 0.29332003 0.061656993
000370 1e 89 bc bc d3 76 f9 bc 08 4e 07 3e bf 0d 05 be
       -0.023014601 -0.030452168 0.1321336 -0.12993525
000380 9c db 9a be 5e 23 ac 3d 9f fe d0 bd 40 7d 0f be
       -0.30245674 0.08405183 -0.10204815 -0.14012623
000390 d6 17 41 3e 45 10 21 be 42 2d 35 3e 24 3b d5 bd
       0.18856749 -0.15728863 0.17693046 -0.10411671
0003a0 8e 68 83 be ab 23 4b bd 30 6f 83 be 9d 4c f1 bd
       -0.25665706 -0.049594563 -0.25670767 -0.11782191
0003b0 ca c6 96 bd a3 14 8f be ec 71 9f be 8b 93 af 3e
       -0.07362135 -0.27945432 -0.31141603 0.34292254
0003c0 2e 62 b1 bd 71 b6 f2 bd 96 44 f0 3c dd 98 dc ba
       -0.086613044 -0.11851204 0.02932958 -0.0016830225
0003d0 06 f5 b5 3d 2d de 63 3e 64 54 4b 3e b9 14 a0 be
       0.08884625 0.22252722 0.19856411 -0.3126581
0003e0 89 3b 2f 3e 45 d7 0c be e7 01 25 be bc 36 28 bd
       0.17112555 -0.13753994 -0.16114007 -0.041067824
0003f0 1f 2a 33 3e 79 8e 4b be fa 00 6e 3e 55 69 7f 3e
       0.17496537 -0.19878568 0.2324256 0.24942525

transformer.encoder.layers.1.self_attn.in_proj_bias f4 [48]
000000 e1 4a 6b bc c2 4c 16 3d ed b6 93 bd 64 42 c7 bd
       -0.014361114 0.036694296 -0.07212625 -0.0972946
000010 e4 dc 97 3c 03 e4 fb bd 79 52 3c 3d 56 4a ff 3d
       0.018537946 -0.12299349 0.04597709 0.1246535
000020 d2 d6 5e 3d 3f b8 03 3e 0b 95 d9 bd 04 07 72 bd
       0.054404087 0.12863253 -0.10624131 -0.059088722
000030 29 8d 8c bd 03 65 76 bd b7 5f 0b 3e 14 92 59 3b
       -0.06862862 -0.060154926 0.13610731 0.0033198642
000040 6c ca ce 3a 68 df b3 3b 4b 65 99 ba 7b 39 70 bb
       0.0015776879 0.0054892786 -0.0011703161 -0.0036655355
000050 29 ec 8d bb a5 ae 0f 3b fd ef 29 bb 1c d5 a3 bb
       -0.004331131 0.0021924165 -0.0025930398 -0.00499977
000060 86 46 8c 3b 69 e3 d1 3a 8d 09 fe 39 87 5e b4 b8
       0.004280868 0.0016013208 0.0004845377 -8.600676e-05
000070 27 89 3a ba 0f 8b b0 b9 94 eb 94 bb 54 23 50 bb
       -0.0007115774 -0.00033672943 -0.0045446847 -0.0031759338
000080 c2 70 ac 3c 33 25 06 3b a3 5e ac ba f5 73 4a 3b
       0.02104986 0.002046895 -0.0013150763 0.003089187
000090 55 17 45 bb 8f 2d 0a bd c2 a4 14 bc a6 51 0c 3d
       -0.0030073721 -0.033734854 -0.009072484 0.034257554
0000a0 95 35 d6 bb ff 8f 2a bd 42 0d 8b 3c 99 55 4f bc
       -0.006537149 -0.04164123 0.016974095 -0.012654685
0000b0 20 d9 2a bd 5e e7 15 bd af e8 ad 3b f5 d6 2e 3d
       -0.041710973 -0.036597602 0.005307279 0.042685468
