期末项目/code/Transformer法/transformer_preprossing/models/fine1_best_model_20240613-205402.pth (torch, 400018 bytes, 99 tensors)

embedding.weight f4 [32, 15]
00000000: 6900 dabe f538 77be 27d8 623c a490 f93d
00000010: c99c e63d 915f c23e 8399 4b3e a89f 6fbe
00000020: 0fda 393e 7731 a6be 5950 fdbd bab4 37be
00000030: 4d29 223b 5de9 6b3e 4227 5a3e bcd2 8d3c
00000040: 7622 66bb 33ab a4bd 2423 aa3e f9f1 2cbf
00000050: f430 b23e 9a48 ff3d 6b42 15be f829 d0bd
00000060: 3062 debd b80d 293d 8876 863e 3a54 163e
00000070: 621b a0bd a812 15bd 410e 1e3f 6422 15be
00000080: 19d2 81be 0d39 7c3e f6c6 ed3d a9ba dabe
00000090: c26e f2bd 4143 23bd fa2c 35be 4887 8a3d
000000a0: faa4 5dbe 5bc3 94bc 6a1b 5b3c fc34 1abe
000000b0: ee27 a13e ad9f 17bf 495b fdbb 7a36 443e
000000c0: 1334 c23c 3db8 9dbc 1e62 603c 2ba6 90bc
000000d0: 7a05 3d3e 2611 8fbe 2260 9cbc 938a abbc
000000e0: 1867 fdbd f8c4 6c3e 3699 2f3e 4ac9 6b3e
000000f0: 0357 ab3e d768 32be 8b51 0b3d 2b3b cfbd
00000100: 67a5 153f 6754 2f3f 02da 843e d6b3 0b3d
00000110: e3d4 79bd 682f 8d3c 8830 b9bd 3690 5fbe
00000120: cff3 21be 9322 08bd ef52 66bd c5e3 013f
00000130: e0fb b9bd c3d8 7c3e b82e 5ebe 7d5a 1c3e
00000140: c42b 2d3f 3495 663e e7aa 273d aeb9 e0bd
00000150: 0962 3cbe 6996 86bd 98c1 8c3e f9ed 6b3e
00000160: c525 8abd 1d20 dfbd a420 e43d 862f bc3d
00000170: cbc9 1bbc 9562 a8be ed61 a43c 1ca4 4e3f
00000180: 23d4 e2bd b075 50bc 380f 063e 88a0 993e
00000190: 632f c23d 6ee3 1cbe 5b78 86be 56e5 9cbe
000001a0: f427 6bbe ac0c 08bf 0a9d 4d3e 6c73 783e
000001b0: 7829 debe a2bd 99be ad39 0f3f 258f 5cbe
000001c0: 8b3a cd3e 9a36 173e 1078 46be d0d9 54be
000001d0: 13a8 9a3e ca03 d23d 633e cf3b 7f3a 12be
000001e0: 375c 2dbf 9ead debd 6ba6 7d3d 9406 c8bc
000001f0: a423 583e 46cf a43e d07c 97be eb25 db3b
00000200: 79a1 3d3e 67d0 63bd a7aa 993e 8e76 2fbe
00000210: 81c2 033e 84c9 b3bd b5e9 033e b1b8 9a3e
00000220: 3ccf 133d 9230 d9bc 22bc 3b3d f8f9 193f
00000230: 69b2 e1be 8adc abbd 6bce 023e 33f8 86bc
00000240: e12d 323d 6803 023e 796c 273e aceb 1e3e
00000250: 21e4 6d3e 7d75 203e ae6c 1d3f a491 4c3e
00000260: 23a4 b0bd d7c0 4ebe 5726 643d 004e 213f
00000270: a2f1 8bbe f24c ebbd a08c 40be 7530 6fbe
00000280: 5ac3 913e d1c7 88bd dfbb e0bc 1042 a1be
00000290: d5ec b23e 8c66 983e c19c 6abe 9027 4dbd
000002a0: bec2 cd3e 1655 c33e 6ade 93bd c0c8 793e
000002b0: 5fe6 9e3e 5b79 8a3e 23a7 f4bd a66c 4c3d
000002c0: 4ae2 3b3e 3b46 653e 915f fbbd eb9c c33e
000002d0: b3e9 e13e b3be a73e 7e48 5e3e 7c37 843c
000002e0: 1c30 193f 5bda 9ebc dc5a 54be 556f 3e3e
000002f0: 6075 2cbe 43d5 77bd c726 7a3c a3c7 55be
00000300: 9246 4cbb d1f4 183e 0c20 fbbd 017a 4abf
00000310: 6ce2 29bd afbf 7bbb 12ca 6b3e 100e be3d
00000320: ae41 fe3e fd60 2cbc d7e8 203e ebcc 743e
00000330: 34fa d6bd f86d 9d3e 86d5 a23d 73ef f43d
00000340: 2dbf 843e 54f9 013e 6e9d 86be 59ed 863d
00000350: 05d2 36be a2a1 a43e d2b6 733f 3324 373f
00000360: 5278 97be 9cf3 a6bc 200c 983d f5c0 4e3e
00000370: 4b37 e73d a09e a63d 2693 24bd b860 553c
00000380: 1e77 713e 42d4 d4be f269 273d 8d79 53be
00000390: c1df 0cbe 5c33 ee3e 18ae 4bbe 7938 553d
000003a0: 6c70 863e e902 383e 9481 20be 447e 603e
000003b0: 99bb 7c3e d591 5e3e 0159 1e3d 2dcf 033e
000003c0: 4da7 0b3e 31a2 853d 4e59 d23d 9a77 86be
000003d0: 6f29 91be 221e 66bf c2f2 443d 47c0 efbc
000003e0: 6d0e 7f3e 5a6a c8bc 4a1d b83e 22c2 633e
000003f0: 1eeb 83be 79c8 d63d 3e27 40be ce17 273f
-0.42578438 -0.24142821 0.01384548 0.12185791 0.11260373 0.37963536 0.19882779 -0.23400748
0.18149589 -0.32459614 -0.12368841 -0.17940035 0.0024743855 0.2303824 0.21304038 0.0173124
-0.0035115755 -0.08040466 0.33229935 -0.6755672 0.34802973 0.124650195 -0.14576118 -0.10164255
-0.108585715 0.04127285 0.26262307 0.14680567 -0.07817723 -0.036394745 0.617405 -0.145639
-0.25355604 0.24631138 0.116102144 -0.42720535 -0.118375316 -0.03985906 -0.17692938 0.06764084
-0.21644965 -0.018159559 0.013373235 -0.15059274 0.31475776 -0.5922802 -0.0077318293 0.19161406
0.023706472 -0.01925289 0.013695268 -0.01765736 0.1845912 -0.2794277 -0.019088808 -0.0209401
-0.12373179 0.23122013 0.17148289 0.23026004 0.33464822 -0.17422806 0.034013312 -0.10118707
0.5845551 0.6848816 0.25947577 0.03410705 -0.06099404 0.01723452 -0.0904246 -0.21832356
-0.15815662 -0.033236098 -0.056231435 0.50738174 -0.090812445 0.24692063 -0.2169751 0.15268894
0.67644906 0.22517854 0.04093447 -0.109729156 -0.18396772 -0.06571657 0.2749145 0.23039998
-0.06745485 -0.10894797 0.11139038 0.09188752 -0.00950856 -0.32887712 0.020066226 0.8071916
-0.11075618 -0.012723371 0.13091743 0.30005288 0.094816945 -0.15321133 -0.262637 -0.3064372
-0.2296446 -0.53144336 0.20079437 0.2426278 -0.43391013 -0.3002749 0.5594738 -0.2153898
0.40083727 0.14766923 -0.19381738 -0.20786214 0.30206355 0.10254629 0.0063245757 -0.14280127
-0.67718834 -0.108729586 0.061926287 -0.0244172 0.21107346 0.32189387 -0.29587412 0.00668787
0.18518628 -0.05561867 0.3001301 -0.17135069 0.12867166 -0.087786704 0.12882121 0.30219033
0.036086306 -0.026512418 0.045833714 0.6014705 -0.4408143 -0.08391674 0.12774055 -0.016475772
0.043500785 0.12696612 0.16349973 0.15519589 0.23231556 0.15669818 0.6149396 0.19977432
-0.086250566 -0.2019075 0.055700626 0.63009644 -0.2733279 -0.114892855 -0.18803644 -0.23358329
0.28469354 -0.06678737 -0.027433334 -0.31495714 0.34946314 0.29765737 -0.2291136 -0.050086558
0.4018764 0.38150853 -0.072201565 0.24392986 0.31035134 0.27045712 -0.11945941 0.049908303
0.18348041 0.22390072 -0.12274087 0.38205656 0.4412361 0.3276268 0.21707341 0.016139738
0.59839034 -0.01939123 -0.20737785 0.18597157 -0.1684165 -0.060506117 0.015268034 -0.20876937
-0.0031169993 0.1493714 -0.12261972 -0.79092413 -0.0414757 -0.0038413813 0.23026302 0.09280026
0.49659485 -0.010521171 0.15713821 0.23906295 -0.10496941 0.30747962 0.079508826 0.11959734
0.25927106 0.12692767 -0.26291984 0.06588239 -0.17853554 0.32154566 0.95200837 0.7153961
-0.29583985 -0.020379834 0.07424188 0.20190795 0.11289843 0.08135724 -0.040179394 0.013023548
0.23580596 -0.4156819 0.04087252 -0.20651837 -0.1375723 0.4652356 -0.1989063 0.05205581
0.26257646 0.1796986 -0.1567443 0.21923167 0.24680938 0.21735318 0.0386591 0.12872
0.13638039 0.06525076 0.1027094 -0.26263124 -0.28351924 -0.8988973 0.048083074 -0.02926649
0.24907847 -0.024464775 0.35959846 0.22242025 -0.25765318 0.10487456 -0.1876497 0.652707

embedding.bias f4 [32]
00000000: 559e 07be 6656 923e e082 343e 9386 c73e
00000010: b774 bbbe b1c0 263e a266 6bbe ca02 0a3e
00000020: 5504 44be 6dca 6a3d 676b 6dbe 8af4 123c
00000030: 9403 ca3a 7eb9 41be 9782 29be d5f2 98be
00000040: d203 853e 0aa9 9dbe 892c 3cbf 18b7 c33e
00000050: 8a7e bc3e 0bf5 abbb 5820 593e dd18 16bf
00000060: c919 cb3d 81f3 e8bd cd58 1cbf 0e73 b4bd
00000070: f10c a43d a9f5 a53e ea9c 783e f0f6 e83c
-0.13243993 0.28581542 0.1762805 0.3896986 -0.36612484 0.16284443 -0.2298837 0.13477626
-0.19142278 0.057321955 -0.23185502 0.0089694355 0.0015412443 -0.18918416 -0.16553722 -0.29872766
0.25979477 -0.3079303 -0.73505455 0.38225627 0.36815292 -0.0052477173 0.21203744 -0.5863169
0.099170275 -0.1137457 -0.61073 -0.088110074 0.08010281 0.32413986 0.24278608 0.028438061

transformer.encoder.layers.0.self_attn.in_proj_weight f4 [96, 32]
00000000: 333a ae3e 2486 21be d95c c53e 897b 883e
00000010: 9806 4b3e 7882 9cbd 74ec 34be 2fd3 113e
00000020: 8f54 d5bd 7675 223e 0d44 b2bd 2302 3a3d
00000030: fa79 d63d c381 6cbd 9f60 b03d 3f66 8c3e
00000040: bd32 a5be c3dc 95be fe97 7a3e 9310 383e
00000050: 1979 3ebe 09f8 d93e ecd7 363d 51c5 6e3e
00000060: 8d87 993d 15f6 f9be 53d2 39bd e329 ba3c
00000070: 08a7 e5bc 1317 2b3e 5875 f3bd f6a9 a83d
00000080: 4d12 8dbe 8477 9ebe 3a22 4cbd 70df 083e
00000090: f5b5 23be ab2a 97be 6e52 363e b388 c5be
000000a0: d715 823e 26b1 4f3e ec84 a3bd 3f70 8d3e
000000b0: 7a0c 683e d426 4cbd 811e 8a3e 88ea 32bc
000000c0: 4b55 13be dab2 9dbe f901 7b3c 21cf af3d
000000d0: 59e6 5d3d 1e54 f73d 7e1c 8f3e 7816 ccbd
000000e0: 5b64 543e 24a7 b43e 457b 58be 54d1 87be
000000f0: 7b23 3a3e f614 e6bd 4fbe b33b 7f38 be3d
00000100: d350 253d cc89 dd3d 937e 713e 445b 9abe
00000110: 9c43 f93d 6b65 73be 442e 3b3e e49d 84be
00000120: 4921 4ebe dffc adbd d088 3cbc c1ff 883e
00000130: badf 28be 4d88 a5be dc95 bfbd d46a 643d
00000140: ec84 d73e ddc0 4d3d 517e b23d 56ec 273e
00000150: cf70 933d 6b58 83bc 04b6 05bd 7fc5 cf3b
00000160: 2980 ab3d f407 7f3e adad 453d 579d 12be
00000170: 2942 8abd e962 e23d d80e bf3e ca49 98ba
00000180: 420b 393e 5ee7 4dbd 07fe d73c 830b 57be
00000190: 78aa 413e 5663 513e a5f8 8dbd b6d0 07be
000001a0: 1e16 0dbd e8d2 4e3e b67b fd3d ea4e ae3e
000001b0: cb0e 0a3d 2d7a babd 8edb 06be 0823 8b3e
000001c0: b1e5 37bd 717c 90bd 35ac b63e 9982 223e
000001d0: 19eb 8bbe 4fd5 813e c891 3a3c 057c 263e
000001e0: fe7d abbc 669a 24bd 2624 853d ae27 a6bc
000001f0: 4f3c 38be bd40 8bbd 2044 44bd bffb 223e
00000200: 8f19 633e 4826 c4be 6eda c03d b552 3fbe
00000210: 0650 dd3d f613 c9be 2a4b b7bd 0b51 bbbe
00000220: 81d4 983d b14d c53e 4349 c0be 5eae 483e
00000230: 2bc3 913e 0ed4 57be 5ecf b9bc 5094 793e
00000240: 5cda 213e 84b5 28be 4639 b63e 47a1 633e
00000250: e8f9 57be 0abf ce3d feb6 3abc bb1f 9fbe
00000260: 1b13 c9bd c23d 693d f8e2 4d3c bc59 05be
00000270: 3445 46bd fce5 a7bd 6f9b 263e a3c4 103c
00000280: 7b04 5ebe f163 59be 26d3 4b3e de56 1ebe
00000290: f4b1 c0bd bce4 9ebe c2eb 31be f83a 0fbf
000002a0: cb4d cebc 089e 223e 7265 eebe 1ca5 bb3d
000002b0: c1db 433d 592d a6be 15a1 79bd a1ad c73d
000002c0: 6519 b83d 11bb acbd e8ed a13e ea19 b33e
000002d0: 5782 b0be 7b50 063e 10ab eebc 9e3c 66bd
000002e0: c964 fc3e f2cc b63e ede6 9fbe b9c2 9ebe
000002f0: aa57 b43e f67d 00be 104e 09be 7826 66be
00000300: e8d9 b03e 4500 f5be f2d8 283e eb27 6e3d
00000310: aa76 b3bd 9bf5 a3bd bfe7 06bf 4ff5 59be
00000320: bbfd 123e 3be8 7d3e e7f6 ccbe 0a16 1a3e
00000330: ca63 6f3e c691 a1be f3fd 0bbd 6c19 733e
00000340: 4a16 48be 28b7 00be 8b5b 0c3e d011 833e
00000350: 555e b8be 6b3f 9b3e 43bc 793d 9ffb 803d
00000360: ec1d dbbd c1ca 02be e414 25bd bbfb ecbd
00000370: 07cc 263e 5c52 8c3d 1292 a7bd f8b4 07be
00000380: 6cf2 863e a5ac babd eb3d b73d 2caf 01be
00000390: 5e98 343d dc1d ef3d b633 19be 8670 3b3c
000003a0: b2b3 5cbe a11e 80bc 2c05 2dbe a1c9 d43d
000003b0: 3094 1cbe d11b ebbd 98d7 80be 1ff5 483e
000003c0: c69a 26be 0fd5 793d 434f b53e 7d53 bf3e
000003d0: 0433 72be ee10 b93e 32fe f8bd f78e 223d
000003e0: dd7b 193e b0ad f83c 81e8 f7bd 39e7 8b3d
000003f0: 9e9d 02be d231 cdbd c3af dabd 887f 923e
0.34028777 -0.15773827 0.385474 0.2665675 0.19826734 -0.076420724 -0.17668325 0.14240716
-0.10416519 0.1586512 -0.08704386 0.045412194 0.10472484 -0.057740938 0.08612179 0.27421758
-0.32265273 -0.2926999 0.24472043 0.17975073 -0.18600883 0.42572048 0.044639513 0.23317458
0.074965574 -0.48820558 -0.045366596 0.022725051 -0.028033748 0.16708021 -0.11887616 0.082355425
-0.27553025 -0.30950558 -0.04983733 0.13366485 -0.1598738 -0.2952474 0.17804882 -0.38580856
0.25407287 0.2028242 -0.07984337 0.276247 0.2266101 -0.049841717 0.26976398 -0.010920174
-0.14388005 -0.30800515 0.015320295 0.085844286 0.054174755 0.12076591 0.27951425 -0.09965223
0.20741408 0.35283768 -0.21140774 -0.26526892 0.18177597 -0.11234467 0.005485333 0.092881195
0.040360283 0.10817298 0.2358344 -0.30147755 0.121710986 -0.23769157 0.18279368 -0.2590171
-0.20129885 -0.08495497 -0.011507228 0.26757625 -0.16491595 -0.32330552 -0.09354755 0.05576594
0.420936 0.050232757 0.08715499 0.16398749 0.07199251 -0.016033372 -0.032644287 0.006340682
0.08374054 0.24905378 0.048261333 -0.14317833 -0.067509 0.11054022 0.37316012 -0.001161867
0.18070701 -0.050269477 0.026366247 -0.21000485 0.18912685 0.2044805 -0.06932191 -0.1326321
-0.03444492 0.20197642 0.123771116 0.34044582 0.033705514 -0.091053344 -0.13169691 0.27175164
-0.044896785 -0.07054985 0.3567826 0.15870132 -0.27327803 0.25358054 0.011387296 0.16258247
-0.020934101 -0.04018631 0.065010354 -0.020282593 -0.17991756 -0.06799457 -0.04791653 0.15916346
0.22177719 -0.38310456 0.09416662 -0.18683894 0.10806279 -0.3927304 -0.08949883 -0.36585268
0.07462407 0.38535836 -0.37555894 0.19597766 0.28469214 -0.21076986 -0.022681888 0.24372983
0.15805954 -0.16475493 0.3559057 0.22229491 -0.21091425 0.100950316 -0.011396168 -0.31078896
-0.09818097 0.056943662 0.012566321 -0.13022512 -0.04840584 -0.08198163 0.1627023 0.008835944
-0.21681397 -0.21229531 0.19904765 -0.15462825 -0.09408942 -0.31033885 -0.1737509 -0.55949354
-0.025183579 0.15880597 -0.46561772 0.091623515 0.047816996 -0.32456473 -0.060944635 0.09749914
0.089892186 -0.084341176 0.3162682 0.34980708 -0.3447444 0.13116638 -0.029134303 -0.056210153
0.49295643 0.35703236 -0.3123087 -0.31007937 0.35223132 -0.1254805 -0.13408685 -0.22475612
0.3454125 -0.47851768 0.16489008 0.058143537 -0.08762868 -0.0800583 -0.52697366 -0.21284984
0.14354603 0.2479562 -0.40032122 0.1504747 0.2337791 -0.3155653 -0.03417773 0.23740166
-0.19539753 -0.12569869 0.13706796 0.25599527 -0.3600947 0.30321822 0.060970556 0.06297993
-0.106990665 -0.12772657 -0.040303126 -0.11571451 0.16288768 0.06851646 -0.081821576 -0.13252628
0.26356828 -0.091149606 0.08947357 -0.12664479 0.04409062 0.11675617 -0.14961132 0.011440402
-0.21552923 -0.015639605 -0.16896504 0.1039002 -0.15290904 -0.11479915 -0.25164485 0.19624756
-0.16269979 0.060994204 0.35412034 0.37368384 -0.23652273 0.3614573 -0.12157859 0.039687123
0.14988656 0.030356258 -0.121048935 0.068312116 -0.12755439 -0.10019268 -0.10678055 0.28612924

transformer.encoder.layers.0.self_attn.in_proj_bias f4 [96]
00000000: 8c07 a9bd 78f0 433e 1623 f23d 9180 7dbe
00000010: d89d 553d 22ae 3c3e da33 873b b819 28be
00000020: 3aff e53d 9981 48be ddfd b6bd 8b09 4dbe
00000030: c047 053f ecf0 3d3e 9ed8 66be 79d1 093f
00000040: 6043 a5bd 4fc5 68be fff6 773d e228 86bd
00000050: 8ebd d8bd 1ee6 2c3d 688b 623e 3010 bdbd
00000060: cbc4 e73d c749 aebd 41af cabd 5f78 aebc
00000070: 58e4 00be 31a3 063d 3c44 4bbc cc86 b3bd
00000080: 7834 26b9 407a 4237 1339 543a 285d 093a
00000090: 44ef 2d3a 5727 7a39 1d6d c3b9 11e9 0d3a
000000a0: eba7 2cba 9105 c53a 8560 353a 4590 33bb
000000b0: 5e71 cd3a ffe7 3a3b a96c 20bb d7cb b0ba
000000c0: dfbf b6ba f1f6 f939 8d3f c1ba abe0 eaba
000000d0: 5777 caba bcf7 b6ba 3851 08ba 8679 e3ba
000000e0: 6c28 0c3a 47bd 0a3a 7c8d d3b9 1e55 2bba
000000f0: 411f 693a e333 8539 2692 a3b8 b6dd 7d3a
00000100: ddae 78be 408b 2d3d 3e36 923d 4687 1b3e
00000110: f03a 9cbc 9583 48be 4401 563e cee5 823e
00000120: dfe0 6c3e 1217 42be 0913 2dbe fba4 86be
00000130: ecd4 40bc 6582 b9bd c5aa 1d3e 5430 b73e
00000140: 8621 6dbc 7f64 c03d ea08 ee3d 487c a63d
00000150: e697 94bd 8f03 dbbd 6dff b03d 6aaf d4bc
00000160: 1a0e 5bbe 0320 603d 5adf 233e 1159 8bbd
00000170: 6ec0 713d 74e6 3e3e 31e7 43bd 8e83 183d
-0.082533926 0.191347 0.11823098 -0.24756075 0.052152485 0.18425801 0.0041260542 -0.16416061
0.11230321 -0.19580688 -0.08935139 -0.20023172 0.52062607 0.18548936 -0.2254357 0.53835255
-0.080694914 -0.22731517 0.06053829 -0.065507665 -0.1058303 0.042211644 0.22123492 -0.09231603
0.11316832 -0.08510166 -0.09896708 -0.021297632 -0.12587106 0.032870475 -0.012406405 -0.08765945
-0.0001585054 1.1591765e-05 0.0008095663 0.00052400166 0.00066350796 0.00023856513 -0.00037274594 0.0005413453
-0.0006586301 0.0015031566 0.00069189846 -0.0027399224 0.0015674045 0.0028519628 -0.002447883 -0.0013488483
-0.001394268 0.00047676967 -0.0014743671 -0.001791974 -0.0015446943 -0.0013959329 -0.0005200091 -0.0017354942
0.00053465995 0.0005292487 -0.0004035047 -0.0006535816 0.0008892902 0.00025406395 -7.799668e-05 0.00096842216
-0.24285455 0.042369127 0.07139252 0.15188321 -0.019071072 -0.19581445 0.2089892 0.25565952
0.23132657 -0.18954113 -0.16901793 -0.26297745 -0.0117695145 -0.09058074 0.15397175 0.3577906
-0.014473325 0.09394168 0.11622794 0.081291735 -0.07255535 -0.10694038 0.086424686 -0.02596255
-0.21392098 0.05471803 0.1600317 -0.068040974 0.059021406 0.18642598 -0.047827903 0.037234835

transformer.encoder.layers.0.self_attn.out_proj.weight f4 [32, 32]
00000000: cc4f a1be a86c 333e a846 9ebd 61f5 ff3c
00000010: 85f5 743e 03c6 09be f8f9 483d c7be 1f3e
00000020: 6d8f 3dbe d004 80bd b7d3 263d c7c1 903d
00000030: 5004 be3e 0fbc 23be 0c84 5ebe 017e 333e
00000040: 9a91 813e 5e15 ad3d 1ffe 503e 5af9 13be
00000050: 7c5d ca3a 3b43 debd c30e 9cbd 9a0d f5bd
00000060: 0aad b1be 4c94 36be 5209 ed3b f03e 773d
00000070: 0488 0e3e 0a85 ad3e 145a 2a3e 6a55 5cbe
00000080: 133f 9c3d 90d7 a23d 14d1 843c eae6 393e
00000090: c7bc 3d3b 6c34 f0bd c2bc 65be 425e 27bd
000000a0: d3f4 76be add6 083e e9dc 743e df33 39be
000000b0: 37cb 97bd 00c1 0fbe ed1e 253e 65ca 0d3e
000000c0: 1161 41be 03db 6d3d ff0a 2abe 6ff8 84bd
000000d0: 12ee 873e fcb1 743d 6c26 adbe 8836 1bbe
000000e0: b58b 13bd c17b cb3d b0bc 2f3e aedc 04be
000000f0: 3672 293e 95f5 5d3e e010 ecbd e243 8abe
00000100: 5090 0f3e d81b 71be a824 67bd c81e bdbd
00000110: c0c7 a73c b288 873e 9bdb f33d 99a8 3e3e
00000120: 2f6d 363e 14e9 7a3e 2c33 9cbd 2837 f7bd
00000130: bade 2c3e ef7f 69be 1e59 8b3e 1bbd 943e
00000140: 1eea e23d 9bd6 fbba 0a48 6ebe 8413 863d
00000150: f0ce 483e 7e27 9cbd c81c 65bd 5809 533e
00000160: 67f4 3d3e 3165 2a3e c52b 05be 6116 d73d
00000170: 9e3e 75bc cecc df3d 1f2d c3bd 8337 2dbd
00000180: 8ec4 10bd 005e 973d 022d a3bc b1c7 473e
00000190: d467 f6bc 615a f03d 9e9f a3be 672f 11be
000001a0: ee4b 5f3d 866c 5a3e 8c3a afbe 7631 f23d
000001b0: b04e b23e 4d9f c7bd e40f ef3c f38b 85bd
000001c0: e80b 7b3e f9a9 743e deff 5a3c d384 943d
000001d0: d11c 1e3e 7b1a c0bd 868a 3dbe 56ae 3dbd
000001e0: c01c 96be 7999 863e 7dd3 c4bc 7200 fdbd
000001f0: 0858 133e b5e4 633e cc68 083e b1d9 febd
00000200: 603e b83e cd92 70be 8662 1fbe ac04 c13d
00000210: 3f8f dd3d d14e 263e 4e08 90be 0686 143e
00000220: c430 953e d736 20be 5af2 343e c58a 7d3e
00000230: 6084 0fbd 68c0 e73d 6609 283e d515 e23e
00000240: 09b6 1ebe 5872 b43d 33c5 6ebe 6b06 ddbc
00000250: 334f a6bd eb0f 35be 7aa0 f33d c5f4 8a3d
00000260: 2018 e0bd b7f2 ddbd 5886 dabd 630f 323e
00000270: c4f3 a1be e513 87be ad15 3b3e 94eb 2fbe
00000280: 536a 95bd 261a 5d3e e9ff 623e ceb2 ffbd
00000290: 5954 39bb 97bf 3c3e 56fd 53be 3a07 783e
000002a0: 64b3 f03c 2b85 ccbe dd36 5fbe 3721 323e
000002b0: b129 73be c3af 0e3d 9506 a1bd 35c3 b5bd
000002c0: e96f 893d c4c7 39be 0d08 9abe 6905 32bc
000002d0: 6a77 46be 6c62 3b3e cb53 4d3d 48a5 673c
000002e0: 717a 36be 29dc 55be 55ae 09bc 170d 8dbe
000002f0: a71d 3a3e c551 0c3e 1d01 40be 15c7 b93d
00000300: 29de 833e a296 d8bd 1e33 8e3d 4b2d 23be
00000310: 9a5a 63be b097 71be bcc2 893b 29ba 07be
00000320: dd13 9abd 3625 6abe 9ddc 143e 2cac ad3e
00000330: 650a 80bd c7d6 84be 32f8 aebe 4851 463e
00000340: 247e f93d 9fc8 7a3e 5941 73be 048e 3dbd
00000350: d2f7 923e 40db cbbc 0752 21bd 9204 d2bd
00000360: b239 b0bb 7a30 d9bc ffd6 95bd f78f 94be
00000370: 749e 77be 2330 9bbd 689f a2be 969f 97bb
00000380: 208e 88be 3694 393d 237c ffbd 4e36 ae3c
00000390: 7e75 e4bd 76a5 42be 6918 ff3d b1ee adbd
000003a0: 7f3f 95be 1668 f9b9 d365 3c3e fddc 513e
000003b0: eda2 9fbe 450d 073d 2370 7b3d 7504 0cbd
000003c0: 19be 06bd 261f 033e 3362 55bd a6ee ddbd
000003d0: 1805 933d 0f15 46be 5035 67be b07d 003e
000003e0: 4fa0 843e 2897 17bc e188 b6bc c6b3 5f3e
000003f0: 3d75 91be 7a1c 0e3e 86b5 0cbe 65e6 943d
-0.31506193 0.17521918 -0.0772832 0.031244935 0.23921783 -0.13454442 0.049066514 0.1560012
-0.18511744 -0.06250918 0.04072925 0.0706821 0.37112665 -0.15989707 -0.2173006 0.17528535
0.25306398 0.08451341 0.2040944 -0.14450589 0.0015439237 -0.10852667 -0.07620003 -0.11965485
-0.3470233 -0.17830008 0.007233777 0.060362756 0.13919073 0.33890563 0.16635925 -0.21516958
0.07629218 0.079512715 0.016212977 0.18154493 0.0028951631 -0.11728749 -0.22435287 -0.040861376
-0.2411683 0.13363142 0.23912396 -0.18086194 -0.07411807 -0.14038467 0.16125078 0.13846739
-0.18884684 0.058070194 -0.16605757 -0.064926974 0.2654882 0.05974005 -0.33818376 -0.15157521
-0.036021907 0.099357136 0.17161822 -0.12974808 0.16547474 0.21675713 -0.11526656 -0.27004915
0.14019895 -0.23545778 -0.056431442 -0.09234387 0.02048099 0.26471478 0.11907121 0.18619002
0.17815088 0.24502975 -0.07626948 -0.12071067 0.16881838 -0.22802709 0.2721643 0.29050526
0.110798106 -0.0019213738 -0.23269668 0.06546691 0.1961019 -0.0762472 -0.05593565 0.20609033
0.18550263 0.16640164 -0.13004978 0.10502315 -0.014968542 0.10927735 -0.095300905 -0.04228927
-0.0353437 0.07390976 -0.019918922 0.1950977 -0.030078806 0.117359884 -0.31957716 -0.14178239
0.05451577 0.21330461 -0.34224355 0.1182584 0.3482566 -0.09747181 0.029182382 -0.06520834
0.2451626 0.23892964 0.013366668 0.07251897 0.1544068 -0.09380051 -0.18509874 -0.046308838
-0.2931881 0.26288965 -0.024026627 -0.123536006 0.1438905 0.22255214 0.13321227 -0.12443865
0.35985088 -0.234935 -0.15564927 0.09424719 0.10818338 0.16241004 -0.28131336 0.14504251
0.29138768 -0.1564592 0.17670575 0.24759968 -0.035038352 0.113159955 0.16409835 0.44157282
-0.15499128 0.08810872 -0.23317413 -0.0269806 -0.08120575 -0.17681853 0.11895843 0.06784967
-0.109421015 -0.1083731 -0.10670155 0.17388682 -0.3163129 -0.26382366 0.18269987 -0.1717971
-0.0729567 0.21592006 0.22167934 -0.12485276 -0.0028279035 0.1843246 -0.20702109 0.24221507
0.029382415 -0.3994535 -0.21798272 0.17395483 -0.23746373 0.03483559 -0.078625835 -0.088751234
0.06710798 -0.18142611 -0.30084267 -0.010865548 -0.1938149 0.18299264 0.05012874 0.014138527
-0.17820145 -0.20884766 -0.00840338 -0.2754905 0.18175374 0.13703068 -0.18750425 0.09071175
0.25755432 -0.10575606 0.069433436 -0.15935247 -0.2220253 -0.2359302 0.0042041223 -0.13254608
-0.0752332 -0.22865757 0.14537282 0.3392042 -0.062519826 -0.25945112 -0.34173733 0.19366944
0.121822625 0.24490593 -0.23755397 -0.046278015 0.28704697 -0.02488482 -0.039384868 -0.10254778
-0.0053779716 -0.026512373 -0.07316398 -0.29016086 -0.24181539 -0.07577541 -0.31762242 -0.0046271784
-0.26670933 0.04530736 -0.12474849 0.021266129 -0.11155222 -0.19008431 0.12455828 -0.084927924
-0.29150006 -0.0004757053 0.18398218 0.20494457 -0.3117899 0.03297164 0.06138624 -0.034183938
-0.032896135 0.12804851 -0.052095603 -0.10836534 0.07178706 -0.1934397 -0.22578931 0.12547946
0.25903556 -0.009252347 -0.022282066 0.21845922 -0.28409758 0.1387805 -0.1374112 0.07270507

transformer.encoder.layers.0.self_attn.out_proj.bias f4 [32]
00000000: c0ed 2c3e dad6 a13e 556e 553e de0d 453e
00000010: 2a68 6fbe ff9e 3abe 834c 8ebe ce78 823e
00000020: acad c1bd f1fa 91be 3e44 3fbd 0476 6bbd
00000030: b6fa 433e b149 78bd 483f 5cbe bded 14be
00000040: 04f5 a33e fe07 07be 492d c8be 0ab6 703e
00000050: 7bca 813e f180 aabe d767 853e b829 c9be
00000060: 6be9 18be f552 c93d 6d0e b1be 99c4 f0bc
00000070: ebc1 233e 3bb4 8c3e f2f7 8e3d 8123 df3d
0.1688757 0.3160923 0.2084287 0.19243571 -0.23379579 -0.18224715 -0.2779275 0.25482792
-0.094569534 -0.28511766 -0.04669594 -0.057485595 0.19138607 -0.060617153 -0.21508515 -0.14543815
0.3202287 -0.13186643 -0.3909705 0.23506942 0.25349793 -0.333015 0.26055786 -0.3928964
-0.14932792 0.09830276 -0.34581318 -0.02939062 0.15991943 0.27481255 0.069808856 0.10895444

transformer.encoder.layers.0.linear1.weight f4 [128, 32]
00000000: 109b bb3a a114 df3d c574 283e f176 2e3e
00000010: f0db bfbd e6f9 d9bd 3ffa 09be b027 e53c
00000020: c5d0 3b3d f308 b0bc 3fa5 7d3c fd65 b1bd
00000030: 1306 a6bd 5c0b 2a3e 8339 f33d 30c0 873d
00000040: 3ea9 e73d 2b9e 463e cf3a 813d 246d 2cbe
00000050: a9e0 603e 0dc5 023e 466f 4c3d 55bb 2c3e
00000060: e82c 03be f238 bf3d e169 4e3d 221b 983c
00000070: 2974 40be d4bc e83c fe2e c3bd 1cca 103e
00000080: 82c9 a6be 38c5 693a 3225 32bd 8a5f f4bd
00000090: f7bf e93d 6ca2 acbd 3556 863e 891b 32be
000000a0: 17ed b93d 6c9c b1bd 15a5 aabc e6e2 1bbe
000000b0: 1316 45bd 9db2 823d 3e69 18be a454 01bd
000000c0: ba73 88be 1a00 843e d8d1 973e 7e3d a53d
000000d0: bb66 ddbd bc0c c8bd 937a 5f3e 452c c2bd
000000e0: 3431 2cbd 4b45 8dbd 0a22 223e b61b 183d
000000f0: c52e 73be dea0 853d 22e6 ffbc ce93 04be
00000100: bba2 96bd 1479 9abd 20ec 9b3d 4553 fc3d
00000110: c9e4 663e f7eb da3d 2fe6 8bbd d504 733e
00000120: f48f bf3d 77bb 003e ac86 cebd 7801 173d
00000130: 28f4 cf3d 898a ddbc e2e9 bb3d f2fd 19be
00000140: acd5 d0bd 42c2 51be 51b8 8c3e 1c7a d4bd
00000150: bffb f03d be96 213e 81e8 87be 03ea c13d
00000160: 97e1 293e 0607 2abd 23eb 173e cf2a ce3d
00000170: f0af 1cbd 58f2 cfbc c667 f03d 16a2 26bd
00000180: 775a d43d 999e 6dbe fbcb 103e b3c7 06bd
00000190: 4648 9bbe ecf9 bb3d 8baf 35be 742f 3f3d
000001a0: 8e40 f4bd 45a5 5e3e 289d 3f3e af78 783d
000001b0: da61 87bd 4eb0 e3bd d6dc 25bd 2ea0 223e
000001c0: 8b45 453e 741c f63c 7dd7 46be 9e8e f63c
000001d0: ac57 3a3e 5da0 39bd f749 113e 8518 cfbd
000001e0: 9134 33be f756 d5bd fd3a a43d 6d27 e63d
000001f0: a5a9 fb3d 1015 27be 3bad 1ebc 6d33 0dbe
00000200: 4274 5abe 8e72 0bbe 080f 06be 2f17 11bc
00000210: 7bea b4bd bbd9 8b3e 6ecf b13e 8216 3ebe
00000220: 3e27 69be 103c b2bd 6d89 9fbd 608c 7dbd
00000230: 40d9 a0bd 03da d43c 0415 99bc 73ab fa3c
00000240: 6d0f ba3d 9db3 e63e a208 9f3e aec2 9bbd
00000250: 8048 3fbd d37e a83d 7220 1dbb 5cfd 4f3e
00000260: 0e47 443e fd9e 89be ed99 3e3e 8096 cebc
00000270: 181a f43d d5d7 adbc 8d8a 6ebe eb0d 213e
00000280: 7d98 8a3d c015 acbe a5d9 8cbe 150e dfbc
00000290: 469f 45bd 59c2 bf3d 3458 913e c50b e6bc
000002a0: c38e e73c 7809 02be 3f45 923e 394c 16bd
000002b0: 656a 5cbe 6137 c83c 4d26 863e 00c2 503e
000002c0: 2c1b d73d 7b7c c73e 810d ea3d ab93 7dbd
000002d0: a8d3 74be d9e4 2fbb 7fbc 12be 8f7b c63e
000002e0: 5656 41be 08bc 82bd a636 433e 6bbc 2b3d
000002f0: eb02 0c3e 0285 f43b 4cd9 98be d844 01be
00000300: 748c 32be 8be3 32bd 04ee aa3e a010 513c
00000310: 0f63 bb3d b05f a83d be0f cd3d 9ada 92be
00000320: 1115 a53c 931e b6bd d82b 133e ade6 5ebe
00000330: bcca 873d ce2f b73b b115 5bbd 0c89 0c3d
00000340: 069f 2bbe e5db 37bd 56b0 36be 03b5 bfbd
00000350: f30c 5d3e 329d ed3e f955 3b3e adfc a33d
00000360: f2da 29be 4599 13bd 9b40 19be 6f16 0e3e
00000370: 468d e8bd 41b8 833c 2abc c83b e863 e13d
00000380: f9f6 20bd 6a47 a4be ed66 c33c d303 773c
00000390: 9041 90bd 9350 41be f6c1 3e3d dd70 98be
000003a0: f620 18be 7ad7 3d3e 34d6 13be d061 fd3d
000003b0: 0a86 983d 0291 5bbe 1e18 b63d 0cce d03d
000003c0: c8ad 30be b9b5 183d 3511 9e3d 3eb2 793e
000003d0: 3d5e 32be 4801 123e 3551 d73d 4bd6 943e
000003e0: ba99 e2bb 319c 8f3c ba36 9d3e 0384 493d
000003f0: 7d5f 753d 52f9 1ebd fbf7 843b 9fc3 703e
0.001431318 0.108926065 0.16450794 0.1703756 -0.093681216 -0.106433675 -0.13474368 0.027973026
0.045853395 -0.021488642 0.015481292 -0.08662031 -0.08106627 0.16605896 0.11876204 0.06628454
0.11311577 0.19396274 0.06310045 -0.16838509 0.21960701 0.12770481 0.049910806 0.16868336
-0.12810099 0.09337033 0.050393943 0.018567625 -0.18794312 0.028410353 -0.095304474 0.14139599
-0.32575613 0.00089176325 -0.043492503 -0.11932285 0.114135675 -0.08429417 0.26237646 -0.17393316
0.090784244 -0.08672413 -0.02083067 -0.15223274 -0.048116755 0.06381724 -0.14883897 -0.03157486
-0.26650792 0.25781327 0.29652286 0.08068369 -0.1081061 -0.09768054 0.21824102 -0.094811
-0.04203911 -0.06897982 0.15833297 0.037135802 -0.2374831 0.065248236 -0.031237666 -0.12947008
-0.07355257 -0.07542625 0.07613397 0.1232057 0.22548212 0.10689538 -0.068310134 0.23732312
0.09353629 0.12571512 -0.1008428 0.036866635 0.10153991 -0.027043598 0.09175469 -0.15038279
-0.10197005 -0.2048426 0.27484372 -0.10374853 0.11766767 0.1578016 -0.26544574 0.09468462
0.16589962 -0.041510604 0.14835791 0.10066759 -0.038253725 -0.025384113 0.11738543 -0.04068192
0.10368817 -0.23205031 0.14140312 -0.03290529 -0.30328578 0.09178528 -0.17742746 0.046676114
-0.11926375 0.21742733 0.18712294 0.060661968 -0.066104606 -0.11117612 -0.04049381 0.15881416
0.1926481 0.030042864 -0.1941814 0.030097302 0.18197507 -0.04531895 0.14188372 -0.101120986
-0.17500521 -0.10416978 0.080190636 0.112379886 0.122882165 -0.16316628 -0.009684856 -0.13789149
-0.21333411 -0.13617918 -0.13091671 -0.008855625 -0.08833786 0.27314553 0.3472857 -0.18563274
-0.22768876 -0.08702862 -0.07789884 -0.06190145 -0.07853937 0.025982862 -0.018686779 0.030599331
0.090849735 0.4505891 0.31061274 -0.076054916 -0.0467 0.08227315 -0.0023975638 0.20311493
0.1916773 -0.2687911 0.18613406 -0.025218248 0.119190395 -0.02122108 -0.2329504 0.15727966
0.06767366 -0.33610344 -0.275098 -0.027228395 -0.048247598 0.09363241 0.28387606 -0.028081784
0.028266316 -0.12698925 0.28568456 -0.036693785 -0.21524961 0.02444047 0.26201096 0.20386505
0.105032295 0.3896216 0.11428357 -0.061908405 -0.23908865 -0.0026839285 -0.14329718 0.38766143
-0.18880591 -0.0638352 0.19063815 0.041927736 0.13672988 0.007462145 -0.29853284 -0.12623918
-0.17436391 -0.043674033 0.33384717 0.012760311 0.09149753 0.08221376 0.10012768 -0.28682405
0.020151647 -0.0889255 0.14372194 -0.21767683 0.066304654 0.0055904156 -0.053487483 0.034310386
-0.16759881 -0.044887442 -0.17840704 -0.09360697 0.21586971 0.46408993 0.18294515 0.080071785
-0.16587427 -0.03603484 -0.14966051 0.13875745 -0.11355071 0.01607907 0.0061259465 0.11005384
-0.03929803 -0.32085735 0.02385279 0.015076595 -0.07043755 -0.18878393 0.046571694 -0.29773608
-0.14856324 0.18539229 -0.14437181 0.12372172 0.07447441 -0.21442035 0.08891319 0.1019555
-0.17253792 0.03728268 0.07718126 0.243844 -0.17418762 0.14258301 0.10513536 0.29069743
-0.0069152983 0.017530533 0.30705816 0.04919816 0.059905518 -0.03881199 0.004057882 0.23512124

transformer.encoder.layers.0.linear1.bias f4 [128]
00000000: 7f52 d2bd b251 13bd 5105 bbbd deaf 39bd
00000010: 6f13 c53d 296c 08be 6981 0ebe 9bc6 8c3d
00000020: 6f75 3ebd 71cc 37be da31 80bd 7ba0 dfbc
00000030: f1d8 75be 9acc 4d3d a508 1abe 40c3 9bbe
00000040: 30ef a5bd 7fe5 b5bc 5c3b 2abe c568 bc3d
00000050: a603 1cbe 537b e63c d77a 95be 3b6c 78be
00000060: f7e9 bdbc 1f0d 803d ed55 45be 0959 1cbd
00000070: 24b2 07bd ed02 06be aa50 a0bd 5ffa 2fbe
00000080: 2a9c 7abe e5a7 ebbd 2195 82bd 6b3e 91bd
00000090: 7e13 a53d 1894 fbbd fe8d 17bd 9e43 a63d
000000a0: f9ac e8bc 0372 ae3d 6556 6fbd f57b ab3d
000000b0: 87b6 c1bd b5e7 6cbd 5a21 37bd 8f87 55be
000000c0: 86c2 0f39 c098 033b 1032 d9bd 350d 2fbe
000000d0: 3745 2dbe 1352 99bd 11d3 58be 909a 75bd
000000e0: 771a efbd c807 5fbe 2f27 f4bd eb22 0ebe
000000f0: a1bc f4bd 0777 2ebd 8009 2dbe bf08 e23c
00000100: 846a d7bd 7136 f73d e2b3 78be 4957 df3d
00000110: 947c b43b f127 86be 0511 e2bd 140e 4dbd
00000120: f7f8 b3bd 41a3 83be 848b 46be 8439 63be
00000130: b2f9 f9bc 0df0 133e bca6 f1bd 0d6a 02bd
00000140: f7c3 e7bd f072 b9bd e5aa 94bc a8f9 05be
00000150: 132e 45be 1f83 9fbe 9a20 dbbc fdbc c8bd
00000160: 688a c1ba d2be 60bc 32fd 173d 650e adbe
00000170: bb1d abbd 9fbf 743d aa0c fabd 1f8d adbd
00000180: 0dd4 89be 67cf cbbd 5d18 423e 631d 5bbe
00000190: 3551 3ebe b0c5 56be d2da 1dbe de10 82bc
000001a0: 10fe 4dbe 98ef 2ebe db26 aebd 753a 883c
000001b0: a41a 30be 3552 69be 6062 6ebe f57a 70be
000001c0: 4479 7fbe 68eb 7c3d 6f31 c53d 95e8 dfbd
000001d0: f78a 09bd 498e 0abe 713f fabc c2e9 c7bd
000001e0: ff06 17be 4769 99bd bbaf b63b 63d5 1bbe
000001f0: d7bc a7bd a46d 353d 5a1a 1bbe 4dc0 a2bc
-0.10269641 -0.035966583 -0.091318734 -0.045333736 0.09622847 -0.1332251 -0.13916554 0.068738185
-0.046498712 -0.17949082 -0.062595084 -0.027298203 -0.24008538 0.05024395 -0.1504236 -0.304224
-0.08102262 -0.022204159 -0.16624206 0.09199671 -0.15235767 0.028134977 -0.29195282 -0.24260037
-0.023182852 0.06252503 -0.1927106 -0.038170848 -0.033128873 -0.13087054 -0.078278854 -0.17185353
-0.24473634 -0.11506633 -0.063761 -0.070919834 0.080603585 -0.12284106 -0.03700065 0.08118366
-0.028402792 0.0851784 -0.058432 0.08373252 -0.094586425 -0.05783816 -0.04470954 -0.20852493
0.00013710008 0.002008006 -0.10605252 -0.17094882 -0.16920935 -0.074863575 -0.21174265 -0.059961855
-0.1167497 -0.21780312 -0.11921536 -0.13880508 -0.119500406 -0.042593982 -0.16898155 0.027592061
-0.10518363 0.12070931 -0.2428737 0.1090532 0.005508015 -0.26202348 -0.110384025 -0.050062254
-0.08787721 -0.2571049 -0.19389158 -0.22189909 -0.030514572 0.14447041 -0.1179938 -0.03183942
-0.11316674 -0.09055126 -0.018147895 -0.13083518 -0.19255857 -0.31154725 -0.026748944 -0.09801672
-0.001476598 -0.01371737 0.0371067 -0.33800045 -0.0835528 0.059753057 -0.12209447 -0.08474182
-0.26919594 -0.09951668 0.18954606 -0.21397929 -0.18585666 -0.2097385 -0.15415505 -0.015877184
-0.20116448 -0.17083585 -0.08503505 0.016629437 -0.17197663 -0.22785266 -0.23279715 -0.23484404
-0.24948603 0.06174794 0.09628569 -0.109330334 -0.033579793 -0.1353084 -0.03054783 -0.09761383
-0.14748763 -0.07490783 0.005575148 -0.1521812 -0.08190315 0.044294015 -0.15146771 -0.019867087

transformer.encoder.layers.0.linear2.weight f4 [32, 128]
00000000: b7b6 38be 0827 f53c 1dcd 3fbe 3945 1d3d
00000010: 3ea7 c83d b487 84bd 1187 27bd 2739 87bd
00000020: 86cf 1fbe b579 b1be 4d2e b33c 16f7 79bd
00000030: d9a3 45bc b1ba 3e3d 6dc2 00be 74bf 4ebe
00000040: b39c 843d be02 a23d 496c 013a 560a 973e
00000050: 9342 663d 5841 dfbc 1bde 3abe 0146 8a3d
00000060: cff3 dd3d 48ad 20bd 2962 98bd f409 71bd
00000070: 4697 45be 45cb 6d3e 5623 0f3d 9b4a 653b
00000080: 8b9c 8fbd df86 cfbd df3c 453e 58d5 363e
00000090: 2f7f e5bd b37b fc3c b31a 18be a009 2bbe
000000a0: 36c9 903d 2afc 69be 0892 293e d5a8 cbbc
000000b0: 1220 7fbd 3cc4 2b3d 182c 5c3e d8b8 a2be
000000c0: e9c1 17bd afe2 a13e b426 2cbe 1e9f 93bd
000000d0: e6d6 0cbd 24e1 583e 723e 953d 1465 69bd
000000e0: e6e8 293e 3138 053e 2007 803e bfd6 273b
000000f0: f037 463e 511e a63d 5adc aa3d 8ad4 583e
00000100: 6850 2d3e fd6a 2ebe ee45 05be 2449 d7bd
00000110: 02e0 abbd 64f0 cc3c 32c3 13bd 7ddb 073d
00000120: 7edc c83c 48e5 96bd 2621 8b3d afcc 403c
00000130: 70be 6b3d 11b7 af3d 6a68 803d 52f2 b5bd
00000140: eb6e 293e d464 733e 73ce e33d 51cd 15be
00000150: b42d f93c 6c0f 5f3d 6c9f e23d 7ce9 1e3e
00000160: b075 41be 0913 aebd 5aa7 0dbe 175b aa3d
00000170: df5c 623e 9eca 8f3e 5a64 11be 21b9 a2bd
00000180: 5943 c03e 1209 f23d 6f64 773c 6734 5c3d
00000190: 027d 163e ffc1 00be 1f0a b13d 6b82 e1bd
000001a0: 4408 713c 73fd 333d 65b7 0cbe dfe8 cebd
000001b0: 0b02 5bbe 6795 af3e 03a7 2fbd 6141 db3d
000001c0: ddcd 8c3e 9dc8 2ebe 262f 1cbe 6418 1abe
000001d0: 5838 303e 7e5b cebe a648 143d 9e87 1abe
000001e0: 220f b33c ba99 273e 5162 61be 2dcc 553e
000001f0: 8e59 773e 5eee c53b bc9c 223d 0af7 843d
00000200: 3573 50be eef5 27bd d416 f1bd 58c8 aebb
00000210: 7915 60be 2a1d 72bd 07f0 2ebe f766 09be
00000220: 0683 5cbe 1092 dc3d 0e3b 4d3e b72f d9bd
00000230: ec96 39be 88e1 063c f23f 01be 6e17 9c3d
00000240: 7e1e fe3d 238f 05bd c666 b6bd 82e2 163e
00000250: 773c 713e 3b76 2fbe ca2f 8c3d b1d6 9c3c
00000260: bf6f 9abe 8268 a9bd 2ff9 7b3e 66f6 21bd
00000270: 7495 27be fc29 42bd 00cc 993d 21c1 523d
00000280: 8650 2f3e dc66 db3d c992 09bd abb7 d5bd
00000290: e518 ed3c 7baf 0dbe 88bf 8fbd 9ebb ad3d
000002a0: 570c 81be da29 a6bd e12d 14be 9b0a a13e
000002b0: bf0f 183e 2e94 a23c 560e e33c 8fdf c9bd
000002c0: 4ea9 393e 5bd4 3e3e e455 8ebe adac 963d
000002d0: 97a7 363e b416 10bd 4fe3 56be 6743 2dbd
000002e0: e059 83bb 4add 24bd e60c 613d a453 70be
000002f0: 7eb7 583e 956f 91bd af21 6dbe f3e5 a0be
00000300: 4730 913d 0593 4fbd 39ae a6bd 6ed6 e53c
00000310: 2b77 afbd c275 65be 5a90 96bd bab7 ce3c
00000320: e955 17be 7fe1 00bc 9e9f 193e 5316 2f3e
00000330: c0ec 813e 8fad 19be 6f7c 1abe 342a 26be
00000340: 3bee 00ba 508a cabc ca5a d4bc 7dff 21be
00000350: c560 b0bd 59c4 053e a700 a7be 8c90 f5bc
00000360: 54b0 19be 63ff a33c c1a2 13be b047 433e
00000370: d8f9 cdbe cba8 50bb 603f 1dbd c7af d5bd
00000380: a888 97bc 34b3 ce3c b918 8d3d 66b5 a4bd
00000390: 5fd1 8ebe 270a 7d3c 2032 eabd a7d8 33bd
000003a0: 972a 39be a95d 223e fcf2 f5bc 3e3d c83e
000003b0: f3ee 2c3e 8745 243e 1ce0 4ebe edee 4a3e
000003c0: 581d cf3d f291 353e 8fc5 ec3d 9894 bdbc
000003d0: 3370 8a3e 17f0 b83d 91ea 213e 7ecc dbbd
000003e0: 5704 2c3e 099a 6dbc d667 2fbd b50b 7fbe
000003f0: 578d 0338 a3d4 96bb 082f d7ba 49ea 8a3e
-0.1803845 0.029925838 -0.18730588 0.038396094 0.09797524 -0.06471196 -0.040900294 -0.06602698
-0.15606508 -0.34663168 0.021872664 -0.061026655 -0.01206299 0.04656476 -0.12574168 -0.20190221
0.064752005 0.07910679 0.0004937095 0.29500073 0.056215834 -0.027252838 -0.18248789 0.067516334
0.108375184 -0.039227754 -0.074405976 -0.058847383 -0.19295987 0.23222072 0.03494581 0.0034987095
-0.0701228 -0.101331465 0.19261502 0.17854822 -0.11205899 0.030820703 -0.14853935 -0.1670289
0.07069628 -0.22850099 0.16559613 -0.024860779 -0.062286444 0.04193519 0.21501195 -0.3178165
-0.03705016 0.31618258 -0.16811639 -0.072080836 -0.03438463 0.21179634 0.07287301 -0.05698116
0.1659275 0.13009717 0.25005436 0.0025610176 0.19357276 0.08111251 0.0834281 0.21174827
0.16925204 -0.17033 -0.13014957 -0.10511997 -0.083923355 0.025016971 -0.036074825 0.033168305
0.024519201 -0.07367951 0.06793432 0.01176755 0.057554662 0.08579839 0.062699154 -0.088841096
0.16546218 0.23768932 0.111233614 -0.14629103 0.0304173 0.054458067 0.110655636 0.15518755
-0.1889255 -0.084997244 -0.13833371 0.08318155 0.2210574 0.28084272 -0.14198437 -0.07945467
0.37551382 0.11818136 0.015099629 0.053760912 0.14696124 -0.12574004 0.086445086 -0.110112034
0.014711443 0.04394288 -0.13741834 -0.101030104 -0.21387498 0.34293672 -0.042883884 0.107058294
0.2750081 -0.17068715 -0.1525236 -0.15048367 0.17208993 -0.40304178 0.036202095 -0.15090796
0.021857802 0.16367236 -0.22010161 0.20878668 0.24155256 0.0060403785 0.039700255 0.064924315
-0.20356448 -0.04100602 -0.11771932 -0.0053339414 -0.21883191 -0.059109844 -0.1708375 -0.13418184
-0.21534356 0.10770047 0.20042059 -0.10604804 -0.18123978 0.008232482 -0.1262205 0.07621656
0.1240816 -0.03260721 -0.08906321 0.14734843 0.23558222 -0.17134945 0.068450525 0.019145342
-0.3016338 -0.082718864 0.24606775 -0.039541624 -0.16365606 -0.04740332 0.07509613 0.051453713
0.17120561 0.10712978 -0.03358725 -0.104354225 0.028942535 -0.13836472 -0.070189536 0.08483051
-0.25204727 -0.08113451 -0.14470626 0.31453404 0.14849757 0.019846048 0.027716797 -0.098570935
0.18130991 0.18635695 -0.27799904 0.07357154 0.17837368 -0.0351779 -0.20985149 -0.042300608
-0.0040085167 -0.0402501 0.05494394 -0.23469406 0.21163747 -0.07101361 -0.2315738 -0.31425437
0.07089286 -0.050677318 -0.08138699 0.02805635 -0.08567651 -0.22408202 -0.073517516 0.025234092
-0.14778866 -0.007866262 0.15002295 0.1709836 0.25375938 -0.15007614 -0.1508653 -0.16227037
-0.00049183116 -0.024724156 -0.025922198 -0.15820117 -0.08612207 0.13063182 -0.32617685 -0.029976152
-0.1500867 0.020019239 -0.14417554 0.19070315 -0.40229678 -0.003183889 -0.038390517 -0.104339175
-0.01849778 0.025231935 0.06889481 -0.080424115 -0.27894112 0.015444315 -0.11435342 -0.043907788
-0.18082653 0.15856041 -0.03002309 0.39109224 0.16888027 0.16042148 -0.20202678 0.19817705
0.10113019 0.17731455 0.11561119 -0.023142144 0.27038726 0.090301685 0.15812136 -0.10732363
0.1679853 -0.014502057 -0.042823635 -0.2490681 3.1364467e-05 -0.004602985 -0.0016417215 0.2713187

transformer.encoder.layers.0.linear2.bias f4 [32]
00000000: 25b9 b13d 9ac9 b03d e29a 5439 2c45 a5bd
00000010: 4888 903d 53d9 10bd 2d1a 4bbd e789 d7bc
00000020: c632 123d 8cf6 a4bd 9283 7b3d ee1e 063d
00000030: c967 773d a320 b03d 9242 26bc 2668 143d
00000040: 743f dc3c 1a7b d03c fc2e 8dbd 1ea1 95bb
00000050: 15ad 6f3c 1974 83bd fa5a ecbb 1cfe 0cbe
00000060: e6ea 11bd a73a be3d c22e 49bd c625 3b3d
00000070: c51b 213d 5d41 9f3d 74ff 9cbd 035f 723d
0.08677892 0.086322024 0.00020275594 -0.08069834 0.070572436 -0.035363507 -0.04958551 -0.026310874
0.035692953 -0.080548376 0.061404772 0.03274434 0.06040171 0.08599975 -0.010147708 0.036232136
0.026885726 0.025449324 -0.06893727 -0.004566326 0.014628668 -0.06418628 -0.0072129937 -0.1376881
-0.035624407 0.09288531 -0.049116857 0.04569032 0.039333124 0.07776139 -0.07665911 0.05917264

transformer.encoder.layers.0.norm1.weight f4 [32]
00000000: 537e 5f3f 9972 7f3f 5304 863f ab15 7a3f
00000010: 0cf8 603f 301b 6f3f 9d9f 833f 058d 7f3f
00000020: 394c 903f 42ab 7c3f d1dc 803f 7569 883f
00000030: c84c 823f 20ed 783f 24bf 5b3f df5b 783f
00000040: ae8b 7f3f 3703 843f b3b9 913f 2ba4 803f
00000050: d617 8b3f 06f2 803f a5e0 743f 674b 863f
00000060: ac8f 6a3f 90cd 7a3f afa6 833f 4d8e 823f
00000070: b337 753f c9b0 8b3f d798 903f 7794 7c3f
0.8730213 0.9978424 1.047007 0.9768931 0.8787849 0.9340086 1.0283085 0.99824554
1.1273261 0.9869882 1.0067388 1.0657183 1.0179682 0.97236824 0.8583853 0.97015184
0.9982251 1.0313481 1.1384796 1.00501 1.0866649 1.007386 0.9565528 1.0491761
0.91625476 0.97969913 1.0285243 1.0199677 0.95788115 1.0913326 1.1296643 0.9866404

transformer.encoder.layers.0.norm1.bias f4 [32]
00000000: d6f0 bd3d 6139 55bc 65b6 82bd 31b0 1d3d
00000010: 2b6a cfbd ee1f 19be b6c3 873c 851d a53d
00000020: ac38 883d 0c62 bcbd 41d0 e33b b346 9cbd
00000030: 4fac 41bd bd73 7c3d 6b0e 2d3d a6bc a13d
00000040: 0b91 b83d 90e5 873d 1a19 ddbd fe60 923d
00000050: 90af 6a3c 1628 19be c2e9 053d 2f43 43bd
00000060: 50a6 703d 144a efbc 18d4 ac3a f57f 6c3d
00000070: 11bf 013e dc54 d33d 53e4 3ebd 32e4 78bd
0.092744514 -0.0130141685 -0.06382445 0.038498107 -0.10127672 -0.14953586 0.016572814 0.08062271
0.06651434 -0.091983885 0.006952316 -0.07630672 -0.047283467 0.061633814 0.04225008 0.0789731
0.0901204 0.066355824 -0.10795803 0.07147406 0.014324084 -0.14956698 0.032693632 -0.047671493
0.058752358 -0.029210128 0.0013185767 0.057739217 0.12670542 0.1031892 -0.046604466 -0.0607645

transformer.encoder.layers.0.norm2.weight f4 [32]
00000000: 5449 713f 5763 753f 9501 763f 0fa4 833f
00000010: 1877 653f 6580 7c3f b7d1 833f 9d35 673f
00000020: 4caa 7e3f c0e2 8b3f 8f20 7d3f a603 913f
00000030: ea21 883f 9e73 6c3f 77d8 7c3f 2435 863f
00000040: 931c 803f b259 813f 0c95 823f fa27 753f
00000050: ea64 833f 94fc 693f 7faf 753f 2917 833f
00000060: aca7 613f 5e29 8b3f 90f7 843f 223b 703f
00000070: e4b7 813f bd66 943f ff3f 893f 9aaa 663f
0.94252515 0.95854706 0.96096164 1.0284442 0.8963485 0.98633415 1.0298375 0.9031618
0.994786 1.0928574 0.98877805 1.1329238 1.063535 0.9236392 0.987678 1.0484967
1.000872 1.0105498 1.0201735 0.95764124 1.0265172 0.9140103 0.9597091 1.0241443
0.8814647 1.0871999 1.038805 0.9384023 1.0134244 1.1593853 1.0722655 0.9010407

transformer.encoder.layers.0.norm2.bias f4 [32]
00000000: 2ba8 a7bc 5000 d63c 89b7 8bbd 3948 68bc
00000010: ed2e 203d 5eba 903d 4f0a 383d 5052 963d
00000020: f5b2 1e3c 7e63 21bc 0238 68bb 4110 7cbc
00000030: 8237 6dbc 853e b23d b139 cc3c 0250 303d
00000040: 489e 56bc c096 83ba cdf1 5fbb 2b2b 8fbd
00000050: d928 6ebd d44c 5d3d f560 dc3c b83c fbbc
00000060: f0d2 75bd 25d3 c1bb 70e7 573d ed07 983d
00000070: b27f a83c dc91 1d3d bd5e 63bd 2981 0abd
-0.02046593 0.026123196 -0.06822116 -0.0141773755 0.039107252 0.07066797 0.044931706 0.073399186
0.009686221 -0.009850381 -0.0035433774 -0.015384735 -0.014478566 0.08703331 0.024929853 0.04304505
-0.013099261 -0.0010039434 -0.0034171224 -0.069906555 -0.058144424 0.054028347 0.026901701 -0.030668601
-0.06001562 -0.005915063 0.05271095 0.07423387 0.020568702 0.03846918 -0.05551027 -0.033814583

transformer.encoder.layers.1.self_attn.in_proj_weight f4 [96, 32]
00000000: df8d d8bd d901 0fbe 046e a53d 8904 443e
00000010: 1f7d 39bd 89ba ffbd 5600 f5bd 4ec9 8c3e
00000020: fffd 003d b418 0d3e 5575 673e 23da c33d
00000030: 3be1 56be d94c dabd 252a 82be 9ba1 5ebb
00000040: 7214 013d 45b7 a1be 26cf ff3c cd48 90bc
00000050: 05da 723e 7422 75be f848 acbe 01c4 77be
00000060: 70c0 bfbd 3d5d 543e 75a6 6f3c 68e0 7cbe
00000070: 2d06 2bbd 77ce 00bd 8a0f be3d 7663 2cbe
00000080: 019d c6bc c9be bebe 6886 aebd 10e9 22bd
00000090: edfe 3c3e 2e3c 2b3e c5e8 31be 892c 203d
000000a0: a640 02be fd31 753e 3cc7 233e d791 00be
000000b0: 5285 0fbe 96bd 973e ec44 043e d828 e13d
000000c0: 40de 973a d06d 4d3d 7ea5 2a3e 7f0a 78bc
000000d0: c8fe 91bd 3cd1 573e 528c 9cbe 2c0a 653e
000000e0: e7ed 093d b075 65be 32fa b2bc 199d c9bd
000000f0: f96f 5f3d 5415 07be b173 1a3c b7d7 2fbe
00000100: e93c 303e 6c01 8c3e 3e07 88be 036e e7bd
00000110: 3d28 873b c986 c9be 62c3 cc3d 529f b53e
00000120: 2222 1e3e 53d4 3cbe 27ce 6bbe 2ad2 12be
00000130: 8b26 7bbb 9a29 a23b 46e7 223d 3f6f f2bd
00000140: 883e 133e 7d9e f23d fc15 313e bdb7 adbc
00000150: e989 a8bd f588 93be dffc afbd 19a0 873e
00000160: b5e3 6f3e 871f 7dbd 4fe6 853d 9ff1 323e
00000170: a243 8b3e c093 61bd b590 c43d d541 43bd
00000180: da9f 91be 43ba ebbb 93c1 733d 662d a7bd
00000190: 5a89 78bd c972 b9bd f0bc babc 9fb6 27be
000001a0: d21f 823e b89d bd3d d129 0cbd 118a 1cbe
000001b0: aa81 ba3d 33e7 05be 3730 813e a040 763c
000001c0: 1cd5 633e 4e7c e33d 5810 cfbd 1f29 243e
000001d0: a3a2 1ebe 5d6d 14be 4572 463e 6c0b 5f3e
000001e0: f0f0 15be e2c9 39be 364b d8bd af81 d83d
000001f0: 7cd1 343e ae76 5cbe b18e 883d 5913 afbd
00000200: 1821 3b3e 6512 98bd 9c65 a93e c9a1 47be
00000210: c60a a7bd 10b2 01be 9e29 073e cc52 f4bd
00000220: 4bb8 c13c 29d4 363e 0a61 b03e fd55 a73e
00000230: 12f3 c23e 231a ffbc 6a09 003d 026c d4bd
00000240: ff69 fb3c 4c11 593e 17a0 103e 24bd 0c3e
00000250: 7b10 a33d a724 693e 4f17 473e b302 b6bd
00000260: 5b04 3f3e aedc ba3d ac60 50be 6308 843e
00000270: ead4 e73d f12e 573d e87e 2fbe 2e9e f03d
00000280: e2d3 4c3e 7be9 203e 125b 85be bac4 2cbe
00000290: cc02 483e 1131 d33d 8b16 afbd 4fef 113e
000002a0: f6a9 78bc cc0d 033e cdbe cc3d 1a4e 4c3e
000002b0: dfc6 bb3b da8d 0c3d 4133 d03c 3a3d c1be
000002c0: a74a eebc fe21 343e 4437 283d 2b34 5bbd
000002d0: 193e 3f3d c331 12be cf4b 01bf b081 4c3c
000002e0: 9c76 ab3d 2c66 163e 996b 8fbe fa27 cebe
000002f0: 2f11 e2bd 5352 393d 34ef 8b3e 233a 4dbd
00000300: 009a 23be d5c9 31bd a9b8 9abe 454d 993e
00000310: 1c4c d23d 63e7 0f3e 20a8 4cbe 99a4 b93d
00000320: f6e6 6c3e 2d62 853e 7ba5 9ebb d7a9 a43d
00000330: ba49 2abe 8fab 12bd f2e4 54be 230c 653e
00000340: e46f a9bd 096f 16bd 5cdd 873e f191 2f3e
00000350: e043 21be 23ad 5dbe 54b2 32be 4ae2 a33e
00000360: 59e5 373e 638b fdbd ad7b 863c 2a7a aebe
00000370: 3a7d 433d 1227 963d 070c c03e d5e4 1e3e
00000380: 9e3b 3a3c 6822 4cbd 508e 02be 6501 fc3d
00000390: 6bb4 44be 23ff 6dbe 1ef9 df3d 0e35 b23e
000003a0: 6707 263d 989b 0dbd 84ab c9bd a096 03bd
000003b0: 931a 4bbd fb78 9d3c 739e 843e 61b2 7a3e
000003c0: 68dc cfbd 006c 5cbe f668 bcbc decd b43e
000003d0: 1e10 65be 02be 8eba 4dcc 3ebe 6591 953e
000003e0: d639 bfbc 5408 933d 6506 c13d d804 0fbe
000003f0: a914 e73d d84c a6bd 5ba4 743e 3b95 20be
-0.10573935 -0.13965549 0.080776244 0.19142355 -0.04528534 -0.12486751 -0.11962955 0.27497333
0.03149223 0.13778955 0.22603352 0.09563091 -0.20984356 -0.10659189 -0.2542278 -0.0033970836
0.03151364 -0.31585136 0.031226706 -0.01761284 0.2371598 -0.23938924 -0.3364942 -0.24195863
-0.093628764 0.20738693 0.014627089 -0.24694979 -0.041753937 -0.0314469 0.092803076 -0.16834816
-0.024244787 -0.37254933 -0.0852173 -0.039773047 0.18456621 0.16722175 -0.17373951 0.039104972
-0.12719974 0.2394485 0.1599397 -0.12555633 -0.14015701 0.2963683 0.12916917 0.109941185
0.0011586621 0.050153553 0.16664693 -0.015139221 -0.07128674 0.2107591 -0.30575806 0.22367162
0.033674147 -0.22408175 -0.021847818 -0.09844417 0.054550145 -0.1319173 0.009426997 -0.17172132
0.17210735 0.27344835 -0.26568025 -0.1130028 0.00412467 -0.39360645 0.09998204 0.35473114
0.15442708 -0.1844037 -0.2302786 -0.14337984 -0.0038322534 0.004948807 0.03977134 -0.11837625
0.14379323 0.118466355 0.17293543 -0.021205777 -0.08229429 -0.28815427 -0.08593153 0.26489332
0.23426707 -0.061797645 0.065380685 0.17474984 0.27200037 -0.055072546 0.09597913 -0.047670204
-0.2844227 -0.007193835 0.05951078 -0.08162956 -0.060677864 -0.09055097 -0.02279517 -0.16378258
0.25414902 0.09258598 -0.034219567 -0.15287043 0.09106763 -0.13076477 0.25232098 0.015030056
0.22249264 0.111076936 -0.10110539 0.16031311 -0.15491728 -0.14494844 0.19379528 0.21781701
-0.14642692 -0.18143418 -0.1056122 0.1057161 0.17658037 -0.21529648 0.06667841 -0.08548612
0.18274343 -0.074253835 0.33085334 -0.1949531 -0.08156352 -0.12665582 0.1319947 -0.11929855
0.023647448 0.1785437 0.34449035 0.3268279 0.38076073 -0.031140393 0.031258978 -0.10372163
0.030690191 0.21198004 0.1412357 0.13744026 0.07962128 0.22767888 0.19442485 -0.088872336
0.18654005 0.091241226 -0.20349377 0.2578765 0.11319907 0.052535 -0.17138255 0.117489204
0.20002702 0.15714066 -0.26046044 -0.1687192 0.19532317 0.10312093 -0.085492216 0.14251445
-0.015177241 0.12798232 0.0999733 0.19951668 0.0057304944 0.034314968 0.025415065 -0.37742025
-0.029088331 0.17591092 0.04106833 -0.053516548 0.04669008 -0.14276795 -0.505063 0.012482092
0.08372232 0.14687413 -0.28011778 -0.40264875 -0.11038434 0.045244526 0.27330935 -0.05010427
-0.15976715 -0.043405373 -0.3021901 0.29941764 0.10268423 0.14053111 -0.1998601 0.09064598
0.2313498 0.26051465 -0.004841504 0.08040207 -0.16629687 -0.035808142 -0.2079046 0.22367911
-0.082732946 -0.036726985 0.2653607 0.17145516 -0.15748549 -0.21648078 -0.1745084 0.32008582
0.17958583 -0.123801015 0.016416395 -0.3407758 0.047726847 0.07331671 0.37509176 0.1551698
0.011366753 -0.0498375 -0.127496 0.123049535 -0.19209449 -0.23241858 0.10936187 0.34806103
0.040534403 -0.034572214 -0.09847167 -0.03212607 -0.04958589 0.019222727 0.25902137 0.24482109
-0.10149461 -0.21525574 -0.022999268 0.35313314 -0.2236943 -0.0010890367 -0.18632622 0.2921249
-0.023343008 0.07179323 0.09425048 -0.13966691 0.112832375 -0.081201255 0.23890822 -0.15681927
