期末项目/code/Transformer法/transformer_preprossing/models/fine_best_model_20240613-204045.pth (torch, 399914 bytes, 99 tensors)

embedding.weight f4 [32, 15]
00000000: 1124 d6be bf10 6abe 4357 013c c58d 003e
00000010: 79de e03d 57d1 ca3e b684 5c3e a646 64be
00000020: 4ff3 4c3e 0a5b a2be 35a6 1bbe 72ee 38be
00000030: 2950 adbb a2b2 5e3e 73c2 653e b099 49bc
00000040: c40e ba39 51c5 bebd bdf5 b13e a732 31bf
00000050: 2f6c b83e 8c27 083e 77f6 15be 9e6f c3bd
00000060: 2e2f d9bd d5aa fa3c 3540 803e a319 203e
00000070: 00eb 9dbd 6f40 48bd 132a 213f 030c 10be
00000080: aad4 89be 70ad 703e 2b15 e23d 088e dbbe
00000090: af20 ebbd b8a7 10bd 9c8f 31be 0a45 453d
000000a0: 3f39 54be ee7d 1ebd 0bcc a43c a4e0 15be
000000b0: 6917 9a3e 2426 18bf 5b0e 84bc 4375 513e
000000c0: bdae ba3b 4291 bfbc 0a4d 5f3c 8b29 a6bc
000000d0: 01b0 3b3e 9d9e 92be 9c22 c8bc a168 e3bc
000000e0: 7c5c ffbd e881 703e 7aee 2e3e 4d52 683e
000000f0: b9c7 aa3e ced5 2abe 4ee3 fa3c 7b94 c8bd
00000100: f0ea 143f c92e 323f fac1 843e 8e1b cf3c
00000110: 8199 80bd cdb9 043d 80af a9bd fee9 63be
00000120: 0d20 1dbe d960 25bd 1be4 7ebd b403 023f
00000130: 9ffb c6bd dfa2 773e 9c18 58be 4e73 1c3e
00000140: 9dd8 2d3f cab6 5c3e ce78 4b3d 2441 f3bd
00000150: 0fc4 34be 0295 75bd 6a2a 873e a65b 753e
00000160: a2bb 96bd b7ef f8bd 405e c83d f4de b43d
00000170: ebcd 033c 46b9 9ebe 08b0 963c f47b 4d3f
00000180: 4917 0fbe b6a1 95bc f24e df3d a327 a33e
00000190: 6698 a93d 3d7e 36be 5dee 96be bc43 99be
000001a0: f8bd 59be 9566 0bbf baab 513e 2c71 6e3e
000001b0: 49d2 d1be 50e4 97be fa3c 0f3f 9874 55be
000001c0: 9f49 d33e 6706 183e a6b3 5abe f984 6ebe
000001d0: 450b 9a3e 2339 e63d 3335 e6bb d86c 0bbe
000001e0: d0fc 2cbf 39f2 d0bd 058b 6d3d 24ce adbc
000001f0: 4e69 633e 34d7 b03e da79 8ebe c1e6 b93c
00000200: 8708 4e3e 6ab0 57bd d5a9 953e 8d13 27be
00000210: 7e1a 073e 3991 c2bd e7c6 013e 1e4d 9c3e
00000220: 3b32 923c 0107 29bd d666 383d e807 1d3f
00000230: c399 e4be 40ac a4bd 2374 093e b34b 7fbb
00000240: 60bd 0c3d 25a5 023e 0177 263e 841d 203e
00000250: c8f0 713e 920a 203e 5b6d 1f3f 580d 503e
00000260: e19c cdbd 623e 4dbe 493f 3a3d 155f 1d3f
00000270: 9b8b 84be cba5 ffbd 50eb 39be 5d15 89be
00000280: 1291 a93e a79f 7ebd e2ff 74bd 536f aabe
00000290: cc90 ae3e 7d18 9b3e beb1 68be 1bd7 6cbd
000002a0: d7ca ce3e 3072 c73e 6719 7cbd 0872 773e
000002b0: ca47 9c3e 8f66 893e d30c 00be bae0 7f3d
000002c0: 4a07 423e 6117 6f3e ec2a ecbd d13b c43e
000002d0: 0f1d e93e c0a7 ac3e cc2b 6b3e 3f04 c33c
000002e0: beb6 1b3f 62a5 96bc ff70 4bbe 6bfc 403e
000002f0: 5aec 24be 1a6d 6ebd 7e55 213d 0470 42be
00000300: f819 6abc 2a64 2b3e 7512 eabd 5d61 4ebf
00000310: 87ca 94bc d177 afbc c9d9 713e e9a3 b63d
00000320: 4404 003f 6eff 33bb f1b6 1b3e 37fb 7c3e
00000330: 5ad4 e4bd 9838 a03e 856b a13d f576 f33d
00000340: e122 843e 85fd 053e 8e30 8abe 3a20 903d
00000350: bd4f 3dbe 13c1 aa3e 1704 7c3f b09d 393f
00000360: 4aca a4be a140 2ebd 61de 743d cf8e 5c3e
00000370: 9ce5 f53d e4e5 aa3d ae67 2abd ea65 bb3c
00000380: 2a11 7e3e 4b1c d0be 137c 0f3d d690 53be
00000390: ef6e 0ebe a8a6 ed3e 14f9 4abe c359 113d
000003a0: f782 843e 73bf 313e a781 11be d5c9 663e
000003b0: af49 843e e1e5 623e 10f9 ce3c 287b 023e
000003c0: 2139 0f3e a7e7 783d 1a51 de3d 2e6f 8abe
000003d0: ef30 99be 8a84 68bf ebeb 653d da36 fcbc
000003e0: e6cf 683e f5af 09bd c55d d23e 82fa 623e
000003f0: cb60 81be 6af5 103e 820e 45be fc79 293f
-0.4182439 -0.2285795 0.00789434 0.12554081 0.10979933 0.3961284 0.21535 -0.22292575
0.2001469 -0.31710082 -0.15200122 -0.1805971 -0.005289097 0.2174783 0.22437458 -0.012304708
0.00035487686 -0.09314979 0.34757796 -0.69217914 0.36020038 0.13296336 -0.146448 -0.09542774
-0.10604702 0.030599037 0.25048986 0.1563478 -0.07710838 -0.048889574 0.62954825 -0.14067082
-0.26920062 0.23503661 0.11039194 -0.428818 -0.11480843 -0.0353162 -0.17339939 0.048161544
-0.20724963 -0.038694315 0.020116827 -0.14636475 0.30095986 -0.594332 -0.016120126 0.20454888
0.0056971 -0.023384694 0.013629207 -0.020283481 0.18328859 -0.28636637 -0.024430566 -0.027759852
-0.12468812 0.23487055 0.17083159 0.22687645 0.333555 -0.16683123 0.030625965 -0.097939454
0.58170986 0.6960264 0.25929242 0.025281694 -0.062792785 0.032403756 -0.08285427 -0.2225723
-0.15344258 -0.040375564 -0.062229257 0.507869 -0.09715962 0.24183224 -0.21103138 0.1527836
0.6790865 0.21554103 0.049675755 -0.11877659 -0.17652915 -0.059956558 0.26399547 0.23960742
-0.07360007 -0.12155097 0.09783602 0.088315874 0.0080447 -0.31000727 0.018394485 0.8026726
-0.13973726 -0.018265586 0.109037295 0.31866178 0.08281021 -0.17821594 -0.29478732 -0.2993449
-0.21263874 -0.544534 0.20475665 0.23285359 -0.40980747 -0.29666376 0.5595242 -0.20845258
0.41267106 0.14846192 -0.21357593 -0.23292913 0.30086723 0.11241367 -0.007025385 -0.1361574
-0.6757326 -0.1020245 0.057993907 -0.02121646 0.2220814 0.34539187 -0.2782734 0.02269304
0.2012044 -0.052658476 0.29231134 -0.16316052 0.131937 -0.09500355 0.12673531 0.30527586
0.017846217 -0.041266445 0.045019947 0.6134019 -0.4464856 -0.080406666 0.13423209 -0.0038955032
0.03436029 0.1275831 0.16256334 0.1563626 0.23627007 0.15629032 0.6227624 0.2031759
-0.10039688 -0.20043328 0.04547051 0.6147321 -0.2588776 -0.124827944 -0.18156171 -0.2677411
0.33118492 -0.062163975 -0.05981434 -0.3328806 0.34094846 0.3029212 -0.22724053 -0.057822328
0.4038913 0.38954306 -0.061547663 0.24164593 0.3052352 0.26836058 -0.12504892 0.062470175
0.18948093 0.23348762 -0.11531624 0.38326886 0.45529982 0.33721733 0.22965926 0.023805736
0.6082572 -0.018389408 -0.19867323 0.1884629 -0.16105786 -0.058209516 0.039388172 -0.18988043
-0.014288418 0.16737428 -0.11429302 -0.80617315 -0.018162979 -0.021419438 0.23618235 0.08917982
0.5000651 -0.002746548 0.15206505 0.24705206 -0.11173315 0.31293178 0.07881836 0.11887924
0.2580786 0.13084991 -0.2699017 0.07037397 -0.18487449 0.3335043 0.9844374 0.7250624
-0.32185584 -0.042542104 0.05978239 0.21538852 0.12006685 0.083446294 -0.041602783 0.022875745
0.24811235 -0.40646586 0.035030436 -0.2066072 -0.13909505 0.4641621 -0.19821578 0.035485994
0.25881168 0.17358188 -0.14209615 0.2253793 0.25837466 0.22158004 0.025265247 0.12742293
0.13986637 0.060767796 0.10855313 -0.27037948 -0.29920146 -0.9082724 0.056133192 -0.030787874
0.22735557 -0.03361507 0.41087165 0.22165874 -0.2526916 0.14156118 -0.19243816 0.6620176

embedding.bias f4 [32]
00000000: 1201 0bbe afa2 993e b1d0 4a3e 10be c23e
00000010: 793a b5be 06d4 323e 6158 7dbe 3dc4 063e
00000020: 5696 51be 08ba 513d 189c 59be dc87 783c
00000030: e213 c73c c88e 4cbe 47cb 34be 96f4 a0be
00000040: d68f 9d3e 914d 98be 77a0 3fbf 7325 c43e
00000050: 6d9d c43e 31bd 88bb f33b 633e 3520 1abf
00000060: 71e5 b43d 66f0 c5bd bde4 1ebf 302f c6bd
00000070: 9155 9f3d 3d35 a93e 42f5 7e3e b785 363d
-0.13574627 0.3000693 0.19806172 0.3803563 -0.35396174 0.17463693 -0.24740745 0.13160796
-0.20467505 0.051202804 -0.21250951 0.01516911 0.024301473 -0.19976342 -0.17655669 -0.31436604
0.307738 -0.29746678 -0.74854225 0.3830982 0.38401356 -0.004172944 0.22190838 -0.60205394
0.08832825 -0.09664993 -0.62067777 -0.09676969 0.07779992 0.3304843 0.24898246 0.044561114

transformer.encoder.layers.0.self_attn.in_proj_weight f4 [96, 32]
00000000: 36fa 963e caa2 11be 8571 bd3e 69f8 8b3e
00000010: 5d56 5f3e 11af dabb c94f 1ebe 9f36 3e3e
00000020: 988e b6bd ac7b 163e 3052 2bbb 1713 9d3d
00000030: 1f35 093e d16f 84bd 8273 2a3c 5572 953e
00000040: 7136 9cbe 704f 6ebe a6dd 903e ba7b 373e
00000050: 8959 01be 6069 d23e e48c 44bd 15f2 563e
00000060: 0bea 6f3d f479 0ebf db7f 72bd c92d 123d
00000070: 2b66 ddbd 8519 be3d 8400 31be 5e1c f43d
00000080: 7909 91be 6d6d a5be 4620 9ebd f4e1 f43d
00000090: 2053 2cbe 0dd5 a7be 2ca1 423e 496d c5be
000000a0: 8a7f 883e 8371 4f3e 117c fdbd cf1d 573e
000000b0: c9cd 383e 5204 15bd e65d a13e 7679 89bc
000000c0: 15e9 fabd 58ee a9be e6e6 003c c056 993d
000000d0: a48c 223d c066 ff3d 0fd3 a33e e261 5ebd
000000e0: 0a1b 533e 67d4 c73e d0cc 33be 1edb 68be
000000f0: 0914 913e b757 a2bd 61db 563d 5a51 f83c
00000100: da64 d93d 1984 313e 4ce3 843e abe4 b3be
00000110: 37e2 2f3e abd5 6bbe 19a2 6f3e d3a0 80be
00000120: 873d 8bbe ff00 01be f7c3 debc bf11 6d3e
00000130: ee7f 6dbe 1b59 b3be e800 95bc aab6 4dbd
00000140: 9ee6 af3e 0fbe 8b3c 6391 7dbd ece2 2a3e
00000150: f9a3 f23d c51e bbbc 15e3 363d 8d1f e5bc
00000160: dca5 be3b dab1 b83e 2ba6 cf3d 1433 1ebe
00000170: 704e 0abd cf6d 843e 01b4 cb3e 7bfe 893d
00000180: 3b2e 403e 5f33 d63a 4e0d da3c 4292 53be
00000190: 0964 673e 304f 8c3e a5c9 a1bb c0e2 83bd
000001a0: 1649 33bd 310b 1c3e 570b 443e c009 ad3e
000001b0: 9667 e33c 286d ddbd 301d 30be bda1 513e
000001c0: 09e6 96bd 1a39 77bd 92c3 983e a3d4 183e
000001d0: 6442 46be 40c9 813e 8339 12bd 059c e83d
000001e0: 0773 bdbd 72d0 9dbd f25c 813d a9ff 54bc
000001f0: ff4b 73be c978 fcbc 2b33 b4bd 8f55 613e
00000200: 1500 6c3e ae47 b8be 64ad 373d 20a4 48be
00000210: e656 083e 8c9e c2be a9eb d5bc de25 97be
00000220: f4bd b03d 4871 af3e 6502 b9be 94eb ff3d
00000230: 9362 5d3e 6240 49be 9f95 52bc 295f 4b3e
00000240: 13b8 253e d6c3 37be 4a00 903e 4037 603e
00000250: 9214 1cbe c228 c33d eb4a 98bc a0cb 9fbe
00000260: 99df 30be c656 923d ba3b 963d a517 9dbd
00000270: 07ee f03a 2638 87bc 9ed1 4b3e da1e c43c
00000280: 7816 74be 9b82 0abe e524 4f3e 3e75 59be
00000290: e716 10bd 8019 80be dbbf e3bd da04 0cbf
000002a0: 3bb6 8abd e4e0 083e ebed debe b2bb 993d
000002b0: 5c58 9e3a 7454 b0be 2545 073d 4a9f fb3c
000002c0: 7b47 953c dbb0 29bd b06e 773e 503f ad3e
000002d0: 06af 8cbe f8cf f83d 8aa3 ac3a cda3 7fbd
000002e0: 4bb1 d03e d91d e33e 33a9 6cbe 7f18 a8be
000002f0: fc61 cd3e b61a 8abd 50eb 14be a760 2ebe
00000300: 5518 903e c50d e3be 1117 033e 519e 703d
00000310: 2807 50bd 768c 983c 24f6 f5be fc3f 15be
00000320: acfd 2a3e 9846 6b3e 5e0f 96be 104f 2e3e
00000330: 5b5b 843e 7d3a a0be 726b cdbd 85b6 783e
00000340: fb3c 3cbe 9049 fabc bd20 333e 71ba 773e
00000350: d008 88be 4f9e 943e 6c66 49bd 5044 4e3d
00000360: 8a89 1bbe 659b 47be 40fa cfbc 1543 c9bd
00000370: adeb bd3d 656d 70bc 4445 18be 597d b5bd
00000380: 38e9 843e de10 95bc 5db0 cf3d a679 0abe
00000390: 47af cc3d 3984 663e 65c9 b2bd f5a6 b73d
000003a0: 530d 7abe 402d 7bbd e526 94bd 837c fe3d
000003b0: 27cd 16be 8c8f 11be 4a5b 9cbe 0968 043e
000003c0: bd40 4ebe dc08 d43d 94c2 923e 20a1 b93e
000003d0: 1af2 06be 9f90 b83e a81b 41be 6fc0 c2bc
000003e0: 2204 673d f73e 32ba 91b1 e0bd 34e6 873d
000003f0: 748e 62be 4805 b6bd a44e 2ebe a73e c23e
0.2948777 -0.14222255 0.3700067 0.2733796 0.21810289 -0.0066737016 -0.15460123 0.18575524
-0.08913916 0.14695615 -0.0026141517 0.07669657 0.1339917 -0.0646664 0.010403516 0.2918879
-0.30510285 -0.2327249 0.28294104 0.17918292 -0.12631811 0.4109602 -0.047985926 0.20990784
0.05857281 -0.55654836 -0.059203964 0.035688195 -0.108105026 0.09282211 -0.17285353 0.11919473
-0.2832754 -0.32310048 -0.077209994 0.1195716 -0.16828585 -0.32779732 0.19006795 -0.3855994
0.26659805 0.20258145 -0.123771794 0.21007465 0.18047251 -0.036381073 0.3151695 -0.01678155
-0.12251488 -0.33189654 0.0078675505 0.074872494 0.039684907 0.1247077 0.31996962 -0.054292567
0.20615783 0.39029238 -0.17558599 -0.22739837 0.28335598 -0.079268865 0.05245531 0.030312229
0.10614939 0.17335548 0.25954664 -0.35135397 0.17176138 -0.23030727 0.23401679 -0.251227
-0.2719538 -0.12598036 -0.027193053 0.23151301 -0.23193333 -0.3502892 -0.018188909 -0.05022303
0.34355634 0.0170584 -0.06190623 0.16688126 0.118476816 -0.02284182 0.044650156 -0.027969146
0.005818112 0.3607319 0.10139116 -0.15449172 -0.03376621 0.25865027 0.3978577 0.067379914
0.18767636 0.0016342214 0.026617672 -0.20661262 0.22596754 0.27404165 -0.004937368 -0.064397335
-0.043770872 0.15238644 0.19144951 0.337965 0.027759355 -0.108118355 -0.17198634 0.20471855
-0.073680945 -0.06035719 0.29836708 0.14924864 -0.19361264 0.25348854 -0.03569938 0.11357883
-0.09250455 -0.077057734 0.06316556 -0.013000407 -0.23759459 -0.030819314 -0.08798822 0.22005294
0.23046906 -0.35992187 0.044843093 -0.19593859 0.13314399 -0.38011587 -0.026113348 -0.29521078
0.08629981 0.34266114 -0.3613464 0.12496105 0.21619634 -0.19653466 -0.012853055 0.1986052
0.161835 -0.17945799 0.2812522 0.21896076 -0.15242222 0.09529258 -0.018590411 -0.3121004
-0.17272796 0.07145457 0.07335611 -0.076705255 0.0018381485 -0.016506266 0.19904181 0.023940492
-0.23836696 -0.13526385 0.20228918 -0.2123613 -0.03517809 -0.25019455 -0.11120578 -0.546949
-0.06773039 0.13367039 -0.43540892 0.07506503 0.0012080777 -0.34439433 0.033024926 0.030715603
0.018222561 -0.04142843 0.24163318 0.33837366 -0.27477282 0.12149042 0.0013171297 -0.062412072
0.40760264 0.4435871 -0.2311142 -0.3283119 0.4011382 -0.06743376 -0.1454289 -0.17029057
0.28143564 -0.44346443 0.12801768 0.058744732 -0.050788075 0.018621664 -0.48039353 -0.1457519
0.1669833 0.22976148 -0.293086 0.17022347 0.2585095 -0.31294623 -0.10030259 0.24288376
-0.18382637 -0.030552655 0.17492957 0.24192216 -0.26569223 0.2902703 -0.049169943 0.050358117
-0.15189186 -0.19492872 -0.025387883 -0.09827248 0.09273467 -0.014674519 -0.14870173 -0.08861799
0.25959182 -0.01819652 0.101410605 -0.13522968 0.09994369 0.22511376 -0.08729819 0.089673914
-0.24419145 -0.06132245 -0.07233981 0.124260925 -0.14726697 -0.14214915 -0.30538398 0.12930311
-0.20141883 0.10353252 0.28664076 0.3625574 -0.13178292 0.36047837 -0.18858206 -0.0237734
0.056400426 -0.00067995436 -0.10971368 0.06635705 -0.22124654 -0.08887726 -0.17022187 0.37938425

transformer.encoder.layers.0.self_attn.in_proj_bias f4 [96]
00000000: d45a abbd 7987 2c3e 8af0 383e 7f2a 45be
00000010: 499e 5f3d bdc4 543e ae28 12bc b632 d4bd
00000020: 69d6 243e 02b1 53be edb6 12be b316 1dbe
00000030: 622f 043f bb68 373e 3488 40be 0ee1 fd3e
00000040: eabd 43bd aa20 4fbe f446 b73d 0a8f 81bd
00000050: fd4b bbbd 108d 953d 7816 1c3e c2ca 69bd
00000060: c059 d23d cc3c d4bd 82ce 13be a9bc 553c
00000070: 0893 31be 2545 ab3c 0306 bf39 dcdc e5bd
00000080: 0003 04b9 0144 9939 97a8 cf39 207b 3eba
00000090: ffbe 323a ce2d b53a 08a6 0c3a d4c6 a3b9
000000a0: b789 7abb 4ab7 743b ddf4 2e3b c9a2 013c
000000b0: bc1c 5a3a 134e 613b c765 3dba e582 5939
000000c0: d123 cfb9 5007 ae39 107d 2dba e985 1cb9
000000d0: f7e6 9538 9790 0dba bb6e 4bb9 f849 5ab9
000000e0: 81a9 a539 fb53 463a 9ce0 6239 b35e 61ba
000000f0: ecdb 4b3a 6d2f cc39 52ac 96ba 78bc 073a
00000100: 9da6 67be 51b5 553d 807d 953d 93d7 0e3e
00000110: f0d8 7cbc 40ef 2ebe 1c6f 3d3e 7e2a 783e
00000120: e5a8 7b3e 9e3f 4bbe c6b9 26be 4632 8bbe
00000130: f811 acbc 7b2e a9bd 654a 2d3e 568f bf3e
00000140: 6085 8338 b689 b03d f561 de3d 4ca1 9b3d
00000150: 6b82 89bd 0b47 c9bd c530 a93d b73a 16bd
00000160: 9be6 5bbe 523a 613d 550e 183e d2dc 8cbd
00000170: fcb9 533d 8f9a 263e 2a5f 46bd 7843 133d
-0.083669335 0.16848554 0.18060508 -0.19254492 0.054594312 0.20778175 -0.008920832 -0.10361235
0.16097416 -0.20672992 -0.14327593 -0.1534069 0.516348 0.17911045 -0.18801957 0.49585766
-0.047788538 -0.20227304 0.0894908 -0.06326111 -0.09145353 0.07302296 0.15242946 -0.05707813
0.10271025 -0.103631586 -0.14434245 0.013045468 -0.17341244 0.020906994 0.00036434838 -0.11223766
-0.00012589619 0.000292331 0.00039607726 -0.0007266272 0.0006818622 0.0013822855 0.0005365317 -0.0003123792
-0.0038229057 0.0037340694 0.0026696243 0.007912346 0.0008320322 0.0034378811 -0.0007224944 0.00020743495
-0.00039508802 0.00033193314 -0.0006618062 -0.00014927205 7.147894e-05 -0.0005400269 -0.00019400839 -0.00020817656
0.00031597543 0.00075656147 0.00021636713 -0.000859718 0.00077766064 0.00038945247 -0.0011495447 0.00051779253
-0.22622152 0.05217487 0.07299328 0.13949423 -0.015432581 -0.17083454 0.18499416 0.2423496
0.24576147 -0.19848487 -0.16281804 -0.27186793 -0.021004662 -0.082608186 0.1692291 0.37414044
6.27141e-05 0.08620016 0.108585276 0.07599124 -0.067143284 -0.098280035 0.08261255 -0.03667709
-0.21474688 0.05498726 0.14849217 -0.06878056 0.05169104 0.16269897 -0.0484306 0.035953015

transformer.encoder.layers.0.self_attn.out_proj.weight f4 [32, 32]
00000000: c9bb 91be eb83 4f3e 89bb 47bc f957 d4bc
00000010: d7f4 713e 7e4b 15be 6378 803c 9706 0b3e
00000020: 8cbf 50be 3fef 2cbd 8854 263d 16de 8d3d
00000030: 763f bd3e f0e3 1cbe c172 73be ad61 0a3e
00000040: c9a0 823e 43ec a63d 2188 4d3e 2040 9fbd
00000050: be40 5f3c ac34 d4bd 6742 9bbd 1828 01be
00000060: e95f babe d10e 44be dbd3 09bb 3454 ea3c
00000070: a9d1 163e edb5 ad3e d8f1 093e a3c0 58be
00000080: 496f c43d 3b19 b03d 64be 073d ada0 1a3e
00000090: 7ce4 61bc c40d ebbd 648d 7abe 5c94 89bd
000000a0: 0788 6dbe 7b0b 003e 02b8 783e bcc0 43be
000000b0: d02a 9fbd 018f 10be 95a4 253e a7e5 173e
000000c0: 856e 4fbe e468 813d bb37 1fbe 05f2 30bd
000000d0: 40eb 8a3e 35f3 943d 0593 abbe 046a 13be
000000e0: f130 aebc c3a8 bb3d 9103 273e c83e 00be
000000f0: 9100 1e3e 66b6 4d3e a636 f8bd 84af 85be
00000100: 21ed 363e b7fc 88be 4843 a0bd 2171 ecbd
00000110: e673 d13c 0d42 973e 0d55 d83d b435 213e
00000120: 2ad4 233e 48de 803e 3be2 86bd 50d5 ccbd
00000130: 4e00 293e db80 64be 803e 883e 116b 8e3e
00000140: 571b 853d 2e2a 3b3b 331a 73be 36d5 a23d
00000150: 2ab2 5b3e ae90 99bd 3ded 80bd 96aa 6e3e
00000160: 6b2b 4c3e 714e 273e 767f 1fbe 3595 f23d
00000170: 32a1 25bc 314a a73d fe0e c8bd 6cba 2bbd
00000180: f35e 20bd fbbd 873d 9ec1 803b fef8 523e
00000190: b4b7 82bc 3709 ff3d b4d7 a8be 5746 04be
000001a0: c551 103d 5777 633e d29b a5be 2b34 f33d
000001b0: d6cd aa3e d52f a9bd 0a0e 1d3d f984 62bd
000001c0: 219a 843e 6bbf 813e 0db6 a63c 322e 8b3d
000001d0: c07a 343e 024f c4bd 7f05 28be a9c6 c9bd
000001e0: 7b21 9ebe 89fe 6d3e f23b 0fbd a754 21be
000001f0: e305 3a3e 4430 6f3e d751 df3d 3fb2 05be
00000200: 260b b83e e12b 71be ee7c 1fbe fe59 a53d
00000210: ca15 f33d 459a 403e 98eb 95be fe48 1f3e
00000220: b850 903e 6d4c 0abe 3dbe 423e 4091 813e
00000230: ef9b 30bd ffe0 023e 9df3 323e 7b3a e73e
00000240: a880 07be 8741 b13d 7da5 5abe c9c9 98bc
00000250: 0138 72bd 2fbf 17be 97e7 023e f4e2 9a3d
00000260: ccd7 f2bd 42a6 e7bd 2179 debd 1c74 413e
00000270: 3a6f a5be 7b2a 84be 16c3 383e 0753 24be
00000280: 81f8 aebd 6d49 723e c777 7e3e 5858 0abe
00000290: dc56 71bb 1c55 3e3e 276e 5abe 7a21 793e
000002a0: eca3 303d e019 cdbe 91cc 60be 8682 193e
000002b0: 8ce9 78be 7709 073d 9c63 a9bd 3caf b5bd
000002c0: 6597 cc3d 2f9d 45be 969f 9ebe f09d d63c
000002d0: 541b 56be a7d7 393e d3bd 2c3d d007 b43c
000002e0: 6887 2fbe b79b 48be 7baf 1abc 9db9 82be
000002f0: 789a 333e 6e5b 1d3e aabc 2fbe 04f2 7a3d
00000300: 8520 773e cdfe cebd 4de5 c53d da70 1ebe
00000310: 106d 53be 7e11 71be dbad 9c3c b7c8 e4bd
00000320: 279e adbd 6743 60be 895d 173e 0109 b23e
00000330: f543 86bd 0f1a 81be c380 aebe 1883 3b3e
00000340: 38ce 083e b032 793e 3ad8 7abe 7076 30bd
00000350: 83ec 8e3e 1ca7 d5bc 4fb3 1fbd 4bd3 dabd
00000360: 8146 d7bc cd38 32bd 1c5c 88bd e5f0 93be
00000370: 453d 6abe 8b59 6dbd 76f7 a6be feec 42bc
00000380: bf33 86be 8d3c 923d 784e ecbd 8f98 613b
00000390: 0f14 0fbe e4b5 4fbe c1ed 083e fe7f ebbd
000003a0: 798f 92be 1289 56ba a3cc 363e a9a1 4a3e
000003b0: a9b5 9cbe efbb e23c 164f 743d 298d 1abd
000003c0: 08a7 b6bc 6b6c 063e b8f7 51bd 0344 b2bd
000003d0: cef6 a03d 2f3e 3fbe 2894 63be 3c9e bb3d
000003e0: df42 853e 714c 36bd 9fa4 b2bc 5b55 3f3e
000003f0: d38f 8dbe 8a15 113e f98d 19be eae2 863d
-0.2846358 0.20265166 -0.012190708 -0.025920855 0.23628555 -0.14579579 0.015682405 0.13576733
-0.2038557 -0.04222035 0.04060796 0.06927125 0.3696248 -0.15321326 -0.23774244 0.13513823
0.25513294 0.08150532 0.2007146 -0.07775903 0.013626276 -0.10361609 -0.075810246 -0.12612951
-0.364013 -0.19146277 -0.0021030817 0.028604604 0.14728417 0.3392786 0.13471162 -0.21167235
0.095915385 0.08598562 0.033140555 0.15100355 -0.013787385 -0.11477235 -0.24467999 -0.067177504
-0.23196422 0.1250438 0.24288943 -0.19116491 -0.07771838 -0.14117052 0.16176064 0.14833699
-0.20257004 0.063188344 -0.15548603 -0.043199558 0.27132607 0.072729506 -0.33510605 -0.1439591
-0.021263571 0.09163048 0.16309954 -0.12523949 0.15429904 0.2008911 -0.12119798 -0.2611047
0.17863895 -0.26755306 -0.07825333 -0.11545015 0.02556796 0.2954258 0.10563097 0.15743142
0.15998903 0.25169587 -0.06586119 -0.10001624 0.16504022 -0.2231478 0.26610184 0.2781606
0.06499355 0.0028559077 -0.23740463 0.07950823 0.21454683 -0.074982986 -0.062952496 0.23307261
0.19938438 0.16338517 -0.15575966 0.11844865 -0.010109233 0.08168448 -0.097684845 -0.041925833
-0.03915305 0.06628033 0.003929331 0.20602795 -0.015956737 0.124529295 -0.32977068 -0.12917458
0.03523423 0.22213493 -0.32345444 0.118751846 0.33360165 -0.08261076 0.038343467 -0.055302594
0.2589884 0.25341353 0.02035048 0.067959204 0.1762495 -0.09585382 -0.16408347 -0.098523445
-0.3088492 0.23241629 -0.034969278 -0.15754949 0.18166308 0.23358256 0.109042816 -0.13056277
0.35946006 -0.23551895 -0.15575 0.08073805 0.1186939 0.18808849 -0.29281306 0.15555188
0.28186584 -0.13505717 0.19017883 0.2530613 -0.04311746 0.12781142 0.17475744 0.45161805
-0.13232672 0.086550765 -0.21352191 -0.018650906 -0.05913544 -0.14819025 0.12783657 0.07562819
-0.11857566 -0.11311008 -0.10862947 0.18891948 -0.32311422 -0.2581366 0.1804317 -0.16047297
-0.08543492 0.23660822 0.24850379 -0.13510263 -0.0036825454 0.18587154 -0.21331082 0.24329177
0.043125078 -0.40058804 -0.21953036 0.14991197 -0.24307841 0.03296801 -0.08270952 -0.08871314
0.09989814 -0.19298242 -0.3098113 0.026198357 -0.20908862 0.18148671 0.042173218 0.021976382
-0.17141497 -0.1959065 -0.009441252 -0.25532237 0.17539394 0.15366909 -0.17161813 0.06126596
0.24133499 -0.10107193 0.09662876 -0.15472737 -0.20647073 -0.23541829 0.01912587 -0.11171096
-0.08477431 -0.21900712 0.14781775 0.34772494 -0.065559305 -0.25215194 -0.34082612 0.18311727
0.13359916 0.24335742 -0.24496546 -0.0430817 0.2791482 -0.02608066 -0.03898936 -0.10684832
-0.026278736 -0.0435112 -0.066581935 -0.28894725 -0.22874935 -0.057946723 -0.32610673 -0.011897324
-0.26211354 0.071404554 -0.11538404 0.0034423207 -0.13972495 -0.2028423 0.13371946 -0.11499022
-0.28625086 -0.0008183877 0.178515 0.19788231 -0.30607346 0.027677504 0.059645735 -0.037732277
-0.022296444 0.13127296 -0.051261634 -0.087043785 0.07859574 -0.18676065 -0.22224486 0.0916104
0.2602758 -0.044506494 -0.021807013 0.18684904 -0.27648792 0.14168373 -0.14995565 0.06586249

transformer.encoder.layers.0.self_attn.out_proj.bias f4 [32]
00000000: c1d5 173e 4406 a83e 19c3 443e fc5f 493e
00000010: 018c 80be 9f7a 3cbe b2db 93be c166 893e
00000020: ee68 bcbd 065d 95be 1669 7fbd 08f5 2bbd
00000030: c412 513e 9460 4cbd 7ae2 68be 1737 28be
00000040: 51a1 a33e f93d 14be 1ffa cabe 2666 773e
00000050: eeed 823e a6ac aebe 1cfc 833e 913c cebe
00000060: cb8c 1fbe e120 da3d 07b1 b4be 46f9 15bd
00000070: 928a 193e 8922 8f3e 3104 b13d 9dec e53d
0.14827634 0.3281728 0.19215049 0.19665521 -0.25106815 -0.18406151 -0.28878552 0.26836208
-0.09199701 -0.29172534 -0.062356077 -0.041981727 0.20417315 -0.04989679 -0.22742644 -0.16427265
0.31959012 -0.14476766 -0.39643952 0.2416006 0.2557215 -0.34116095 0.25778282 -0.40280584
-0.15581052 0.106508024 -0.3529131 -0.03661468 0.14994267 0.27956036 0.086433776 0.11226771

transformer.encoder.layers.0.linear1.weight f4 [128, 32]
00000000: 1915 45bd 3079 cd3d 846e 183e 89d0 2a3e
00000010: 1f29 b5bd 33ff d4bd 9415 15be 576b 063d
00000020: 4573 a73d f427 87bc 404f 7fbc 1366 adbd
00000030: 0b0a 58bd 044c 153e 86e8 c03d d246 803d
00000040: 92a2 143e b8ff 3d3e 6f81 923d 277f 38be
00000050: 9779 783e 3e54 153e 702b 773d 5706 2a3e
00000060: 4282 f2bd 17fa b93d 1173 e03c ac58 ad3c
00000070: 279e 35be 4cf2 073d 0425 99bd bb97 c93d
00000080: ecd3 8dbe c12e af3c 28a3 45bd 7896 ccbd
00000090: e8e2 e63d 51ce f8bd 053d 973e 02a2 42be
000000a0: fc38 8b3c 1f75 e3bd 7432 3cbc c299 48be
000000b0: eb54 7dbd 3f3a c73d ba73 48be 6120 51bd
000000c0: 5d39 7dbe bd1e c13e b49c 953e f66b b93c
000000d0: b4e0 4abd e8bb b6bd d163 503e 0443 d4bc
000000e0: 8696 07bc 5c9b 71bd c27a 333e 150a 763d
000000f0: 4d10 80be 04cf 773d fa6c cfbd e214 f9bd
00000100: fd52 49bd d1f5 cebd c70c ab3d e185 273e
00000110: 594d 723e bb05 6b3d d142 9dbd f637 703e
00000120: 0c2c e43d 6d2b e13d c9de f6bd e65c e53c
00000130: eabf d03d bbeb eebb f5f7 b73d 79d9 02be
00000140: d97f 87bd 8fda 71be e234 853e 3f03 acbd
00000150: 4611 e23d 31fc 293e 97bd 98be d126 ab3d
00000160: 8bee 223e e36b 66bd ce7c 063e a717 da3d
00000170: e366 f6bb 175d 993c cddf 253e 64ab 88bd
00000180: e25d 0f3e d1f2 70be a52f 133e a66c 4ebd
00000190: f068 8dbe 323b c43d bb59 21be b7c8 5e3d
000001a0: 9f91 abbd e8d2 713e 3e54 3d3e 030c c03d
000001b0: d258 92bd 4ec8 d9bd 5b08 c6bc f36a 123e
000001c0: fbb1 353e c36f c33c e921 39be c925 e13c
000001d0: ae6f 3d3e ffd5 4ebd dc3f dc3d 99b2 d8bd
000001e0: 410e 4abe b0c8 d3bd 203c aa3d 733c d93d
000001f0: 096a c83d d437 4bbe 978b 23bb 7768 f8bd
00000200: f91b 6abe 40ae 4cbe cda8 05be 0332 b4bb
00000210: 0fcd 9ebd 4668 873e 4539 cb3e 7fe4 40be
00000220: df88 47be 1749 a7bd 3c61 86bd 4211 8cbd
00000230: 8356 cbbd 06bc 28bc 0dab 2bbb 7148 7c3d
00000240: b75b c13d d5c6 ce3e 95f1 963e cb7b 80bd
00000250: 1f7c 81bd 9459 9f3d 7584 11bc 4f54 563e
00000260: 09e1 2e3e 1bfd 9cbe 5daa 3b3e 489b 88bc
00000270: 1dcd ff3d 564e 90bb 5f18 68be 0437 043e
00000280: c2bf 9b3d 4e39 b0be ea2d 6fbe 9515 e5bc
00000290: 7a82 82bd 1cbe af3d c119 6d3e e6ee 76bd
000002a0: d76e 01bc acd0 eabd f429 953e 720a afbc
000002b0: 763c 67be 4551 a639 8e8d 853e d9a1 6f3e
000002c0: ee20 d23d c0d8 ba3e 7da4 ef3d 98b8 44bd
000002d0: ca88 94be ece1 503b 466a 1fbe b970 d63e
000002e0: 01c2 44be 5135 97bd 7014 5c3e 7b3b 203d
000002f0: d157 0b3e 7065 333b 4c95 95be 1e00 d9bd
00000300: 1d7a 3cbe 09ef c9bc d44a af3e a218 02bb
00000310: d81d e13d 3ab3 c63d c30b d53d 4994 8dbe
00000320: d12a 6f3c 83d1 8dbd 2e94 013e 3952 3bbe
00000330: 3515 9d3d 8048 20bd 4df1 73bd 3b55 bf3c
00000340: 07b8 41be ce9b 19bd 1a03 27be a092 eebd
00000350: 01c4 553e 30df f93e 37c2 403e bacb c13d
00000360: fe85 16be 1e7e c7bc 1e86 12be 31fe e33d
00000370: 4c78 14be 81c6 4dbc 6951 a7bc ae01 f93d
00000380: d080 11bc acb1 a9be 9c00 2a3d 33c0 163d
00000390: 1704 c9bd ca4c 4ebe c03b 953c 23b4 a7be
000003a0: 2c96 39be 29a9 403e 41ac 23be de00 093e
000003b0: f300 a13d 3a02 5dbe 08ae b93d 7828 873d
000003c0: ee4a 15be 5a46 d63c a49d 593d 0fb5 793e
000003d0: 8d50 fbbd ba81 223e 27c3 ed3d 58ca 9a3e
000003e0: e823 70bc 305b 113d 38f8 933e 4fc7 113d
000003f0: 0865 a63d cf20 eabc b26b 243d c62b 473e
-0.048115823 0.1003288 0.14885908 0.16681112 -0.08845734 -0.10400238 -0.14559013 0.03281721
0.08176283 -0.016498543 -0.0155828595 -0.08466735 -0.052743953 0.14579779 0.0941935 0.06263508
0.1451514 0.1855458 0.07153594 -0.18017255 0.24265133 0.14582917 0.06034416 0.16603981
-0.11841251 0.09080904 0.027398618 0.021160446 -0.17736112 0.033190057 -0.07477763 0.098433934
-0.27700746 0.021384599 -0.0482513 -0.09989637 0.11273748 -0.12148727 0.29538742 -0.19007114
0.016994946 -0.111063235 -0.011486638 -0.19589904 -0.061848562 0.097279064 -0.19575396 -0.05105627
-0.24728914 0.37718764 0.29221117 0.022634488 -0.0495307 -0.08922559 0.20350577 -0.025910862
-0.008275634 -0.058986053 0.17527297 0.06006821 -0.25012437 0.06050016 -0.101282075 -0.12162186
-0.04915141 -0.101054795 0.083520465 0.16359664 0.23662318 0.057378512 -0.0767876 0.23458847
0.11141214 0.10994611 -0.12054212 0.027998399 0.10192855 -0.007291285 0.08982841 -0.12778272
-0.06616182 -0.2361853 0.2601691 -0.08399057 0.11038451 0.1660011 -0.29832146 0.08357013
0.1591131 -0.056255233 0.13133547 0.106490426 -0.0075195893 0.018721147 0.16198654 -0.06673315
0.14000657 -0.23530127 0.14373644 -0.050396584 -0.27619123 0.09581603 -0.15756886 0.054390635
-0.083773844 0.2361561 0.18489167 0.09377291 -0.071458474 -0.10633908 -0.024173906 0.1429861
0.17743675 0.023857003 -0.18079342 0.027483838 0.18499634 -0.05049705 0.10754368 -0.1058094
-0.19732 -0.103410125 0.08312249 0.10607233 0.097858496 -0.19845515 -0.0024955028 -0.121293
-0.22862233 -0.19988346 -0.13052674 -0.005499126 -0.077539556 0.26446742 0.3969213 -0.18837164
-0.19485806 -0.08168238 -0.06561515 -0.06839229 -0.0992861 -0.0102987345 -0.0026194484 0.061592523
0.09441321 0.40386072 0.29481187 -0.06273612 -0.06322502 0.077807575 -0.008881678 0.20930599
0.17078032 -0.30661854 0.18326707 -0.016675606 0.12490294 -0.0044038696 -0.22665547 0.12911612
0.07604934 -0.3441872 -0.23357359 -0.027964393 -0.06372543 0.08581182 0.23154356 -0.060286425
-0.007899961 -0.11465582 0.2913357 -0.021367285 -0.22581658 0.00031722538 0.2608456 0.23401584
0.10260187 0.36493492 0.117012955 -0.048027605 -0.29010612 0.0031872941 -0.15567884 0.41882876
-0.19214632 -0.07383216 0.21492171 0.039119225 0.13607718 0.0027373694 -0.29215467 -0.105957255
-0.18405958 -0.024650114 0.34236777 -0.0019851108 0.1099202 0.097021535 0.10402634 -0.27652195
0.014597611 -0.06924727 0.12654182 -0.18293084 0.076700605 -0.03913164 -0.059556294 0.02335607
-0.18917857 -0.037502103 -0.16309777 -0.1164906 0.20875551 0.4880309 0.18824087 0.09462686
-0.14699551 -0.02435213 -0.14308974 0.111324675 -0.14499015 -0.012559534 -0.020424562 0.121585235
-0.008880809 -0.33143365 0.041504487 0.03680439 -0.09815233 -0.2014648 0.018216968 -0.3275462
-0.18123692 0.1881453 -0.15983678 0.13379237 0.07861509 -0.2158288 0.09066397 0.06599516
-0.14579365 0.026156593 0.053128853 0.24385475 -0.12271223 0.158698 0.11609488 0.302325
-0.014656998 0.035487354 0.28900313 0.035590466 0.08124739 -0.028580097 0.04014177 0.19450292

transformer.encoder.layers.0.linear1.bias f4 [128]
00000000: 44df d6bd 39fb 32bd 2971 b7bd 3fd3 83bd
00000010: b065 c53d b671 0abe e04f 0cbe 09fa a13d
00000020: df42 8dbd c43b 34be 74e3 95bd 017e f2bc
00000030: d914 6abe c7cb 253d 0169 2dbe b5d9 99be
00000040: 5a38 f1bd 94c0 bbbc ef79 42be 4a32 b03d
00000050: ce5d 23be 918d c33c c932 92be bb31 75be
00000060: 85c4 99bc e02e 6a3d bd1f 2cbe 6ee0 28bd
00000070: e02a 45bd c5cd 0abe 874f 8fbd 20e5 3abe
00000080: a6ad 80be 77ec ffbd 9d9c 91bd 503a 9ebd
00000090: ad7f 883d 2018 e6bd 0a17 4ebc 1522 b23d
000000a0: 2856 38bd f16e a63d 2bbd 96bd cb7f 8e3d
000000b0: 8656 c9bd 5fb3 98bd b8db 9cbd fbed 50be
000000c0: cf6c 3fbc df22 7f3b 8a8f e6bd a2e6 4bbe
000000d0: 416d 28be 9b2e 6ebd 9e8f 67be f4a2 99bd
000000e0: bc0e e5bd 89b8 6fbe e801 b1bd e518 0abe
000000f0: 263d 0ebe 1ad2 05bd 5c79 33be 14c7 60bc
00000100: aa8c febd 6181 d63d 9910 7abe b4f0 cf3d
00000110: 4147 a7bb e46f 8dbe 6992 ebbd 395b 52bd
00000120: 552c c9bd 1735 89be 58ad 41be f2a2 65be
00000130: f814 50bd ffe1 103e 4ac4 eebd 003c bebc
00000140: ccd3 e8bd ac19 b7bd 85ee 9dbc 8800 05be
00000150: 876f 4abe 953c 96be 39ed 65bd bfdb d1bd
00000160: 8d37 23bc b160 c5bc 9a3b 103d b0bf a8be
00000170: 74cb c7bd f735 823d 72b2 21be f9b4 93bd
00000180: b4e7 96be eb1b c6bd a90f 3a3e a3d4 3cbe
00000190: fd17 4fbe 5958 5fbe 7167 05be 2be2 05bd
000001a0: 70f1 54be 80f8 55be 53f9 a0bd b49d 3b3a
000001b0: c7df 29be 7910 80be 858e 67be 858b 7ebe
000001c0: 68cd 89be 3053 933d a569 c43d dc1b e4bd
000001d0: 9b85 51bd beb2 17be b5fb 70bd 6b27 bdbd
000001e0: d926 34be 8809 a7bd 9bc2 053b e3ef 25be
000001f0: 0542 e7bd 48db 023d 1274 16be 77af 12bc
-0.10491803 -0.043696616 -0.089571305 -0.06436776 0.09638536 -0.1351994 -0.13702345 0.079090185
-0.0689752 -0.17600924 -0.07318774 -0.029601099 -0.22859515 0.04047754 -0.16934587 -0.3004891
-0.11778326 -0.022918977 -0.18991826 0.08603342 -0.15953752 0.023871215 -0.2855437 -0.23944752
-0.018770466 0.05717361 -0.16808982 -0.041229658 -0.048136592 -0.13555057 -0.069975905 -0.18251467
-0.25132483 -0.12496274 -0.0710995 -0.07725966 0.06664977 -0.1123507 -0.012578735 0.08697907
-0.04500404 0.08126629 -0.073603 0.06957968 -0.09830956 -0.07456087 -0.076590955 -0.20403282
-0.011683657 0.0038930697 -0.11257847 -0.19912198 -0.16447927 -0.058149915 -0.2261338 -0.07501784
-0.11184451 -0.23410238 -0.08642942 -0.13486059 -0.13890514 -0.03267107 -0.17526764 -0.013719339
-0.12429173 0.10473896 -0.24420394 0.10153332 -0.0051049297 -0.27624428 -0.11502535 -0.051356528
-0.09822909 -0.26798317 -0.18913782 -0.2242544 -0.050801247 0.1414871 -0.11658533 -0.02322197
-0.11368522 -0.089404434 -0.019278774 -0.12988484 -0.19769107 -0.29343095 -0.056134436 -0.10246991
-0.009961975 -0.024093958 0.03521309 -0.32958746 -0.097556025 0.06357949 -0.15790728 -0.07212252
-0.2947365 -0.09673294 0.18170036 -0.1844049 -0.20223995 -0.21811046 -0.13027741 -0.032686394
-0.20795226 -0.20895576 -0.07860055 0.00071569835 -0.1658927 -0.25012568 -0.2261296 -0.2485791
-0.26914525 0.07193601 0.095904626 -0.11138126 -0.051152807 -0.14814278 -0.058833797 -0.09236034
-0.17592944 -0.08156115 0.0020410183 -0.16204791 -0.11291889 0.031947404 -0.14692715 -0.008952967

transformer.encoder.layers.0.linear2.weight f4 [32, 128]
00000000: f150 38be 6d3f a43d 41ea 40be bec6 093d
00000010: 721d ee3d 502c dfbd 78fd 01bd 72ee 73bd
00000020: e00f 17be ab94 a8be 6086 e9bc d6a2 e3bd
00000030: a8c8 22bd 527d 6abc 486a 1fbe f809 4cbe
00000040: 4f79 db3d e4a0 af3d 5bb5 1a3c 3938 9c3e
00000050: cc99 6e3c 88d4 00bc ef97 24be f48e 373d
00000060: 00b9 d73d 2155 50bd a7ed 8fbc 16ed 8cbd
00000070: bb8c 58be 14ab 793e a3e0 373d 5bbd e13c
00000080: 9a90 c9bd cd0b 1bbe edf4 3f3e 65eb 273e
00000090: bb6d 05be 9b95 283d 16e7 febd 6263 0bbe
000000a0: a9af 463d de67 70be 58f5 2d3e 4e58 2fbd
000000b0: 6fbe c8bd ce28 be3c f2bb 463e e487 97be
000000c0: 897c 0dbd fd3d 953e 6f0a 49be ff70 97bd
000000d0: daaf 91bd a1cd 733e 3a8e 743d f648 8abd
000000e0: f208 3d3e 8137 d93d d724 673e da94 0fbc
000000f0: b860 513e 9ca0 9e3d 0666 923d 2ef7 4b3e
00000100: a156 0f3e f1e5 2abe a75c 23be b1f5 e0bd
00000110: be9b 10bd 259d 6e3c be8a 21bd eb51 753d
00000120: c599 e7bc 2bcf 84bd 23c0 b43d edc6 133c
00000130: b2e4 653d e78f a73d 54f1 633d 7cec a5bd
00000140: 7ab1 e33d e588 7f3e 3bfe b53d fff8 46be
00000150: 2e83 2c3d e3a8 523d 701f f23d 4005 093e
00000160: 5e76 50be 1931 c1bd d5a9 08be 326c a33d
00000170: 8678 193e efa4 803e f102 51be 2f04 99bd
00000180: ffac d33e 0dc9 cd3d 7aac d13c b1d7 573d
00000190: 1a64 df3d 4428 25be dcd3 883d 5256 d5bd
000001a0: 6080 0dbd c3a5 e33c 4136 29be 1a37 ecbd
000001b0: e462 78be 9555 db3e ca03 22bd 5a1e f33d
000001c0: 97ff 793e e14a 5dbe cdf5 17be d33c 12be
000001d0: 0ad9 2d3e 0aaa d4be 197f 233d 1ec8 0ebe
000001e0: ec03 9cbc da9d 353e fe5c 93be cc79 3e3e
000001f0: c630 5e3e 25e1 513d 7163 d83c 17df 873c
00000200: 6b26 5abe b527 83bd d67a 39be 9dda bc3c
00000210: 873e 5dbe f51d 773c 98d7 26be 8077 f8bd
00000220: be93 4ebe 8abe c23d d426 473e f3ae 91bd
00000230: ce7f 23be 853c 413b f684 07be 994f f53d
00000240: 52fe ed3d bf3c 3ebd a70f 84bd fa37 113e
00000250: de95 7b3e dee8 40be 1b91 973d a6f4 443c
00000260: 5908 9ebe 8b20 c8bd 689b 893e 44ff 50bd
00000270: d3f6 64be 58ed 36bd 5324 8e3d 6021 a33c
00000280: 0b4f 203e 5ed6 f33d 6405 3abd b502 98bd
00000290: de76 313d 83ef cabd aba2 03be 370f 9f3d
000002a0: 451d bbbe 3f8a 11be 83f9 1fbe b758 ab3e
000002b0: e77a 413e 9c1b fc3c e3ec 6a3b f342 d9bd
000002c0: 6947 353e 628f 413e 5d97 97be bdbc af3d
000002d0: 33ac 693e 2fdb 80bd be91 50be c409 dc3b
000002e0: 8169 84bc fc66 dabd 1c61 5c3d 74a9 68be
000002f0: 3374 4c3e 18c7 12bd 94fb 8abe 65ea aabe
00000300: a3d7 693d fe71 b7bd 017d 36bd 91ee c53b
00000310: 3446 4bbd 8e06 65be 844d 92bd 3087 ce3c
00000320: 84f1 cebd dc8c 233c e1ac c53d a292 143e
00000330: 6cd5 913e 1274 35be fd49 f4bd 86f8 1abe
00000340: 5846 b43c e989 33bc 0ddc 43bd b98b 73be
00000350: ea18 bebd cfd3 4d3e e5f9 9ebe d28d b8bb
00000360: 43c0 23be 0892 333d 0ac5 1abe 941e 063e
00000370: 9686 cdbe 0607 abbb f812 483d c51a cfbd
00000380: 8828 abbd 3a25 8e3c f2da 2f3d 763a 06be
00000390: e0f8 8cbe 74f7 ef3a b61f 28bd e22a 5d3c
000003a0: b624 46be 37b8 e63d b909 c53b 63c0 dd3e
000003b0: 9f02 2a3e d737 3a3e 840f 8cbe 9dce 4a3e
000003c0: b114 8e3d 731e 5d3e 56df c93d ed68 b4bd
000003d0: 5aaa 873e b911 943d 0375 b53d 4d92 a6bd
000003e0: 67aa 753e 15d4 0fbc 5335 9ebd 0ac8 57be
000003f0: afa0 713c 3c9b 3f3c 2078 9a3c b4db 923e
-0.17999627 0.0801991 -0.18839361 0.0336368 0.1162671 -0.10897124 -0.031735867 -0.05955357
-0.1475215 -0.32925925 -0.028506458 -0.11115043 -0.039742142 -0.014312105 -0.15567887 -0.19925678
0.10716497 0.08575609 0.009442653 0.30511644 0.014563035 -0.007863171 -0.16073583 0.044814065
0.10533333 -0.050862435 -0.017569376 -0.06881158 -0.21147434 0.24381667 0.044891965 0.027556112
-0.09842034 -0.1514122 0.18745776 0.1639839 -0.1303014 0.0411583 -0.1244642 -0.1361213
0.048507366 -0.23477122 0.16988122 -0.042808823 -0.09801947 0.023212817 0.19407633 -0.29595864
-0.034542594 0.29148856 -0.19632886 -0.07394599 -0.07113619 0.2380891 0.05970595 -0.067521974
0.18460444 0.1060629 0.22572647 -0.008763516 0.20447052 0.077454776 0.07148366 0.1991851
0.1399789 -0.16689278 -0.15953313 -0.10984362 -0.035304777 0.014563833 -0.039438955 0.059892576
-0.028271565 -0.06484827 0.0882571 0.009019596 0.056126304 0.08181744 0.05565007 -0.081017464
0.11117835 0.24954565 0.08886381 -0.19430922 0.04211729 0.051430594 0.118224025 0.13380909
-0.20357653 -0.09433193 -0.13346036 0.07979621 0.14987382 0.25125834 -0.20411278 -0.07471501
0.41342923 0.10048113 0.025594939 0.052695934 0.10907765 -0.16128641 0.06681034 -0.10416855
-0.034546256 0.027789002 -0.16524602 -0.11533947 -0.24256474 0.4283873 -0.039554395 0.118710235
0.24413906 -0.21610595 -0.1483986 -0.14281015 0.16977325 -0.4153598 0.03991613 -0.13943526
-0.019044839 0.17735997 -0.28781885 0.1860115 0.21698293 0.051240105 0.026414605 0.01658587
-0.21303718 -0.06404058 -0.18113264 0.023053462 -0.21605884 0.015082826 -0.1629318 -0.12132168
-0.20173547 0.09508999 0.19448406 -0.07113447 -0.15966722 0.0029485535 -0.13234314 0.11978073
0.116207734 -0.04644465 -0.06448298 0.1418151 0.24568889 -0.18838832 0.074007235 0.012021219
-0.30865744 -0.09771832 0.26876378 -0.05102469 -0.22359781 -0.044659942 0.06940522 0.019913375
0.15655152 0.11906122 -0.045415297 -0.07422391 0.04332625 -0.099089645 -0.12855022 0.07766574
-0.36545768 -0.14212893 -0.15622525 0.33466122 0.1889454 0.030774884 0.0035846762 -0.10608473
0.17703022 0.18902352 -0.2960767 0.08580921 0.22819595 -0.06291806 -0.20368096 0.0067150313
-0.01616359 -0.10664174 0.05380355 -0.22720891 0.19966201 -0.0358344 -0.27145064 -0.33381954
0.057090413 -0.08957289 -0.044552807 0.006040402 -0.049627498 -0.22365782 -0.07143691 0.025210947
-0.10104659 0.009982314 0.09652115 0.14509061 0.2848314 -0.17720059 -0.11928175 -0.15133867
0.022006199 -0.010958173 -0.04781728 -0.23783769 -0.09282096 0.2010033 -0.3105003 -0.0056321407
-0.15991311 0.043840438 -0.15114227 0.13097602 -0.40141743 -0.005219343 0.048846215 -0.10112528
-0.0835734 0.017351735 0.042933412 -0.13108239 -0.27533627 0.0018308 -0.041045867 0.013498994
-0.19349942 0.11265605 0.006013122 0.43310842 0.16602562 0.18185364 -0.27355587 0.19805379
0.0693754 0.21593647 0.09857051 -0.088090755 0.26497155 0.07229943 0.08860209 -0.081333734
0.23990785 -0.008778592 -0.077250145 -0.21072403 0.014747783 0.011694726 0.018856108 0.28683245

transformer.encoder.layers.0.linear2.bias f4 [32]
00000000: 472c 9d3d 3320 953d 6764 4dbc 7d55 a0bd
00000010: 42c5 863d 77b9 febc a916 56bd b29f 91bc
00000020: 08a1 2a3d 73d8 8cbd 8b9a 8e3d 02fa 053d
00000030: 3e45 493d eca5 d03d 4cfc 013c 9b66 183d
00000040: ae8b 823b 6282 5f3c 67cd 32bd df33 0cbc
00000050: c373 7e3b eac3 3dbd 170e a3bc bd26 e8bd
00000060: 0b9c 2abc 04b1 963d fd4c 23bd 8830 563d
00000070: d94c b43c a171 7d3d 5983 97bd 1c3b 293d
0.07674461 0.07281532 -0.012536145 -0.078288056 0.06580593 -0.031094296 -0.052267704 -0.017776344
0.041657478 -0.06877222 0.069630705 0.03270913 0.0491383 0.10187897 0.007933687 0.037207227
0.0039839363 0.0136419255 -0.04365292 -0.008557289 0.0038826324 -0.046329416 -0.01990418 -0.11335514
-0.01041318 0.07357982 -0.039868344 0.052292377 0.0220093 0.061875943 -0.073980995 0.041316137

transformer.encoder.layers.0.norm1.weight f4 [32]
00000000: d8c6 633f f0dd 823f 5112 863f 262a 793f
00000010: f77a 5c3f 56d1 6e3f b4ec 813f a0b6 803f
00000020: 1c87 8e3f 5803 7b3f afa2 833f 6755 873f
00000030: 2dc0 833f e29e 773f 3b3f 623f 6bea 773f
00000040: d3d5 793f 6e26 833f fb3b 923f 7717 803f
00000050: 77ee 8b3f 7291 813f fa9f 743f 45f4 873f
00000060: ac1d 613f ae7e 7d3f e9e8 823f 4c0a 843f
00000070: 6fa5 733f 0a2c 8e3f 1e97 8f3f 9150 7d3f
0.88975286 1.022398 1.047434 0.9732994 0.8612513 0.9328817 1.0150361 1.0055733
1.1134982 0.9805198 1.0284022 1.0572938 1.0293022 0.9672681 0.8837773 0.9684207
0.97591895 1.0246103 1.1424555 1.0007161 1.0932149 1.0122511 0.95556605 1.062142
0.879359 0.9902142 1.0227329 1.0315642 0.95174307 1.110719 1.1217992 0.9895106

transformer.encoder.layers.0.norm1.bias f4 [32]
00000000: 8f76 b73d a57b 32bc 06fa 9ebd 02ea 103d
00000010: 61e2 c5bd 4e32 1cbe c63b ab3c 644c b93d
00000020: 0b22 a83d 093a a9bd d4d0 d03a d8b4 94bd
00000030: b704 3bbd 8bcc 953d 5ba3 403d 2a9f ab3d
00000040: 5855 943d 6344 8b3d 24f2 d9bd e435 663d
00000050: e215 2f3c 8b21 14be a349 e83c 3b61 36bd
00000060: 6e55 6d3d 749d 05bd 452d 1f3c e6d1 973d
00000070: 7934 f43d dc3f c33d dc7a 2ebd 1084 9cbd
0.0895816 -0.010893737 -0.07762532 0.035379417 -0.09662319 -0.15253565 0.020902526 0.090477735
0.08209618 -0.082630225 0.0015931376 -0.07261056 -0.045658793 0.07314404 0.047030788 0.083799675
0.072428405 0.06800153 -0.10641888 0.056203738 0.01068637 -0.1446592 0.028355425 -0.04452632
0.0579428 -0.032620862 0.009715383 0.07413082 0.11924071 0.095336646 -0.042597637 -0.076423764

transformer.encoder.layers.0.norm2.weight f4 [32]
00000000: 129b 743f 6951 783f 1985 713f 0656 823f
00000010: 243f 643f d6a1 7a3f f9de 823f 30bb 683f
00000020: d103 7c3f 154a 8d3f a7b3 813f 051a 913f
00000030: b9f2 873f 91d9 743f 3269 813f 19a2 853f
00000040: c1d6 803f fe06 823f f530 833f 2bd6 773f
00000050: 7622 843f b0c7 693f edd8 753f c7f2 823f
00000060: ceca 683f 0712 8b3f e62c 843f 0aad 753f
00000070: b40c 823f b130 943f d437 893f db9e 663f
0.9554912 0.9699922 0.94343716 1.0182502 0.89158845 0.9790319 1.0224296 0.90910625
0.98443323 1.1038233 1.013295 1.1336066 1.0620948 0.9564448 1.0110228 1.0440093
1.0065538 1.0158384 1.0249316 0.9681117 1.0323017 0.91320324 0.9603413 1.023034
0.90934455 1.0864877 1.0326202 0.9596716 1.0160127 1.157736 1.0720162 0.90086144

transformer.encoder.layers.0.norm2.bias f4 [32]
00000000: ade3 10bd cc66 cd3c 4247 c7bd 1db4 20bc
00000010: 6ddb 503d b609 a93d 959f 603d 3b11 b03d
00000020: 7184 d93c db2d e93a 27eb bbb9 fab6 4cbc
00000030: 93d2 bcbc 9be3 e93d 10b9 0b3d 98d6 573d
00000040: c5e5 efbc 024a 22bc d2ca 883c 470e b6bd
00000050: 1eff 8bbd 35e8 9f3d 49fb a13c 392e 23bc
00000060: 51e4 52bd 80a7 7cbc f5b1 863d f73e d03d
00000070: b758 d03b 8830 b83c 5a23 50bd 2e10 18bd
-0.03537338 0.025073431 -0.09730388 -0.009808567 0.05099051 0.08253805 0.05483969 0.085970365
0.02655241 0.0017790155 -0.00035842622 -0.012494797 -0.023049628 0.114203654 0.034112036 0.052694887
-0.029284367 -0.00990534 0.016698275 -0.08889442 -0.06835769 0.07807962 0.019773142 -0.009959751
-0.05148727 -0.0154207945 0.06576911 0.101682596 0.006358232 0.022484079 -0.050814964 -0.037124805

transformer.encoder.layers.1.self_attn.in_proj_weight f4 [96, 32]
00000000: 98d0 95bd 6c9b 1dbe 623a ecbc 7162 963e
00000010: 0fc1 c4bd 592d 01be c501 c9bc b19b 9d3e
00000020: 0fe2 163d 2f23 873d 51f6 b43e 8952 51bc
00000030: 820f 9fbe bceb bdbb a1c3 5dbe f846 463d
00000040: e139 523d 7a6e 8dbe 6d91 9d3c 593c c33b
00000050: 6dd2 373e b9e9 80be 6ab3 a5be 5b22 79be
00000060: 7ce4 a6bd 5678 023e e72d a13c d1b0 16be
00000070: 26c1 a5bd bbef 323d edf6 743d 8269 27be
00000080: f8e0 a4bd 82d7 d2be eda8 ddbd 3a74 68bd
00000090: 6020 1e3e efb3 4c3e 8743 1bbe 1ad7 763d
000000a0: 688a b6bd 6745 973e 97ba 4c3e ecd4 f6bd
000000b0: 38e0 1dbe 6c95 a33e 8a33 283e e052 b73d
000000c0: a0e4 85bd e021 5a3d b481 653e 151c 33bd
000000d0: a7d4 f2bd 883e 8c3e aab6 b2be 8025 7c3e
000000e0: feb3 133d 7199 5bbe b39d b23c 521c 343d
000000f0: ef18 05bd f4a1 f7bd e725 6cbd e089 84be
00000100: 0cef 5a3e 60be 833e 06ed 8ebe 916e 0bbe
00000110: 2d0c f6bc abf0 c0be a781 db3d d703 bd3e
00000120: e358 083e fb7d 5dbe 1956 38be 517c 05be
00000130: 4f6b f2bc 151d 5d3c 7fe3 043d 0edb bdbd
00000140: f090 243e 1532 033e 599c 253e ab07 483c
00000150: e2d1 a4bd 298e 97be 301b d4bd ce99 803e
00000160: 516f 3f3e 9161 41bd 05ab 3a3d 7494 1d3e
00000170: 6adb 843e 9793 1bbd 829a b13d 666f c13c
00000180: 18ad 85be 1379 c2bc d38b 593d c706 debd
00000190: c614 11bd 2671 3dbd c95b 64bd bc59 2ebe
000001a0: bab6 583e 915b 0d3e 0781 56bd 633f b1bd
000001b0: cff2 123e 6131 64bd 48b4 6d3e 2e78 d03c
000001c0: 6eaa 7b3e 00a0 0d3e dea5 abbd ba17 063e
000001d0: e382 12be 1f4f 0bbe 4ad9 2a3e da17 1f3e
000001e0: 72d2 5dbe 560b 56be 0fb5 fcbd be57 9e3c
000001f0: bcf1 6f3e a211 93be 87d9 663d 09d3 abbd
00000200: 49a9 2d3e bb5c 21bd 8f0e ab3e b9f1 56be
00000210: 3e61 93bd 1590 e0bd 28ce 043e 54c8 22be
00000220: dbab e43c fb0a 743e c33c ae3e 5aca a33e
00000230: e1ca cf3e 0fee 17bd 325e a23b 2b42 e6bd
00000240: cc1a 213d 250f 673e 7ed0 333e ec5d bb3d
00000250: 5f18 a53d b5c8 873e 7694 433e 3d8b cfbd
00000260: 48d3 6a3e 227e 713d 6e52 2abe f0d5 7f3e
00000270: d34c f53d 4dad 15bc 22e0 33be 2f74 723d
00000280: 9b7e 4c3e a82d 1c3e 8b9c 7cbe 250d 2dbe
00000290: bfb5 653e e888 1e3e c8f4 9dbd d011 b43d
000002a0: 7ac3 b2bb 9255 d83d b5dd bc3d 6fd1 2e3e
000002b0: 6504 b8bc f9eb 663d 8f4c 483d cbf4 c1be
000002c0: 43ad 68bd 9e78 503e 18e4 693d 8844 02bd
000002d0: bfc3 7a3c 8f1d 38be 8a53 01bf 4912 80bb
000002e0: 9f06 213e 3ab1 093e 4555 88be 1e8e c7be
000002f0: 5acc e5bd 972f c23d 506a 723e c61f c9bd
00000300: 7751 3fbe f854 6fbd 7a72 8fbe 4108 8d3e
00000310: c865 f93d b98c 5e3e 5667 63be f3bd 8e3d
00000320: b8fe 803e 9bed 813e 8ace 15bd 692f ce3d
00000330: 9336 2dbe 2be8 21bd d314 41be caec 533e
00000340: 9890 03be 89b0 89bd 673a 8f3e 61da 4d3e
00000350: 3996 3dbe ad0d 73be 45b8 48be d474 9f3e
00000360: 19c3 433e 6cf1 bebd 9955 dd3b 1e1c aabe
00000370: 3c16 2e3d 9ae9 e83d 2e8f b63e b02b fe3d
00000380: c591 8039 a374 72bd 7800 d3bd b2eb bf3d
00000390: b59c 5abe e97e 63be 3a3b b13d 9f0b bd3e
000003a0: c4be b93c d9ad a7bd 89d7 f0bd d2ab d4ba
000003b0: 1c42 49bd 4d90 a93d de42 8a3e 53df 693e
000003c0: 8c2e e9bd 2435 57be 8d10 35bd 4143 c53e
000003d0: 6cad 76be c9e8 09bc 74eb 49be e67e 873e
000003e0: 4460 a4bd 8142 f43d d1e6 9b3d 350a c3bd
000003f0: 71c0 ba3d e9cd 34bc cce7 193e 4399 07be
-0.07315177 -0.1539132 -0.028836433 0.2937198 -0.096071355 -0.12614955 -0.024536977 0.30782846
0.03683668 0.065985076 0.35344175 -0.012776026 -0.3106652 -0.005795924 -0.21656658 0.048407525
0.05132473 -0.2762335 0.019234383 0.0059581217 0.17951365 -0.25178316 -0.32363445 -0.24329512
-0.08149049 0.12741217 0.019675208 -0.14715888 -0.08093481 0.043685656 0.0598058 -0.16348842
-0.08050722 -0.41180044 -0.10823236 -0.056751467 0.15442038 0.19990514 -0.15162478 0.06026373
-0.08913118 0.29545137 0.19993053 -0.120523304 -0.15417564 0.31949937 0.1642591 0.08951354
-0.065377474 0.053254962 0.22412759 -0.043727953 -0.118569665 0.27391458 -0.34904987 0.2462368
0.036060326 -0.21445252 0.021803712 0.04397232 -0.03249448 -0.12091437 -0.057653334 -0.2588644
0.21380252 0.25731182 -0.2791521 -0.13616396 -0.030035103 -0.37683615 0.107180886 0.36916992
0.13315158 -0.21630089 -0.18001594 -0.13035704 -0.029592184 0.013495703 0.03244352 -0.09270297
0.16070914 0.12812074 0.16172923 0.012208859 -0.080478445 -0.29600647 -0.10356748 0.25117344
0.18694808 -0.047212187 0.045573253 0.15388662 0.2594865 -0.03798255 0.08672048 0.02361269
-0.26108623 -0.023739373 0.053111862 -0.108411364 -0.0354202 -0.046250485 -0.055751596 -0.17026418
0.21163455 0.13804461 -0.052369144 -0.08654668 0.14350437 -0.055711154 0.23213303 0.025447931
0.24576733 0.13830566 -0.08381246 0.13094988 -0.14307742 -0.13604401 0.16684452 0.15536442
-0.2166231 -0.20902762 -0.12339222 0.019328948 0.23432058 -0.2872439 0.056359794 -0.08389861
0.16959108 -0.039395075 0.33409545 -0.20990647 -0.07196282 -0.109649815 0.12969267 -0.15896732
0.027913978 0.23832314 0.34030733 0.3199032 0.40584472 -0.037092265 0.0049550766 -0.11243089
0.039332196 0.22564371 0.17560002 0.091487736 0.08061289 0.26520315 0.19099602 -0.101339795
0.2293216 0.05895818 -0.16633007 0.24983954 0.11977544 -0.009135556 -0.17565969 0.059192833
0.19970171 0.15251791 -0.24669091 -0.16899545 0.22432612 0.15481913 -0.07712704 0.0879246
-0.0054554315 0.10563196 0.09221975 0.1707208 -0.022463033 0.056377385 0.048901137 -0.37882075
-0.05680586 0.20358512 0.057102293 -0.031803638 0.015305459 -0.17980026 -0.50518095 -0.0039084298
0.15725182 0.13446513 -0.26627555 -0.38975614 -0.112206176 0.09481733 0.23673368 -0.098205134
-0.1868342 -0.058430642 -0.28017026 0.2754536 0.12177616 0.21733369 -0.22207388 0.06969824
0.25194335 0.2537659 -0.036573924 0.100676365 -0.1691535 -0.039528053 -0.188556 0.20695797
-0.12848127 -0.067231245 0.27974245 0.20102836 -0.18514337 -0.23735686 -0.19601543 0.3114382
0.19117393 -0.09323391 0.006754589 -0.33224577 0.042501673 0.11372681 0.35656112 0.124106765
0.0002452267 -0.059193265 -0.10302824 0.09371127 -0.21348841 -0.22216381 0.08653875 0.3692293
0.022673972 -0.08187456 -0.1175986 -0.0016225523 -0.049135312 0.08279476 0.2700414 0.22839098
-0.11385831 -0.21016365 -0.044205237 0.38527873 -0.24089593 -0.008417317 -0.19718724 0.26464003
-0.08026174 0.11926747 0.07612384 -0.09523431 0.091187365 -0.011035421 0.1502983 -0.13242058
