期末项目/code/Transformer法/transformer_preprossing/models/fine2_best_model_20240613-205851.pth (torch, 400018 bytes, 99 tensors)

embedding.weight f4 [32, 15]
0	0xbedd9b7e	-0.43282694
1	0xbe684ddf	-0.22685955
2	0x3c8319df	0.016003547
3	0x3e122373	0.14271335
4	0x3da737c7	0.081649356
5	0x3ecbc684	0.39799893
6	0x3e2fd961	0.17172767
7	0xbe87b3d0	-0.26504374
8	0x3e3714b0	0.17878985
9	0xbeaa1ebb	-0.3322657
10	0xbdf95589	-0.12174518
11	0xbe4de9d4	-0.2010873
12	0x3c62a34f	0.013832881
13	0x3e8157b8	0.25262237
14	0x3e650603	0.22365575
15	0xbcad9e58	-0.021193668
16	0xbce120e5	-0.027481506
17	0xbde25818	-0.11051959
18	0x3eb41849	0.35174778
19	0xbf31edfc	-0.6950376
20	0x3ea30a0d	0.31843606
21	0x3d9631c8	0.07333714
22	0xbddfd1c8	-0.109286845
23	0xbd8508b3	-0.064958
24	0xbe073a35	-0.13205798
25	0x3d55b7ac	0.052177116
26	0x3e5c7b34	0.21531373
27	0x3e360173	0.1777399
28	0xbd9213e6	-0.071327016
29	0xbcc6faea	-0.024289567
30	0x3f2d8102	0.67774975
31	0xbe25c03d	-0.16186614
32	0xbe76971a	-0.24081078
33	0x3e6a98c5	0.2290984
34	0x3e2291b7	0.15875898
35	0xbec4fcb7	-0.38474056
36	0xbd286024	-0.04110731
37	0xbc7d6044	-0.015464846
38	0xbe1864d5	-0.14882214
39	0x3d574ba8	0.052562386
40	0xbe6e90ed	-0.23297472
41	0xbd1f5665	-0.03890075
42	0x3ba62070	0.005069785
43	0xbe3ddd0a	-0.18541351
44	0x3e94897b	0.2901114
45	0xbf18c03b	-0.5966832
46	0x3d6947e5	0.05695333
47	0x3e2d00a5	0.16894777
48	0x3c7b5bb3	0.015341687
49	0xbd32b7c1	-0.043632273
50	0x3bced574	0.0063120667
51	0xbd2e1791	-0.042502943
52	0x3e30dddb	0.17272131
53	0xbe65b314	-0.22431594
54	0x3c82ab79	0.015950905
55	0xbd15f433	-0.03660984
56	0xbe116e8a	-0.14202324
57	0x3e4598e2	0.19296601
58	0x3e234515	0.15944321
59	0x3e5fb1f2	0.21845224
60	0x3eac60c3	0.33667573
61	0xbe3369f5	-0.17520888
62	0x3d0febad	0.035136867
63	0xbdc1070e	-0.09425174
64	0x3f1ac353	0.6045429
65	0x3f38df43	0.7221567
66	0x3e81f68b	0.2538341
67	0x3cea9776	0.028636675
68	0xbd9ef248	-0.07761055
69	0x3ba98db4	0.005174363
70	0xbde88183	-0.113528274
71	0xbe751cef	-0.23936819
72	0xbe03eeda	-0.12884083
73	0xbcbf99ff	-0.02338886
74	0xbd864c33	-0.065575026
75	0x3f0fa48b	0.5611045
76	0xbdbce7bd	-0.09223888
77	0x3e570043	0.20996194
78	0xbe597711	-0.21236826
79	0x3e388676	0.18020043
80	0x3f33a80d	0.701783
81	0x3e46540c	0.19367999
82	0x3db06c85	0.086144485
83	0xbdcc070f	-0.09962284
84	0xbe3359be	-0.17514703
85	0xbdc30b36	-0.09523623
86	0x3e8ce629	0.27519348
87	0x3e886e01	0.26646426
88	0xbd50e785	-0.051002044
89	0xbda7017a	-0.081545785
90	0x3e088e31	0.13335492
91	0x3dcb703e	0.09933518
92	0x3c3a2351	0.011360959
93	0xbea40f24	-0.320428
94	0x3d116ab1	0.03550214
95	0x3f5bfb18	0.85930014
96	0xbd664e8d	-0.056227256
97	0xbd0af6aa	-0.033926643
98	0x3d9669c0	0.07344389
99	0x3e9f8cd8	0.31162143
100	0x3ce95d2a	0.028486807
101	0xbe6e194b	-0.23251836
102	0xbe4a6764	-0.19766003
103	0xbeb559d4	-0.35420096
104	0xbe6acbe8	-0.22929347
105	0xbf1a0f0c	-0.6017921
106	0x3e3b9a61	0.1832061
107	0x3e692558	0.22768152
108	0xbed46f46	-0.41491145
109	0xbe9d0cd6	-0.30673856
110	0x3f0d3dc0	0.5517235
111	0xbe5b1e63	-0.2139831
112	0x3ec62721	0.38701728
113	0x3e44f172	0.19232729
114	0xbe2c99cd	-0.16855545
115	0xbe5b2542	-0.21400931
116	0x3ea7f6e7	0.3280556
117	0x3dab4ed1	0.083646424
118	0x3d186483	0.03720523
119	0xbdcd6069	-0.100281544
120	0xbf428335	-0.75981456
121	0xbde98bc3	-0.114036106
122	0x3d472d9a	0.048627473
123	0x3c25d926	0.010122573
124	0x3e4d93bb	0.20075886
125	0x3eaa5915	0.3327109
126	0xbe88037d	-0.2656516
127	0xbb7ef349	-0.0038902333
128	0x3e37d542	0.17952445
129	0xbd8cc2b8	-0.06873077
130	0x3e97da22	0.2965861
131	0xbe46a102	-0.19397357
132	0x3d90603e	0.07049607
133	0xbdbc01ff	-0.09180068
134	0x3de25727	0.11051779
135	0x3e901cea	0.2814706
136	0x3cc5be46	0.024138581
137	0xbd1dc113	-0.038514208
138	0x3d2d01b5	0.042237956
139	0x3f20129c	0.62528396
140	0xbee02fa5	-0.4378635
141	0xbd75e585	-0.06003334
142	0x3e00a0a9	0.12561287
143	0xbd101a91	-0.035181586
144	0x3d42780a	0.04747776
145	0x3dab37ad	0.08360229
146	0x3e42f62f	0.19039224
147	0x3de14c6d	0.11000905
148	0x3e5afe33	0.21386032
149	0x3e2cfe99	0.16893996
150	0x3f240a04	0.6407778
151	0x3e500f08	0.20318234
152	0xbd88acfa	-0.06673618
153	0xbe49ce0a	-0.19707504
154	0x3dcce6a5	0.100049295
155	0x3f294f93	0.66137046
156	0xbe40d064	-0.18829495
157	0xbe2145df	-0.1574931
158	0xbe0d8575	-0.13820441
159	0xbe5125c3	-0.20424561
160	0x3e425282	0.18976787
161	0xbd92f6d4	-0.07175985
162	0x3cbfcbfa	0.023412693
163	0xbea5ff93	-0.3242155
164	0x3ebc1a0d	0.36738625
165	0x3e93bd01	0.28855136
166	0xbe4fa144	-0.20276362
167	0xbca83fc0	-0.02053821
168	0x3ed8e47b	0.42361817
169	0x3ec9e20b	0.3943027
170	0xbda39161	-0.07986713
171	0x3e4f3fbf	0.20239161
172	0x3ea0285a	0.31280786
173	0x3e76bde6	0.24095878
174	0xbdf1b316	-0.11801736
175	0x3db7723e	0.08957337
176	0x3e500ff1	0.20318581
177	0x3e6cd744	0.23128992
178	0xbe000db5	-0.12505229
179	0x3ec94fb1	0.39318612
180	0x3efa4419	0.4888008
181	0x3e9f887e	0.31158823
182	0x3e391b64	0.18076855
183	0x3c1f3d39	0.009719186
184	0x3f186db9	0.59542423
185	0xbbdd2c88	-0.0067496933
186	0xbe1c555b	-0.15266936
187	0x3e32a5e8	0.174461
188	0xbe1b9ac6	-0.1519576
189	0xbd0689a3	-0.032846104
190	0xbc606f03	-0.013698342
191	0xbe49f525	-0.19722421
192	0xbb4dd2e4	-0.0031406218
193	0x3e2fbc7b	0.17161743
194	0xbe088d03	-0.13335042
195	0xbf634586	-0.8877796
196	0xbcae9c52	-0.021314774
197	0x3c6f33a0	0.014599711
198	0x3e7ae4c2	0.24501327
199	0x3d9369b1	0.071978934
200	0x3efc6893	0.49298534
201	0xbccdbde2	-0.025114957
202	0x3df53ee6	0.119748875
203	0x3e745700	0.23861313
204	0xbdc14431	-0.094368346
205	0x3ea7996b	0.32734236
206	0x3dbb8c2c	0.09157595
207	0x3da7fa4c	0.08202037
208	0x3e700dc1	0.23442747
209	0x3e1f217e	0.1554012
210	0xbe997874	-0.2997471
211	0x3da8b9c4	0.08238557
212	0xbe35a8a2	-0.1774011
213	0x3e982ee5	0.29723278
214	0x3f8217cd	1.0163513
215	0x3f38a3f0	0.7212515
216	0xbe8252d5	-0.2545382
217	0xbca92fc0	-0.020652652
218	0x3d2105a6	0.039312027
219	0x3e5362a9	0.20643105
220	0x3e133fa6	0.14379749
221	0x3e0a3aa3	0.1349893
222	0xbc9bcac4	-0.019017585
223	0xbaf630ab	-0.0018782815
224	0x3e7258b5	0.23666652
225	0xbed552a4	-0.41664612
226	0x3dcb6e95	0.09933201
227	0xbe559238	-0.2085656
228	0xbe295029	-0.16534485
229	0x3ef0c171	0.47022584
230	0xbe4e8fbb	-0.20172016
231	0x3c6d2642	0.014474453
232	0x3e6b9e8e	0.23009703
233	0x3def8bdc	0.11696598
234	0xbe1c280a	-0.15249649
235	0x3e6db930	0.23215175
236	0x3e8ccf38	0.27501845
237	0x3e5500c4	0.20801073
238	0x3c151070	0.009098157
239	0x3d9875ef	0.07444369
240	0x3e2fa243	0.17151742
241	0x3d9aaf14	0.07552925
242	0x3db74640	0.08948946
243	0xbe8e88bd	-0.27838698
244	0xbe9e69a1	-0.30939963
245	0xbf68b139	-0.9089542
246	0xbc696e07	-0.014247424
247	0xbcdff465	-0.027338216
248	0x3d4c2469	0.04983941
249	0xbd2d782d	-0.042350937
250	0x3ec481c7	0.38380262
251	0x3e623d86	0.22093782
252	0xbe32bd9f	-0.17455147
253	0xbbf92270	-0.007602982
254	0xbe40140f	-0.18757652
255	0x3f2f9ee2	0.6860181

embedding.bias f4 [32]
0	0xbe12e49b	-0.14345019
1	0x3ec9cc70	0.39413786
2	0x3e627092	0.22113255
3	0x3ee7aa38	0.45247054
4	0xbed98103	-0.4248124
5	0x3e4bc6cd	0.19900055
6	0xbe97efed	-0.29675236
7	0x3e1ca084	0.15295607
8	0xbe565709	-0.20931639
9	0xbb88d852	-0.004176178
10	0xbe8b5569	-0.272136
11	0xbafd6035	-0.001933104
12	0x3d1163d0	0.03549558
13	0xbe51b8f2	-0.20480707
14	0xbe40651e	-0.18788573
15	0xbeb2ffb1	-0.34960702
16	0x3ea772d7	0.32704803
17	0xbead58e5	-0.33856884
18	0xbf6381fe	-0.8887023
19	0x3ee768cb	0.45197138
20	0x3ed0cc69	0.40780953
21	0xbd5954ca	-0.053059377
22	0x3ea7d6f8	0.32781196
23	0xbf3205fe	-0.69540393
24	0x3e20cc27	0.15702878
25	0xbdd5faac	-0.104482025
26	0xbf38fe1e	-0.7226275
27	0xbe198619	-0.1499256
28	0x3daea066	0.08526687
29	0x3edc1f70	0.42992735
30	0x3e93beaf	0.28856418
31	0x3d22ecf0	0.039776742

transformer.encoder.layers.0.self_attn.in_proj_weight f4 [96, 32]
0	0x3eac479b	0.3364838
1	0xbdf0ff99	-0.117675014
2	0x3eff237b	0.49831757
3	0x3e213a7f	0.1574497
4	0x3e7b0be4	0.24516255
5	0xbc7f81ac	-0.015594881
6	0xbe0d6b89	-0.13810553
7	0x3d9222c2	0.07135536
8	0xbe2bc0e9	-0.16772808
9	0x3e3dfd1b	0.18553583
10	0x3cc58f91	0.02411631
11	0x3db353f5	0.08756248
12	0x3d1022a4	0.035189286
13	0xbdee150a	-0.11625107
14	0x3e3bfd1a	0.1835827
15	0x3e762622	0.24037984
16	0xbed3569b	-0.41277012
17	0xbe6b2023	-0.22961478
18	0x3e7e0942	0.24808219
19	0x3e263672	0.16231707
20	0xbdccf28f	-0.10007202
21	0x3ee88072	0.45410496
22	0x3df86703	0.12129023
23	0x3e94563e	0.28972048
24	0x3ce95ab4	0.028485633
25	0xbebf234f	-0.37331626
26	0x3d9e32e2	0.07724549
27	0x3c63c69e	0.0139023345
28	0x3cf1e885	0.02952982
29	0x3e27eb74	0.16398412
30	0xbe38ebe0	-0.18058729
31	0x3e4f413e	0.20239732
32	0xbeae74f8	-0.34073615
33	0xbe7b2040	-0.24524021
34	0xbdd4a334	-0.10382691
35	0x3e007eb0	0.12548327
36	0xbe6b6c1f	-0.22990464
37	0xbe8b5692	-0.27214485
38	0x3e2a4f29	0.1663176
39	0xbe97b6aa	-0.2963155
40	0x3e49f146	0.19720945
41	0x3e362f3c	0.17791456
42	0xbe1ddd7b	-0.1541652
43	0x3e77d2f8	0.24201572
44	0x3e5566de	0.20840022
45	0xbdb46b63	-0.08809545
46	0x3df6dce6	0.12053852
47	0xbd32fa33	-0.04369564
48	0x3c273159	0.0102046365
49	0xbe9cee95	-0.30650774
50	0xbd87686c	-0.06611714
51	0x3da69dd3	0.08135571
52	0x3c9b9dd0	0.01899615
53	0x3e0a1714	0.13485366
54	0x3e50b212	0.20380428
55	0xbde148d3	-0.11000218
56	0x3e5d9ccc	0.21641845
57	0x3ead6500	0.3386612
58	0xbe7c2c26	-0.24626216
59	0xbe293afc	-0.16526407
60	0x3e12a723	0.1432157
61	0xbe415991	-0.18881823
62	0xbb98fd55	-0.0046688714
63	0xbd2b3ff4	-0.041809037
64	0x3c4dd126	0.012562072
65	0x3ca05049	0.019569533
66	0x3d39103f	0.04518151
67	0xbe81cf13	-0.25353298
68	0x3e52eb0c	0.20597476
69	0xbe5d04dc	-0.21583885
70	0x3e85575f	0.2604322
71	0xbe402413	-0.18763761
72	0xbd9e052c	-0.0771583
73	0xbe153659	-0.14571513
74	0xbc918b8b	-0.017766735
75	0x3e4a9085	0.19781692
76	0xbd6523b1	-0.05594224
77	0xbe8604f4	-0.26175654
78	0xbe158ff9	-0.14605702
79	0x3d59a0b2	0.053131767
80	0x3eeaf12f	0.45887133
81	0x3d82ab0b	0.0638028
82	0x3e1f7f76	0.15575966
83	0x3e08647a	0.13319579
84	0x3d9ce1bf	0.07660245
85	0xbdb4e0cf	-0.08831941
86	0xbe2acaf6	-0.16678986
87	0xbdc5d527	-0.09659796
88	0x3df52e45	0.11971716
89	0x3dd63d5c	0.10460922
90	0xbd0a0b8a	-0.03370241
91	0xbe7ea915	-0.24869187
92	0xbdc5a531	-0.096506484
93	0x3ded45db	0.115855895
94	0x3ee36d47	0.4441931
95	0xbc9599e8	-0.018261865
96	0x3e25f745	0.16207607
97	0xbd6dbf89	-0.05804399
98	0x3d3d07cb	0.04615001
99	0xbe22f8e5	-0.15915258
100	0x3e7c089f	0.24612664
101	0x3e65a630	0.22426677
102	0xbd0e46fd	-0.03473567
103	0xbe5852b7	-0.21125303
104	0x3cb6f425	0.022333214
105	0x3e690303	0.22755055
106	0x3e5bd6d9	0.21468677
107	0x3ecfe4b8	0.40604186
108	0x3df0cd40	0.11757898
109	0xbd0a32d6	-0.033739887
110	0xbdaa779b	-0.08323594
111	0x3e8844ba	0.26614934
112	0xbe10dab9	-0.14145936
113	0x3d9112a3	0.07083633
114	0x3ef5a213	0.47975215
115	0x3e09cc3d	0.13456817
116	0xbe18074a	-0.1484653
117	0x3e50e73e	0.20400712
118	0xbdac4766	-0.08412056
119	0x3e17d7a5	0.14828356
120	0xbdee3eb6	-0.11633055
121	0xbd23da01	-0.040002827
122	0x3dc021ee	0.093814716
123	0xbe0fc146	-0.14038572
124	0xbe77e265	-0.24207456
125	0xbd9d4a14	-0.07680145
126	0xbde1ddcf	-0.11028635
127	0x3e9f6fc2	0.31139952
128	0x3e6b3454	0.2296918
129	0xbe864556	-0.26224774
130	0x3c86e5ba	0.016466964
131	0xbbae1557	-0.0053126025
132	0x3d22b245	0.039720792
133	0xbed05e57	-0.40696976
134	0xbe2f625e	-0.17127368
135	0xbe960cc0	-0.29306602
136	0x3e28f8a7	0.16501103
137	0x3eafced6	0.3433749
138	0xbebf4734	-0.3735901
139	0x3e7515c1	0.2393408
140	0x3ecd686d	0.40118733
141	0xbdac1cd1	-0.08403934
142	0xbe5f0313	-0.21778516
143	0x3e82cf18	0.25548625
144	0x3e11dac2	0.14243606
145	0xbcf5a8ce	-0.029987719
146	0x3ebd6226	0.36988944
147	0x3e3f7981	0.18698694
148	0xbe2ac207	-0.16675578
149	0xbcd2cd82	-0.02573276
150	0xbe83923f	-0.25697514
151	0xbeac4612	-0.3364721
152	0xbe5beecf	-0.21477817
153	0xbd3e39da	-0.04644189
154	0xbd3d5d76	-0.04623171
155	0xbe0648aa	-0.13113657
156	0xbeb7c36c	-0.35891283
157	0xbddec065	-0.1087654
158	0x3c4bdb71	0.012442456
159	0x3d6787eb	0.056526106
160	0xbe876322	-0.2644282
161	0xbe67cf47	-0.22637664
162	0x3e06f350	0.13178754
163	0xbe35540a	-0.1770784
164	0xbdc3f60a	-0.095684126
165	0xbe878dc6	-0.26475352
166	0xbe208ccf	-0.15678714
167	0xbefbd9e5	-0.49189678
168	0xbd6bd534	-0.057576373
169	0x3e240cd6	0.16020522
170	0xbf0c5cf8	-0.5482936
171	0x3da3d1a1	0.07998968
172	0x3d888ed5	0.06667868
173	0xbeb2e152	-0.3493753
174	0xbe003795	-0.12521203
175	0x3e01b86f	0.12668012
176	0x3e589ac4	0.21152788
177	0xbdf14dfc	-0.117824525
178	0x3e922551	0.28544095
179	0x3ebfaef7	0.37438175
180	0xbed4bf74	-0.41552317
181	0x3e17d5ce	0.14827654
182	0xbd2da474	-0.042393163
183	0xbdcc6ca2	-0.099816576
184	0x3f11b1ca	0.5691191
185	0x3ea78791	0.32720616
186	0xbeaa9e93	-0.33324108
187	0xbe8f2582	-0.27958304
188	0x3ec38c12	0.38192803
189	0xbe176dbb	-0.14787953
190	0xbd2dd937	-0.04244348
191	0xbeac25d9	-0.33622625
192	0x3eab1f92	0.33422524
193	0xbecfcece	-0.40587467
194	0x3e88da8c	0.26729238
195	0xbd61ba32	-0.05510921
196	0xbd4065f4	-0.04697223
197	0xbc583da8	-0.013198294
198	0xbef07945	-0.4696752
199	0xbe7d8b6f	-0.24760221
200	0x3d836963	0.06416585
201	0x3e85ec48	0.2615683
202	0xbe9c6343	-0.3054448
203	0x3e38bf9d	0.18041845
204	0x3e1241f5	0.14282973
205	0xbec00a92	-0.37508065
206	0x3d0ddf5b	0.034636836
207	0x3e3cbe13	0.18431883
208	0xbe91c366	-0.2846939
209	0xbd84c7b3	-0.06483402
210	0x3dfa6551	0.12226356
211	0x3e6ba15a	0.2301077
212	0xbe9589da	-0.29206735
213	0x3ea581e9	0.32325676
214	0x3e09dd56	0.13463339
215	0x3e0b6c15	0.13615449
216	0xbe203e55	-0.15648778
217	0xbca67ac2	-0.020322207
218	0x3ddccc81	0.107811935
219	0xbdbcca04	-0.09218219
220	0x3e4d1dff	0.20030974
221	0x3dabaaed	0.08382211
222	0xbe1acc60	-0.15117025
223	0xbd2d5629	-0.042318497
224	0x3e910af5	0.28328672
225	0xbda809d2	-0.08204998
226	0x3dce0c6a	0.100609615
227	0xbd382883	-0.04496051
228	0x3dc757bf	0.09733533
229	0x3e0007ec	0.12503022
230	0xbdff679c	-0.12470934
231	0xbd30a135	-0.04312249
232	0xbe173dd3	-0.14769678
233	0xbc4acf58	-0.012378536
234	0xbdb6b820	-0.08921838
235	0x3e291c83	0.16514783
236	0xbdb39c30	-0.08770025
237	0xbd00c1f9	-0.031434987
238	0xbe4a87e0	-0.19778395
239	0x3e46f66e	0.19429943
240	0xbe9fa8a7	-0.3118336
241	0x3e4bbb0d	0.19895573
242	0x3eeade81	0.45872882
243	0x3ead071b	0.33794484
244	0xbdeeed0e	-0.11666308
245	0x3e93b8a3	0.28851804
246	0xbe5c16fe	-0.21493146
247	0x3d535f90	0.051604807
248	0x3d41d8be	0.047325842
249	0x3d290eb9	0.041273806
250	0xbd6d9afe	-0.05800914
251	0xbd1ec43c	-0.038761362
252	0xbe5c1b98	-0.21494901
253	0xbd71bf9e	-0.05902063
254	0xbe297e70	-0.16552138
255	0x3ede605c	0.4343289

transformer.encoder.layers.0.self_attn.in_proj_bias f4 [96]
0	0xbdd72904	-0.1050587
1	0x3e693a5d	0.2277617
2	0x3dd05714	0.10172859
3	0xbe893cb2	-0.2680412
4	0x3d968ca5	0.073510446
5	0x3e682f63	0.22674327
6	0xbccd557b	-0.025065174
7	0xbe4b3fc5	-0.19848545
8	0x3ea3c323	0.31984815
9	0xbe21255b	-0.15736906
10	0xbe89542a	-0.26822025
11	0xbe47ea90	-0.19523072
12	0x3f1b0859	0.6055961
13	0x3e13a04e	0.1441662
14	0xbebd1347	-0.3692877
15	0x3f1e0d08	0.61738634
16	0xbd199ac7	-0.037501123
17	0xbe6b3564	-0.22969586
18	0x3d2bdf88	0.041961223
19	0xbdcf63d5	-0.10126463
20	0xbe47bf5a	-0.19506589
21	0x3be94895	0.007119248
22	0x3e4162fe	0.18885419
23	0xbe0345fd	-0.12819667
24	0x3e05920e	0.13043997
25	0xbe37ad91	-0.17937304
26	0xbe0a2ec8	-0.13494408
27	0xbd84d60c	-0.06486139
28	0xbe0d6f6d	-0.13812037
29	0x3d8848bc	0.06654498
30	0xbcc41a95	-0.023938457
31	0xbded4add	-0.11586545
32	0xba138f81	-0.0005628989
33	0xb98fe56e	-0.00027446024
34	0x3897f3a1	7.2456205e-05
35	0xb9e59eae	-0.0004379651
36	0xba3175e2	-0.000676958
37	0xba90a777	-0.0011036237
38	0xba4bec24	-0.0007779023
39	0xb9256dea	-0.00015776572
40	0xb9a5806d	-0.00031566937
41	0xbadf36b5	-0.0017029854
42	0x3a60002c	0.00085449475
43	0xbbe42531	-0.0069624414
44	0x3a5fdd1e	0.0008539724
45	0xb8018c05	-3.08864e-05
46	0xba47dc78	-0.00076241
47	0x3abb4111	0.0014286359
48	0xba33b97b	-0.0006855947
49	0xba68f7b9	-0.0008887011
50	0x3845bb7e	4.7143076e-05
51	0x38dd63c2	0.000105566825
52	0xb9c2f4e7	-0.0003718503
53	0xb98863d7	-0.00026014328
54	0x391f3642	0.00015183634
55	0xb90fd9b3	-0.00013718642
56	0xb9beca51	-0.00036390361
57	0xb889a7a7	-6.563897e-05
58	0xb8722408	-5.7730853e-05
59	0x372a5b34	1.01540245e-05
60	0x386a980d	5.5931556e-05
61	0xb9457a85	-0.00018833026
62	0xb8d1b866	-0.000100002435
63	0x39a12a0a	0.00030739635
64	0xbe6eca2c	-0.2331931
65	0x3d222ec4	0.03959538
66	0x3d816ed4	0.06319967
67	0x3def086c	0.11671528
68	0xbd1675ba	-0.036733367
69	0xbe5c2d83	-0.21501736
70	0x3e6c4528	0.23073256
71	0x3e8ec31a	0.27883226
72	0x3ea8784d	0.32904282
73	0xbe9b09ca	-0.30280906
74	0xbe520c5c	-0.20512527
75	0xbeb0ddb1	-0.34544137
76	0xbc170e08	-0.009219654
77	0xbde4ca78	-0.1117143
78	0x3e4de923	0.20108466
79	0x3ee12572	0.4397388
80	0xbcca8863	-0.024723237
81	0x3da6fb92	0.08153452
82	0x3df44edf	0.11929106
83	0x3e13eb4d	0.14445229
84	0xbd81cf2d	-0.06338344
85	0xbd87d443	-0.066322826
86	0x3da5add6	0.08089797
87	0xbcc5982c	-0.024120413
88	0xbe6c19fa	-0.23056784
89	0x3d4c1cf6	0.049832307
90	0x3e2a5dd6	0.16637358
91	0xbd9e8f05	-0.077421226
92	0x3da8db69	0.08244974
93	0x3e375cd9	0.17906512
94	0xbdbc8c3f	-0.09206437
95	0x3d4d0d91	0.050061766

transformer.encoder.layers.0.self_attn.out_proj.weight f4 [32, 32]
0	0xbe8b2544	-0.2717687
1	0x3e42816f	0.18994687
2	0xbd36d8f7	-0.044640508
3	0xbd60dce8	-0.054898173
4	0x3e465d9c	0.19371647
5	0xbe14745a	-0.1449751
6	0x3ca44b4c	0.020055436
7	0x3e19c6ec	0.15017289
8	0xbe6908bf	-0.22757243
9	0xbd231c51	-0.039821927
10	0x3d44c626	0.04804053
11	0x3d9dc4a5	0.077035226
12	0x3ec0d02a	0.37658817
13	0xbe36e5b5	-0.17861064
14	0xbe6034d1	-0.21895148
15	0x3e29a526	0.16566905
16	0x3e2ddd6b	0.16978996
17	0x3dda7be2	0.1066816
18	0x3e6ebd98	0.23314512
19	0xbd0468f3	-0.03232665
20	0x3c82fb18	0.015988871
21	0xbd85a24a	-0.06525095
22	0xbd78e090	-0.060761034
23	0x3d1b6811	0.037941042
24	0xbeabe72d	-0.3357481
25	0xbe31ae98	-0.17351758
26	0x3c8c14cf	0.017099766
27	0x3d409488	0.04701665
28	0x3e180c18	0.14848363
29	0x3e8f967b	0.28044495
30	0x3e1fcb81	0.15604974
31	0xbe4d29db	-0.20035498
32	0x3db37c7e	0.087639794
33	0x3de92d23	0.11385562
34	0x3d1cf12a	0.03831593
35	0x3dd8c83d	0.105850674
36	0xbd2cbf9d	-0.042174924
37	0xbe048632	-0.12941816
38	0xbe57ab9c	-0.21061558
39	0xbd250e54	-0.040296867
40	0xbe65af87	-0.2243024
41	0x3de1a662	0.11018063
42	0x3e74dec1	0.23913099
43	0xbe358e40	-0.17730045
44	0xbd800055	-0.06250063
45	0xbe1b6fa3	-0.15179305
46	0x3e3e14bd	0.18562599
47	0x3e470c5a	0.19438305
48	0xbe4a1756	-0.19735464
49	0x3d7b1765	0.061301608
50	0xbe2ddbc1	-0.1697836
51	0xbdc7aed9	-0.097501464
52	0x3e8b5e5b	0.27220425
53	0x3d3febd6	0.04685577
54	0xbeacfdd7	-0.33787414
55	0xbdd99dfa	-0.10625835
56	0xbd4244b9	-0.04742882
57	0x3daf32f4	0.085546404
58	0x3e31da12	0.17368343
59	0xbd8f5703	-0.06999018
60	0x3e10c24d	0.1413662
61	0x3e260402	0.16212466
62	0xbe1ead8c	-0.1549589
63	0xbe6d76b5	-0.23189814
64	0x3e305e03	0.17223363
65	0xbe6f11c4	-0.23346621
66	0xbd9564cd	-0.07294617
67	0xbe09ae99	-0.1344551
68	0x3cd92afa	0.02650975
69	0x3e9dee0d	0.3084568
70	0x3d98c654	0.07459703
71	0x3dfc00ea	0.12304862
72	0x3e199e29	0.1500174
73	0x3e7b231d	0.24525113
74	0xbda0f848	-0.07859856
75	0xbda50066	-0.080567166
76	0x3e31588a	0.17318931
77	0xbe6c396b	-0.23068778
78	0x3e89c49f	0.26907822
79	0x3e8b96a5	0.2726337
80	0x3e17215c	0.1475882
81	0xbcf4b3ff	-0.029870985
82	0xbe886341	-0.26638225
83	0xb9a3963e	-0.00031201722
84	0x3e3d65a4	0.18495804
85	0xbdfa65d3	-0.12226453
86	0xbdaad887	-0.083420806
87	0x3e246b1a	0.16056481
88	0x3e391b2c	0.18076771
89	0x3e27d9a2	0.16391614
90	0xbe243486	-0.16035661
91	0x3e0ba2e7	0.13636361
92	0x3b5128df	0.003191523
93	0x3dbadfed	0.09124742
94	0xbdc07f88	-0.09399325
95	0xbd6d8441	-0.057987455
96	0xbc9b8579	-0.018984543
97	0x3d04ad66	0.032391928
98	0xbc532228	-0.012886561
99	0x3e5ee3b5	0.21766551
100	0xbd2e8ce1	-0.04261482
101	0x3e004988	0.1252805
102	0xbeaafdaf	-0.3339667
103	0xbe16c82b	-0.14724796
104	0x3cec0712	0.028811965
105	0x3e5b6e70	0.21428847
106	0xbea09d96	-0.3137023
107	0x3dfb60d6	0.12274329
108	0x3eb20d79	0.34775904
109	0xbda9301d	-0.0826113
110	0x3d0a77d1	0.033805672
111	0xbd1f7ab0	-0.038935363
112	0x3e037fea	0.12841764
113	0x3e8c40e2	0.27393252
114	0x3ca77998	0.020443723
115	0x3dcc8b37	0.099874906
116	0x3e168d65	0.14702375
117	0xbd875e62	-0.06609799
118	0xbe2ea414	-0.17054778
119	0xbb05979c	-0.0020384556
120	0xbea0186b	-0.3126863
121	0x3e7c4152	0.24634293
122	0xbd0e618c	-0.034760997
123	0xbe1b34db	-0.15156882
124	0x3e43c469	0.19117893
125	0x3e621228	0.22077239
126	0x3e0260f7	0.12732302
127	0xbde5ecc6	-0.112268016
128	0x3ebe48f2	0.37165028
129	0xbdde1bfe	-0.10845183
130	0xbe093434	-0.1339882
131	0x3d72d7ae	0.05928772
132	0x3dd62b3d	0.10457466
133	0x3e3179f1	0.17331673
134	0xbe948ffd	-0.29016104
135	0x3e0278b8	0.12741363
136	0x3e86b68a	0.2631114
137	0xbe1a63df	-0.1507716
138	0x3e1b7f52	0.15185288
139	0x3e8d6809	0.27618435
140	0x3c3d3bb5	0.01154988
141	0x3db9dbef	0.09075152
142	0x3e05f212	0.13080624
143	0x3ed4407f	0.41455457
144	0xbdc37cdb	-0.09545299
145	0x3d193a3e	0.03740906
146	0xbe95140d	-0.2911686
147	0x3c60e20f	0.013725772
148	0xbdfaa652	-0.12238754
149	0xbe2676fe	-0.1625633
150	0x3d9e0817	0.07716387
151	0x3da75c45	0.08171896
152	0xbd721de1	-0.059110526
153	0xbe178ac1	-0.14799024
154	0xbd5e9fbf	-0.054351564
155	0x3e29f7f8	0.16598499
156	0xbe927368	-0.28603673
157	0xbe969dc3	-0.29417238
158	0x3e4954c4	0.19661242
159	0xbe6bdd19	-0.23033561
160	0xbd8fd439	-0.070229
161	0x3e318eef	0.17339681
162	0x3e10b332	0.14130858
163	0xbd9427b4	-0.07234135
164	0x3d2efe3f	0.042722937
165	0x3e49bb54	0.19700366
166	0xbe37d9ea	-0.17954221
167	0x3e736a1c	0.23770946
168	0x3d55f0c6	0.052231573
169	0xbebd5a0a	-0.36982757
170	0xbe795d11	-0.24351908
171	0x3e09d1f4	0.13458997
172	0xbe858302	-0.26076514
173	0x3cb0e0c1	0.021591546
174	0xbdba8c2c	-0.09108767
175	0xbe001d06	-0.12511072
176	0x3d82d6c1	0.06388617
177	0xbe15e5fe	-0.14638516
178	0xbe93445f	-0.287631
179	0x3d6cea0f	0.057840403
180	0xbe46ccc1	-0.19414045
181	0x3df1291a	0.117754176
182	0x3d8dad31	0.06917799
183	0x3d497422	0.04918302
184	0xbe35801c	-0.17724651
185	0xbe27b0ab	-0.16375987
186	0xbce33603	-0.027735716
187	0xbe7cfc64	-0.24705654
188	0x3e049bb4	0.12950021
189	0x3e54da9a	0.20786515
190	0xbe367b5a	-0.17820492
191	0x3e0b8a06	0.1362687
192	0x3e5446fe	0.20730206
193	0xbda717aa	-0.081588104
194	0x3de2a265	0.110661305
195	0xbe09158d	-0.13387127
196	0xbe240fab	-0.16021602
197	0xbe6be06d	-0.2303483
198	0x3cd54b64	0.026036926
199	0xbdaca697	-0.08430212
200	0xbdb69c84	-0.08916572
201	0xbe5c7443	-0.21528725
202	0x3e196bfb	0.14982598
203	0x3eaba96c	0.33527696
204	0xbd92bcb7	-0.07164901
205	0xbe7f689f	-0.24942254
206	0xbeb21f90	-0.34789705
207	0x3e58c8e3	0.21170382
208	0x3e36396c	0.17795342
209	0x3e622029	0.2208258
210	0xbe6991f9	-0.2280959
211	0xbd8601c6	-0.06543307
212	0x3e890e86	0.26768893
213	0xbc601855	-0.013677676
214	0xbd165477	-0.036701646
215	0xbd9398f2	-0.072069064
216	0xbc812581	-0.015764954
217	0xbd259cbe	-0.040432684
218	0xbd918e40	-0.0710721
219	0xbe96da82	-0.29463583
220	0xbe53610c	-0.20642489
221	0x3bc018f0	0.005862348
222	0xbe99c584	-0.30033505
223	0xbd22b20e	-0.039720587
224	0xbe7f65e3	-0.2494121
225	0x3d4c8032	0.049926944
226	0xbdd2f679	-0.10300917
227	0xbc0c0094	-0.00854506
228	0xbe057bc0	-0.13035488
229	0xbe43d520	-0.1912427
230	0x3e05c91b	0.13064997
231	0xbd6555f1	-0.055990163
232	0xbe853903	-0.2602006
233	0xbc11ef02	-0.008907082
234	0x3e3bd8b1	0.1834438
235	0x3e1e8e32	0.1548393
236	0xbe9e4262	-0.3091002
237	0x3d085a1b	0.033289056
238	0x3d9116bc	0.07084414
239	0xbcfd8f89	-0.030952232
240	0xbda0881f	-0.07838463
241	0x3df7a8d0	0.12092745
242	0xbd3093a2	-0.043109544
243	0xbd92308f	-0.07138168
244	0x3db3dd7c	0.08782479
245	0xbe0cdfab	-0.13757198
246	0xbe5f92f8	-0.21833408
247	0x3e19649c	0.14979786
248	0x3e890fd5	0.2676989
249	0x3ca6bf75	0.020354966
250	0xbccdb28d	-0.025109554
251	0x3e44db9e	0.19224402
252	0xbe9f9119	-0.31165388
253	0x3df98dfe	0.12185286
254	0xbe17a882	-0.14810374
255	0x3dbdff21	0.092771776

transformer.encoder.layers.0.self_attn.out_proj.bias f4 [32]
0	0x3e2723fc	0.1632232
1	0x3ec38700	0.38188934
2	0x3e836cfd	0.2566909
3	0x3e5efef1	0.2177694
4	0xbea10b49	-0.31453922
5	0xbe2eedb7	-0.17082869
6	0xbe9b4455	-0.3032557
7	0x3e8c68f5	0.27423826
8	0xbdeb3e9e	-0.11486553
9	0xbec8fc6e	-0.3925509
10	0xbce547a9	-0.027988272
11	0xbd348cfe	-0.044079773
12	0x3e842705	0.2581102
13	0xbde372ba	-0.11105867
14	0xbe845547	-0.2584631
15	0xbe4782dc	-0.19483513
16	0x3ecb7834	0.39740145
17	0xbe3cc9a1	-0.1843629
18	0xbf0274a5	-0.50959235
19	0x3e9b8d2a	0.30381137
20	0x3e985858	0.297549
21	0xbec648e5	-0.3872749
22	0x3eb86a82	0.3601876
23	0xbef064de	-0.46951956
24	0xbdd039be	-0.101672634
25	0x3e09ad8f	0.13445114
26	0xbed3a03f	-0.41333196
27	0xbdd108af	-0.102067344
28	0x3e5e23f1	0.21693398
29	0x3ec43031	0.38318017
30	0x3daeec51	0.085411675
31	0x3e0ee827	0.13955747

transformer.encoder.layers.0.linear1.weight f4 [128, 32]
0	0x3d886c18	0.06661242
1	0x3df09f31	0.11749113
2	0x3e22ae8f	0.15886901
3	0x3e33f489	0.17573752
4	0xbcf669d8	-0.030079767
5	0xbdfd325d	-0.12363122
6	0xbde40644	-0.111340076
7	0x3d858836	0.06520121
8	0x3dc0f190	0.094210744
9	0xb7ebc5b8	-2.8106253e-05
10	0x3d050b17	0.03248128
11	0xbd2a69b0	-0.041604698
12	0xbdaf84e5	-0.085702695
13	0x3dbad11e	0.09121917
14	0x3db87234	0.090061575
15	0x3dac151a	0.08402462
16	0x3d88f8ba	0.06688066
17	0x3e112b65	0.1417671
18	0x3dda0300	0.106451035
19	0xbe5861ae	-0.21131012
20	0x3e4de494	0.20106727
21	0x3e52cd0e	0.20586035
22	0xba0fae77	-0.00054810144
23	0x3e2fbabd	0.17161079
24	0xbe7af7dd	-0.24508615
25	0x3d804fb0	0.06265199
26	0x3ddc5280	0.10757923
27	0x3d6b61d1	0.057466332
28	0xbeafa1d8	-0.34303164
29	0x3c38fc4f	0.011290624
30	0xbd77dba4	-0.0605122
31	0x3e4068ab	0.18789928
32	0xbe6837c2	-0.2267752
33	0x3d0305dc	0.03198801
34	0xbb7e8466	-0.003883624
35	0xbda82e26	-0.08211927
36	0x3e793f1e	0.24340484
37	0xbe585164	-0.21124798
38	0x3eda244e	0.42605823
39	0xbeb20414	-0.34768736
40	0x3e4d4267	0.20044862
41	0xbddb3b93	-0.10704722
42	0xbde4c96b	-0.1117123
43	0xbe4685bb	-0.19386952
44	0x3bf19124	0.0073720384
45	0x3a24cbc0	0.00062864646
46	0xbe7325b6	-0.23744854
47	0xbdda5101	-0.106599815
48	0xbe56d54d	-0.20979805
49	0x3e772ae0	0.2413745
50	0x3ec5bbc9	0.3861983
51	0x3d7059db	0.058679443
52	0xbdee3bfd	-0.116325356
53	0xbe1e73f5	-0.15473922
54	0x3e2c63ad	0.16834898
55	0xbccfb619	-0.025355386
56	0x3e049626	0.12947902
57	0xbd4d1ce8	-0.050076395
58	0x3dc0a9e4	0.09407404
59	0xbc585800	-0.013204575
60	0xbe81718d	-0.25281945
61	0x3d80437c	0.062628716
62	0x3d50f9ef	0.051019605
63	0xbe4530c8	-0.1925689
64	0xbd8c4c35	-0.06850473
65	0xbd839e7b	-0.06426712
66	0x3d88c7ff	0.06678771
67	0x3e19ef3b	0.15032665
68	0x3e7a6be9	0.24455227
69	0x3da5af42	0.080900684
70	0xbd4e3cbe	-0.050350897
71	0x3e72d452	0.23713806
72	0x3e083345	0.13300808
73	0x3e1e5db7	0.15465437
74	0xbdc1c54a	-0.09461458
75	0xbb5e62ff	-0.0033933518
76	0x3dc76bc3	0.09737351
77	0xbb190205	-0.002334715
78	0x3de9ecab	0.11422094
79	0xbe168746	-0.1470004
80	0xbe1d71cc	-0.15375441
81	0xbe6d5b01	-0.23179246
82	0x3e91ef59	0.2850292
83	0xbe0b30fc	-0.13592905
84	0x3ddfdfe4	0.109313756
85	0x3e0c38d1	0.13693549
86	0xbe902e39	-0.28160265
87	0x3dd08d88	0.10183245
88	0x3e16fdaf	0.1474521
89	0xbccdc0e3	-0.02511639
90	0x3e2446c5	0.16042621
91	0x3e1ad1a6	0.15119037
92	0xbd93c775	-0.07215778
93	0xbd93332b	-0.07187494
94	0x3df30c8e	0.11867629
95	0xbd653861	-0.05596197
96	0x3df007e8	0.11720258
97	0xbe635e9c	-0.2220406
98	0x3e1c47c9	0.15261759
99	0xbd3206fa	-0.043463685
100	0xbe90416b	-0.2817491
101	0x3e188f69	0.14898457
102	0xbe34e09d	-0.17663808
103	0x3c060871	0.0081807235
104	0xbe2bc4c1	-0.16774274
105	0x3e6162c0	0.22010326
106	0x3e14a78d	0.1451704
107	0x3d61266e	0.05496829
108	0xbd9686e2	-0.073499456
109	0xbe29d37d	-0.16584583
110	0xbd8f300c	-0.06991586
111	0x3de0356b	0.10947689
112	0x3e3c12b9	0.18366517
113	0x3db0d466	0.08634262
114	0xbe4bbc02	-0.19895938
115	0x3d89a064	0.06720045
116	0x3e4f460a	0.20241562
117	0xbab61399	-0.0013891339
118	0x3e390966	0.18069991
119	0xbd8d12b9	-0.06888337
120	0xbe027d87	-0.12743197
121	0xbda6acf1	-0.08138455
122	0x3dc2fc2d	0.09520755
123	0x3d76daba	0.060267188
124	0x3da72583	0.08161452
125	0xbe433f8e	-0.19067213
126	0xbd233129	-0.039841805
127	0xbdccc26d	-0.09998021
128	0xbea5715f	-0.32313058
129	0xbe2b046b	-0.16700904
130	0xbe2f3900	-0.17111588
131	0xbcd8b3cd	-0.026452923
132	0xbe00b3d4	-0.12568599
133	0x3eb23bd4	0.3481127
134	0x3e9d65ca	0.3074172
135	0xbe0d33c5	-0.1378928
136	0xbe53a4d6	-0.20668349
137	0xbd69e03b	-0.05709861
138	0xbdf2ac48	-0.11849266
139	0xbcbbca74	-0.022923686
140	0xbe3d9856	-0.18515143
141	0x3cab468f	0.020907668
142	0x3bd972a3	0.00663598
143	0x3e22eae0	0.1590991
144	0x3d952351	0.07282127
145	0x3eb48c33	0.35263214
146	0x3eb14212	0.3462072
147	0xbceb5b88	-0.028730169
148	0xbdf3507c	-0.118805856
149	0x3d57e169	0.052705202
150	0xbd01d351	-0.031695668
151	0x3eada5a8	0.33915448
152	0x3e225a71	0.15854813
153	0xbeacf9d2	-0.33784348
154	0x3e8a3c05	0.26998916
155	0x3de268a0	0.11055112
156	0x3d5519fd	0.052026737
157	0xbca0f366	-0.019647311
158	0xbe1da4cc	-0.15394896
159	0x3daadc33	0.08342781
160	0x3b7d1c0b	0.0038621451
161	0xbedae858	-0.4275539
162	0xbe4f8758	-0.20266473
163	0xbdd00331	-0.10156859
164	0xbd43fd4e	-0.047848992
165	0x3de6034c	0.112310976
166	0x3e998c96	0.2999007
167	0xbd3c0d6d	-0.04591124
168	0xbd4aa481	-0.04947329
169	0xbdbad783	-0.09123137
170	0x3e8283de	0.25491232
171	0xbc851bd3	-0.01624862
172	0xbe97a771	-0.29619935
173	0x3c4c90ba	0.012485677
174	0x3e911aba	0.28340703
175	0x3e8165b9	0.2527292
176	0x3d88ec38	0.0668568
177	0x3ec58456	0.38577527
178	0x3e0a4c0c	0.13505572
179	0xbd5cdf78	-0.053924054
180	0xbe844af2	-0.2583843
181	0xbc352e37	-0.011058382
182	0xbe134309	-0.1438104
183	0x3f06f3e0	0.52715874
184	0xbe804e59	-0.25059775
185	0xbd708e00	-0.05872917
186	0x3eb94d01	0.36191562
187	0x3e0aefcc	0.13568038
188	0x3df3e66a	0.11909182
189	0xbc6dcb35	-0.01451378
190	0xbe9f62a1	-0.31129935
191	0xbdd7baf6	-0.10533707
192	0xbe4458d1	-0.19174506
193	0x3d1840d5	0.037171204
194	0x3ebad89c	0.36493385
195	0xbc330798	-0.010927103
196	0x3d617393	0.05504186
197	0x3e2ab2b9	0.1666974
198	0x3d9485ca	0.07252081
199	0xbe415a98	-0.18882215
200	0x3c0096e7	0.007848478
201	0xbd2c4e0b	-0.042066615
202	0x3e1d698e	0.15372297
203	0xbe0d8ad4	-0.1382249
204	0x3d1547dc	0.036445484
205	0xbdc0ff13	-0.094236515
206	0xbdb8be50	-0.09020674
207	0x3d2f96b3	0.042868327
208	0xbe8bcc4e	-0.2730431
209	0xbda7781a	-0.081772044
210	0xbe031d4f	-0.12804149
211	0xbe005404	-0.1253205
212	0x3e5b2bb1	0.21403386
213	0x3f0bc041	0.5459023
214	0x3e36d74d	0.17855568
215	0x3e1d7f90	0.15380692
216	0xbe1e32c9	-0.1544906
217	0xbd0a4c50	-0.033764184
218	0xbe1f6f53	-0.1556981
219	0x3e492b2d	0.19645377
220	0xbea541da	-0.32276803
221	0xbd24d58b	-0.040242713
222	0x3c9a3940	0.018826127
223	0x3ddef4a4	0.10886505
224	0xbd463a2a	-0.048395313
225	0xbedc7956	-0.43061322
226	0x3ca0f22b	0.019646725
227	0xbccc12b5	-0.024911264
228	0xbd3ca1f3	-0.046052884
229	0xbe0536cb	-0.13009183
230	0x3cc94da7	0.02457316
231	0xbeadd67b	-0.33952698
232	0xbe463b74	-0.19358617
233	0x3e612533	0.21986847
234	0xbe13ec26	-0.14445552
235	0x3e2bfd8d	0.1679594
236	0x3defc24c	0.11706981
237	0xbe8e0706	-0.27739733
238	0x3d078955	0.033089954
239	0x3df2e762	0.11860539
240	0xbdfeaac8	-0.12434918
241	0x3d7c0e68	0.061537176
242	0x3de370a4	0.11105469
243	0x3e79d310	0.2439692
244	0xbe26d102	-0.16290668
245	0x3e909b52	0.282435
246	0x3dd2534a	0.102697924
247	0x3e6eed8d	0.23332806
248	0xbd8732d2	-0.0660149
249	0x3d144320	0.036196828
250	0x3ed3097c	0.41218174
251	0xbc803399	-0.015649604
252	0x3da7b46c	0.081887096
253	0xbd86a0df	-0.065736525
254	0xbc063093	-0.008190292
255	0x3e829afe	0.25508875

transformer.encoder.layers.0.linear1.bias f4 [128]
0	0xbe1cf215	-0.15326722
1	0xbc8e4b49	-0.017369883
2	0xbdcc9bf0	-0.0999068
3	0xbd754c66	-0.059887312
4	0x3d9cf96a	0.076647595
5	0xbe2ab511	-0.16670634
6	0xbe23e9c6	-0.16007146
7	0x3d43d124	0.047806874
8	0xbdef09d9	-0.116718
9	0xbe3829a6	-0.17984638
10	0xbdae8304	-0.08521083
11	0xbc93374f	-0.01797071
12	0xbe754fdf	-0.2395625
13	0x3cb613b9	0.022226201
14	0xbe303dee	-0.17211124
15	0xbea0485a	-0.313052
16	0xbe003323	-0.12519507
17	0xbd0f1a4b	-0.034937184
18	0xbe53f1b2	-0.20697668
19	0x3dc2dd61	0.09514881
20	0xbe2639b7	-0.16232954
21	0x3cf09f57	0.029372854
22	0xbea8b3c8	-0.32949662
23	0xbe830600	-0.25590515
24	0xbcf87458	-0.030328915
25	0x3ca381f4	0.019959427
26	0xbe34d9e9	-0.17661251
27	0xbdbd2294	-0.09235111
28	0xbda132bb	-0.07871004
29	0xbe332efd	-0.17498393
30	0xbda406ef	-0.08009135
31	0xbe62df74	-0.22155553
32	0xbe73f8d7	-0.23825394
33	0xbe08a1ea	-0.13343015
34	0xbd9496fa	-0.07255359
35	0xbdded684	-0.10880759
36	0x3d8d73b2	0.06906833
37	0xbdf2fa57	-0.11864155
38	0xbd8522e8	-0.065007985
39	0x3d834278	0.06409162
40	0xbd3d8d1c	-0.04627715
41	0x3d02ad00	0.031903267
42	0xbd854c85	-0.065087356
43	0x3dbd03ad	0.09229217
44	0xbdc78247	-0.09741645
45	0xbd81c95d	-0.06337235
46	0xbd6aceba	-0.057326056
47	0xbe57103d	-0.21002288
48	0xbd6d52cc	-0.05794029
49	0xbda3c092	-0.07995714
50	0xbdda88b6	-0.10670607
51	0xbe8132c0	-0.25234032
52	0xbe5c2333	-0.21497802
53	0xbdd505b0	-0.104014754
54	0xbe6e6bee	-0.2328336
55	0xbdc957ac	-0.09831175
56	0xbe00b6eb	-0.12569778
57	0xbe7d26ea	-0.24721876
58	0xbe1ff625	-0.1562124
59	0xbe155b19	-0.14585532
60	0xbe223180	-0.15839195
61	0x3bd4a52e	0.0064894175
62	0xbe3bfb6f	-0.18357633
63	0xbc9a2faa	-0.018821556
64	0xbe03c866	-0.12869415
65	0x3d42f6b8	0.04759857
66	0xbe8a1e86	-0.26976413
67	0x3d8ad702	0.06779291
68	0xbcb66609	-0.022265451
69	0xbe879947	-0.2648413
70	0xbdd24a9c	-0.10268137
71	0xbdbc6627	-0.091991715
72	0xbe03cfa2	-0.12872174
73	0xbe8f9299	-0.28041533
74	0xbe57586d	-0.21029826
75	0xbe988c32	-0.2979446
76	0xbd2ef353	-0.04271252
77	0x3daca08c	0.084290594
78	0xbe028ce8	-0.12749064
79	0xbc43721a	-0.011929059
80	0xbe10a381	-0.14124872
81	0xbe04a72e	-0.12954399
82	0xbd3244db	-0.043522697
83	0xbe12459d	-0.14284368
84	0xbe487891	-0.19577242
85	0xbea0549f	-0.3131456
86	0xbbdeeb5d	-0.00680296
87	0xbe16761c	-0.14693493
88	0xbcab0c5c	-0.020879917
89	0xbcfdaf7c	-0.030967467
90	0x3d69358c	0.056935832
91	0xbeca7e54	-0.39549506
92	0xbe01094a	-0.126012
93	0x3d54ed9f	0.051984426
94	0xbe2db48e	-0.16963407
95	0xbdc3188e	-0.09526168
96	0xbe93cdb8	-0.28867888
97	0xbdf1b286	-0.11801629
98	0x3e09e92d	0.13467856
99	0xbe55d851	-0.208833
100	0xbe66e495	-0.22548135
101	0xbe5c412b	-0.21509235
102	0xbe14ae90	-0.14519715
103	0xbcf8f174	-0.030388571
104	0xbe4fb23d	-0.20282836
105	0xbe74f3df	-0.23921154
106	0xbdf9407f	-0.12170505
107	0x3c85631a	0.016282607
108	0xbe381c22	-0.17979482
109	0xbe74f360	-0.23920965
110	0xbe6b7885	-0.22995193
111	0xbe8ef5ce	-0.2792191
112	0xbe997af6	-0.29976624
113	0x3d76bb9a	0.060237505
114	0x3d6d518d	0.0579391
115	0xbe0c4860	-0.13699484
116	0xbddcdfeb	-0.107848965
117	0xbe241bfa	-0.16026297
118	0xbd84f13e	-0.06491326
119	0xbddeeb1e	-0.10884689
120	0xbe48f7e9	-0.1962582
121	0xbdc50552	-0.096201554
122	0xbcb4a3be	-0.022050735
123	0xbe216ebb	-0.15764897
124	0xbe2b5737	-0.16732489
125	0x3d44b6f7	0.04802605
126	0xbe107004	-0.1410523
127	0xbd607556	-0.0547994

transformer.encoder.layers.0.linear2.weight f4 [32, 128]
0	0xbe132574	-0.14369756
1	0x3ea8f38e	0.32998317
2	0xbe48f7e4	-0.19625813
3	0x3c86f7b3	0.016475534
4	0xbd991c8a	-0.074761465
5	0xbe617078	-0.2201556
6	0xbd29082a	-0.04126755
7	0x3ccc952d	0.024973476
8	0xbe30578c	-0.17220896
9	0xbea14bc5	-0.3150312
10	0xbca7388b	-0.020412704
11	0xbdf301ef	-0.11865603
12	0xbdab9ad6	-0.08379142
13	0x3d91499d	0.07094119
14	0xbd9cd255	-0.07657305
15	0xbe49332b	-0.19648425
16	0x3d87bfbc	0.06628367
17	0x3da49773	0.08036699
18	0x3d70de7a	0.05880592
19	0x3e872dfa	0.26402265
20	0xbd212c0c	-0.039348647
21	0x3d1f8446	0.038944505
22	0xbe680bd3	-0.2266076
23	0x3d359d8e	0.04433971
24	0x3dc036f5	0.09385482
25	0xbd81e75c	-0.063429564
26	0x3d1697e9	0.036765967
27	0xbd50ef63	-0.051009547
28	0xbe1b86df	-0.15188168
29	0x3e7e5505	0.2483712
30	0x3cee3d50	0.02908197
31	0x3c7ee32e	0.015557094
32	0xbda16415	-0.07880417
33	0xbdcb56d4	-0.099286705
34	0x3e35fbf2	0.17771891
35	0x3ca03bbf	0.01955974
36	0xbe1ae023	-0.15124564
37	0x3db29189	0.08719165
38	0xbdf85d2e	-0.121271476
39	0xbe50a76d	-0.20376368
40	0x3e0b16a1	0.13582851
41	0xbe28c82c	-0.1648261
42	0x3d8b3d3c	0.06798789
43	0x3d0e7d42	0.034787424
44	0xbdc74206	-0.0972939
45	0xbb562454	-0.0032675462
46	0x3e4e5fe5	0.20153768
47	0xbe9ebc6e	-0.31003135
48	0xbcf13846	-0.029445779
49	0x3e6c6bf5	0.23088057
50	0xbe36207d	-0.17785831
51	0xbd73087c	-0.059334263
52	0x3d20d453	0.03926499
53	0x3e219b2d	0.15781851
54	0x3d0220d6	0.031769596
55	0x3bbd8181	0.0057832603
56	0x3e31a028	0.17346251
57	0x3dea4545	0.11438993
58	0x3e52edb3	0.20598488
59	0x3da016a2	0.07816817
60	0x3e323d50	0.17406201
61	0x3e08e3d0	0.13368154
62	0x3d693e20	0.056944013
63	0x3df9e18a	0.12201221
64	0x3e930498	0.28714442
65	0xbe3ef0e3	-0.18646578
66	0xbde62cbd	-0.11239002
67	0xbdeed9d0	-0.11662638
68	0xbe66ebff	-0.22550963
69	0x3b4b65fc	0.003103613
70	0xbe0f9f3a	-0.14025584
71	0xbc0c84ef	-0.008576616
72	0xbceb65a1	-0.028734984
73	0xbda3ed44	-0.08004239
74	0x3df7f6d1	0.12107623
75	0xbceab75f	-0.028651891
76	0x3e0b6d82	0.13615993
77	0x3d47ddbb	0.048795443
78	0x3d183afe	0.037165634
79	0xbd8ed9d9	-0.06975145
80	0x3e40d573	0.18831424
81	0x3e0190f1	0.12652947
82	0x3dc3746c	0.0954369
83	0xbe1fd46a	-0.15608373
84	0xbb5d46ae	-0.0033764052
85	0x3cfcfab8	0.03088127
86	0x3ddcea7f	0.10786914
87	0x3e52384e	0.20529291
88	0xbe41b619	-0.18917121
89	0xbe74235b	-0.23841612
90	0xbe17cda6	-0.14824542
91	0x3d930459	0.071785636
92	0x3df682e3	0.120366834
93	0x3e59d777	0.212736
94	0xbd27ed48	-0.040997773
95	0xbdabe511	-0.083933
96	0x3ed1d8d5	0.40985742
97	0x3d338e51	0.043836895
98	0xbcc108d7	-0.023563785
99	0x3bcabbce	0.006186939
100	0x3de9f7bc	0.11424205
101	0xbe2806d6	-0.16408858
102	0x3e0b34be	0.13594338
103	0xbd92da67	-0.07170563
104	0xbcb28401	-0.02179146
105	0x3d7628f9	0.06009767
106	0xbd75f41a	-0.060047247
107	0xbd5514e4	-0.052021876
108	0xbe8cacfd	-0.2747573
109	0x3ef3b252	0.47596985
110	0xbd9dadc0	-0.07699156
111	0x3dfbe814	0.12300125
112	0x3e4caa03	0.1998673
113	0xbb99a1af	-0.0046884636
114	0xbe22ff68	-0.15917742
115	0xbe1c3bf4	-0.15257245
116	0x3e32b04a	0.17450061
117	0xbed62c25	-0.41830555
118	0x3cbfc73f	0.023410438
119	0xbdb7a2aa	-0.089665726
120	0xbd08e40f	-0.03342062
121	0x3dc2dd47	0.095148616
122	0xbe4b0c42	-0.19828895
123	0x3e87f86d	0.2655672
124	0x3e585547	0.2112628
125	0x3d30fbbf	0.043208834
126	0xbc4f43bb	-0.012650426
127	0x3dc2348d	0.094826795
128	0xbe4265dd	-0.1898417
129	0x3df2f50c	0.11863145
130	0xbe40bd3e	-0.1882219
131	0x3cbc8f0c	0.023017429
132	0xbd87baf2	-0.06627454
133	0x3b3f87d6	0.0029225252
134	0xbe50df02	-0.2039757
135	0xbe53ad1a	-0.20671502
136	0xbe6b7f54	-0.2299779
137	0x3d05c1a3	0.03265537
138	0x3e763a87	0.24045764
139	0xbd91be26	-0.07116346
140	0xbe8d27ef	-0.2756953
141	0x3cb66e47	0.022269381
142	0xbdcb1629	-0.09916336
143	0x3d84b16d	0.06479154
144	0x3dd1b5ee	0.102397785
145	0xbe6aa0e6	-0.2291294
146	0x3b8ad782	0.0042371163
147	0x3e5475a8	0.20748007
148	0x3e59599d	0.21225591
149	0xbdfea254	-0.124333054
150	0xbc640129	-0.013916292
151	0xbd24872a	-0.040167965
152	0xbe7d09ee	-0.24710819
153	0xbe064005	-0.13110359
154	0x3e9b23eb	0.3030084
155	0x3de304c4	0.11084893
156	0xbe59531d	-0.21223111
157	0xbd42d0d6	-0.047562443
158	0xbbd960d8	-0.006633859
159	0x3c9b48ab	0.01895555
160	0x3db31742	0.087446705
161	0x3dd2f42f	0.103004806
162	0x3d0499e3	0.03237332
163	0xbdf79a0c	-0.12089929
164	0x3c26da71	0.010183916
165	0xbe47ee89	-0.19524588
166	0xbd57e7cf	-0.052711304
167	0x3d6d10e0	0.05787742
168	0xbe438fac	-0.19097775
169	0xbdf26320	-0.11835313
170	0xbe20b38e	-0.15693495
171	0x3ebd8344	0.3701421
172	0x3e3bce35	0.1834038
173	0x3d0647a8	0.03278318
174	0x3d5d6be7	0.05405798
175	0xbdf2cdb8	-0.11855644
176	0x3e37d1ed	0.17951174
177	0x3e75cbe0	0.24003553
178	0xbeba6030	-0.3640151
179	0x3dcd844e	0.10035001
180	0x3e11fc01	0.14256288
181	0xbde095db	-0.10966083
182	0xbe2b08f6	-0.16702637
183	0xbd436957	-0.04770788
184	0x3d7280e5	0.059204955
185	0x3d55fc17	0.052242365
186	0x3d391474	0.04518552
187	0xbe4e63b4	-0.20155221
188	0x3e1b9abe	0.15195748
189	0x3cb3bb14	0.021939792
190	0xbea2f080	-0.31824112
191	0xbea21663	-0.31657705
192	0x3d676a8a	0.056498088
193	0xbe10df25	-0.14147623
194	0xbe141b0c	-0.14463443
195	0xbca837d7	-0.020534439
196	0xbe104e98	-0.14092481
197	0xbe305ae1	-0.17222168
198	0x3c5176fe	0.012784718
199	0x3d4973b4	0.04918261
200	0xbe20ed88	-0.15715611
201	0x3d4f4ea2	0.0506121
202	0x3d80fa58	0.06297749
203	0x3e519155	0.20465596
204	0x3e8e6afe	0.27816004
205	0xbe72b27f	-0.23700903
206	0xbdf659e9	-0.12028868
207	0xbd885a88	-0.066578925
208	0x3d152039	0.036407683
209	0x3b94fcb9	0.0045467285
210	0x3d4f477f	0.050605293
211	0xbe631691	-0.22176577
212	0xbdb672c9	-0.08908612
213	0x3e9ae354	0.30251563
214	0xbec6bc11	-0.38815358
215	0xbac5d652	-0.001509378
216	0xbeb1a375	-0.3469502
217	0xbc381ec1	-0.011237801
218	0xbe279aea	-0.16367689
219	0x3e76a30f	0.2408564
220	0xbebda3a1	-0.370389
221	0x3b4b190a	0.0030990266
222	0xbc994856	-0.01871125
223	0xbe14b059	-0.14520396
224	0x388ca8fb	6.707195e-05
225	0x3d48bf23	0.049010407
226	0x3c6fcbd6	0.014636001
227	0xbe327ae0	-0.17429686
228	0xbe602ab5	-0.21891291
229	0x3d95a59b	0.07306977
230	0xbe039491	-0.12849642
231	0xbc3ffbeb	-0.011717777
232	0xbe7209ab	-0.236365
233	0x3e41c6b9	0.18923463
234	0x3d3124f5	0.043248136
235	0x3eba006f	0.36328456
236	0x3e0b34a3	0.13594298
237	0x3e64a3c3	0.22328095
238	0xbe927f92	-0.28612953
239	0x3e5c0fdb	0.21490423
240	0x3dc04b43	0.09389355
241	0x3d2a3568	0.04155484
242	0x3dcb2f3e	0.0992112
243	0xbde36c1a	-0.11104603
244	0x3e87126b	0.2638124
245	0x3dd07e0d	0.10180292
246	0x3e3acc6b	0.18242042
247	0xbd42d21f	-0.04756367
248	0x3e2264cc	0.15858763
249	0x3c30a302	0.010781052
250	0xbd24ddc2	-0.040250547
251	0xbe8715d2	-0.26383835
252	0x3c447a7e	0.011992095
253	0x3c84cde0	0.01621145
254	0x3cb3033e	0.021852132
255	0x3e3e4bcb	0.185836

transformer.encoder.layers.0.linear2.bias f4 [32]
0	0x3d4f4a9c	0.050608262
1	0x3d89553f	0.067057125
2	0xbd03ba99	-0.032160375
3	0xbd949f8a	-0.07256992
4	0x3d75887a	0.059944607
5	0xbd3e0b65	-0.046397585
6	0xbd45f85e	-0.048332565
7	0xbc50b988	-0.012739547
8	0x3d476a31	0.048685256
9	0xbd7666a7	-0.06015649
10	0x3dab4253	0.0836226
11	0x3cccab11	0.024983915
12	0x3d38b7f6	0.045097314
13	0x3dbfe82f	0.093704574
14	0x3cf210d5	0.029549042
15	0x3d264439	0.040592406
16	0xbab12e9e	-0.0013517921
17	0x3b932b3b	0.0044912375
18	0xbd15e778	-0.0365977
19	0xbcd81f9f	-0.026382266
20	0xbc64b9d4	-0.0139603205
21	0xbcd41f06	-0.0258937
22	0xbc13b23e	-0.009014664
23	0xbdec006b	-0.11523517
24	0xbc5473bb	-0.012967045
25	0x3d875d80	0.066096306
26	0xbd06b43d	-0.032886732
27	0x3d72f3cd	0.059314538
28	0x3cab2d1a	0.02089553
29	0x3d572064	0.052521124
30	0xbd8a1786	-0.06742768
31	0x3d33f462	0.043934233

transformer.encoder.layers.0.norm1.weight f4 [32]
0	0x3f5bf05b	0.8591363
1	0x3f834b80	1.0257416
2	0x3f84c1cc	1.0371642
3	0x3f651296	0.89481485
4	0x3f47af75	0.780021
5	0x3f6d8679	0.92783314
6	0x3f81d3e7	1.0142792
7	0x3f7f719f	0.9978275
8	0x3f8f56a4	1.1198316
9	0x3f815f06	1.0107124
10	0x3f7a6360	0.97807884
11	0x3f866ddf	1.050228
12	0x3f840497	1.0313901
13	0x3f8296e0	1.0202293
14	0x3f588062	0.84570897
15	0x3f74a607	0.9556584
16	0x3f7e864a	0.9942366
17	0x3f85ae1b	1.0443758
18	0x3f97f9cb	1.1873106
19	0x3f77f7a4	0.96862245
20	0x3f8daf45	1.1069113
21	0x3f79a5d3	0.9751865
22	0x3f783cf4	0.9696801
23	0x3f88733c	1.0660167
24	0x3f55c6d2	0.835065
25	0x3f80e47c	1.0069728
26	0x3f88de82	1.0692904
27	0x3f7bb05e	0.9831599
28	0x3f6d64b7	0.92731804
29	0x3f933b95	1.1502558
30	0x3f8e30ef	1.1108683
31	0x3f7f167a	0.9964367

transformer.encoder.layers.0.norm1.bias f4 [32]
0	0x3e13910a	0.14410797
1	0xbc375052	-0.011188583
2	0xbdc9d1e1	-0.09854484
3	0x3d6da998	0.058023065
4	0xbdd61532	-0.104532614
5	0xbe29c215	-0.16577943
6	0x3d1c95ff	0.038228985
7	0x3df49cec	0.11943993
8	0x3da90920	0.082536936
9	0xbdc14741	-0.09437419
10	0x3c76715d	0.015041676
11	0xbdbb50bb	-0.091462575
12	0xbd47ec5d	-0.048809398
13	0x3d99372a	0.07481225
14	0x3da17ed7	0.07885521
15	0x3dcf06db	0.101087295
16	0x3d7f8ec9	0.06239203
17	0x3dc11e24	0.09429577
18	0xbe161f5b	-0.14660399
19	0x3d09f493	0.03368051
20	0x3bf6c707	0.00753105
21	0xbe28fbfe	-0.16502377
22	0x3ce08d16	0.027411025
23	0xbd226163	-0.039643656
24	0x3d3f1ea2	0.046660073
25	0xbd5659ca	-0.052331723
26	0x3cd077a0	0.025447667
27	0x3db9e5d1	0.09077037
28	0x3e04c916	0.12967333
29	0x3dd5a3bf	0.10431623
30	0xbd5597ba	-0.05214665
31	0xbd826c5a	-0.06368323

transformer.encoder.layers.0.norm2.weight f4 [32]
0	0x3f6a1cbb	0.9145009
1	0x3f696116	0.91163766
2	0x3f6e7dcf	0.9316072
3	0x3f84da8a	1.0379193
4	0x3f4ebf38	0.80760527
5	0x3f815dd9	1.0106765
6	0x3f82747d	1.0191799
7	0x3f5b51c2	0.8567163
8	0x3f72eff5	0.94897395
9	0x3f9105be	1.1329877
10	0x3f86b398	1.0523558
11	0x3f95a60e	1.1691301
12	0x3f887f6e	1.0663888
13	0x3f74ce46	0.9562725
14	0x3f8191a6	1.0122573
15	0x3f84d861	1.0378534
16	0x3f812d1e	1.0091894
17	0x3f86295b	1.0481371
18	0x3f82fe22	1.0233805
19	0x3f7426b7	0.95371574
20	0x3f81df1e	1.0146215
21	0x3f640fed	0.890868
22	0x3f79059f	0.972742
23	0x3f842bf2	1.0325911
24	0x3f52cff3	0.82348555
25	0x3f8eccb7	1.1156224
26	0x3f828268	1.0196047
27	0x3f7068e8	0.93910074
28	0x3f7c9de2	0.9867841
29	0x3f960da0	1.1722908
30	0x3f8c2c60	1.0951042
31	0x3f61159f	0.87923616

transformer.encoder.layers.0.norm2.bias f4 [32]
0	0xbd8211af	-0.06351029
1	0x3cc05774	0.0234792
2	0xbdfdf974	-0.12401095
3	0xbc5ee060	-0.0136033
4	0x3d584a01	0.05280495
5	0x3d9f679f	0.07783436
6	0x3d895ab1	0.06706751
7	0x3de396fe	0.11112784
8	0x3d5dec67	0.05418053
9	0x3c4b9374	0.012425292
10	0x398786eb	0.00025849728
11	0xbbe09894	-0.006854126
12	0xbd033270	-0.032030523
13	0x3dfeaf72	0.12435807
14	0x3d419bc9	0.04726771
15	0x3d923c02	0.07140352
16	0xbd380041	-0.044922117
17	0xbb8a9afd	-0.004229902
18	0x3d0a54cf	0.033772286
19	0xbde4c760	-0.1117084
20	0xbdba1771	-0.09086502
21	0x3dd3c32a	0.10339959
22	0x3c1ffd1e	0.009764938
23	0x3b7e61bd	0.003881558
24	0xbd853235	-0.06503717
25	0xbd038d04	-0.032116905
26	0x3db2d0da	0.087312415
27	0x3e1b8197	0.15186153
28	0xbc0a4888	-0.008440144
29	0x3bd79281	0.006578744
30	0xbd442a86	-0.047892116
31	0xbd36b943	-0.044610273
